cifar_net.pth (torch_old, 249684 bytes, 10 tensors)

conv1.weight f4 [6, 3, 5, 5]
0	0x3de80c2a	0.11330445
1	0xbd506e56	-0.050886475
2	0xbdc3e7d2	-0.095657006
3	0x3d4e31dc	0.05034052
4	0xbab34200	-0.0013676286
5	0x3d202220	0.039095044
6	0x3cf1a3f8	0.029497132
7	0xbda691ce	-0.08133279
8	0x3c579fa0	0.013160616
9	0x3d9efe20	0.07763314
10	0x3c648780	0.013948321
11	0x3d18c6ac	0.037298843
12	0xbd9234f0	-0.07139003
13	0xbde0f62b	-0.10984453
14	0x3cf27110	0.029594928
15	0xbc974324	-0.018464632
16	0x3d4b749c	0.049671754
17	0xbdda1e35	-0.10650293
18	0xbdd2d86d	-0.10295186
19	0x3d37d738	0.044882983
20	0xbde0a841	-0.10969592
21	0xbdd4abd9	-0.1038434
22	0x3d99feb0	0.07519281
23	0xbd8748a8	-0.06605655
24	0xbd3dadac	-0.046308205
25	0xbd17668c	-0.03696303
26	0x3de16140	0.11004877
27	0x3dc536fc	0.09629628
28	0x3da650aa	0.08120854
29	0x3ceab130	0.028648943
30	0x3b3fb2c0	0.002925083
31	0x3c1768e0	0.009241313
32	0x3cc1a038	0.023635969
33	0xbde53099	-0.1119091
34	0x3de52b72	0.11189927
35	0x3da71492	0.0815822
36	0x3d797028	0.060897976
37	0x3de5774e	0.11204396
38	0xbde0a2bc	-0.10968539
39	0x3ca072e8	0.019586042
40	0xbcdd3db0	-0.027006954
41	0x3d83bafa	0.06432147
42	0x3cf4d130	0.029884905
43	0xbc35b1f0	-0.011089787
44	0x3cba9e58	0.022780582
45	0xbd8c75a6	-0.06858377
46	0x3dcaa9d4	0.098956734
47	0xbd3e56d4	-0.046469525
48	0x3c215f80	0.009849429
49	0x3d8b5af6	0.06804459
50	0xbdb94ffe	-0.090484604
51	0xbd01e39c	-0.031711206
52	0xbd9ab4e8	-0.075540364
53	0x3cd877d0	0.026424319
54	0x3dd7c9ac	0.10536513
55	0x3dc2c83a	0.095108464
56	0x3b12d620	0.002240546
57	0xbd4f4a32	-0.050607868
58	0x3ca79448	0.020456448
59	0xbd474ce0	-0.048657298
60	0xbc817a6c	-0.015805446
61	0xbd779e76	-0.060453855
62	0x3bb0a640	0.0053909123
63	0xbd5f660d	-0.054540683
64	0xbd704857	-0.05866274
65	0xbd1a0842	-0.03760553
66	0x3da740b4	0.08166638
67	0x3d779700	0.06044674
68	0x3d87bf24	0.06628254
69	0xbcc8833c	-0.02447664
70	0xbd30710e	-0.043076567
71	0xbd356db2	-0.044294067
72	0x3da8094a	0.08204897
73	0xbdce786c	-0.100815624
74	0x3d8c2236	0.06842463
75	0xbda4d35b	-0.08048125
76	0x3cd228d8	0.025654241
77	0x3d9a2a00	0.07527542
78	0xbde9ca4b	-0.114155374
79	0x3da8a4d0	0.082345605
80	0x3d59aa0c	0.053140685
81	0x3cf90520	0.030397952
82	0xbcc4aea8	-0.024009064
83	0x3b8851b0	0.0041601285
84	0x3cf4ca00	0.029881477
85	0x3db917ca	0.090377405
86	0x3c6e52f0	0.014546141
87	0x3c34fe20	0.011046916
88	0xbd9d3a52	-0.07677139
89	0x3d43ff5c	0.04785095
90	0xbdb1959d	-0.086711146
91	0xbd5f1d6f	-0.05447143
92	0xbdafe38c	-0.08588323
93	0x3da7820c	0.08179101
94	0x3be42850	0.0069628134
95	0xbd00c65a	-0.031439163
96	0xbdd9bbae	-0.106315
97	0x3cc24e98	0.023719117
98	0xbd6bb017	-0.05754098
99	0x3d51fd3c	0.051266894
100	0x3c5ed620	0.013600856
101	0x3d49f3cc	0.04930477
102	0x3ccd3988	0.025051847
103	0x3d95c94c	0.07313785
104	0x3dccaa7a	0.09993453
105	0x3d9f5f02	0.07781793
106	0xbd4080b6	-0.04699775
107	0xbb56d2e0	-0.00327795
108	0x3d2ea314	0.042635992
109	0xbd929eac	-0.071591705
110	0xbdb831e0	-0.08993888
111	0x3de7ea52	0.1132399
112	0xbc08e260	-0.008354753
113	0x3dd5fc50	0.104485154
114	0xbde3aff6	-0.11117546
115	0x3d3f5b40	0.046717882
116	0x3d03af28	0.032149464
117	0xbdb1a4a0	-0.08673978
118	0xbd707c42	-0.05871225
119	0x3d74a954	0.059731796
120	0xbd8bee50	-0.06832564
121	0x3d3e03c8	0.046390325
122	0xbd4dd666	-0.050253294
123	0xbd297ebe	-0.041380636
124	0xbde48494	-0.111581
125	0xbc01cbf0	-0.007922158
126	0xbddcfe75	-0.10790721
127	0xbd4b693e	-0.049660914
128	0xbd9c273e	-0.07624672
129	0x3b993060	0.004674956
130	0x3b9b25b0	0.0047347173
131	0x3daf3fd6	0.085570976
132	0xbdc1bcc8	-0.09459835
133	0xbdeba4de	-0.11506055
134	0xbd46bba8	-0.048518807
135	0x3dea97c8	0.11454731
136	0xbb599ee0	-0.003320627
137	0xbdab7c75	-0.08373348
138	0x3d576814	0.05258949
139	0x3cb7b3f0	0.022424668
140	0x3d93ab04	0.07210353
141	0xbd905989	-0.070483275
142	0xbc47f2b8	-0.012203865
143	0xbbcb2dd0	-0.0062005296
144	0xbdbb74bf	-0.09153127
145	0xbd8abf60	-0.06774783
146	0xbdb96e14	-0.09054199
147	0xbbfccae0	-0.0077146143
148	0x3d7f7084	0.062363163
149	0xbd9825de	-0.074290976
150	0xbd320aea	-0.04346744
151	0xbda7dcb3	-0.08196392
152	0x3d58b0c4	0.05290295
153	0x3dbda984	0.09260848
154	0x3de25ab2	0.11052455
155	0x3b482c80	0.0030544102
156	0xbd88d138	-0.0668053
157	0xbd90bb0c	-0.07066926
158	0x3cc6fc48	0.024290219
159	0x3ddd3586	0.108012244
160	0x3d9aee98	0.075650394
161	0xbd29a3d6	-0.04141601
162	0xbd14b85e	-0.03630864
163	0x3cd299b8	0.025708064
164	0xbd81842c	-0.06324038
165	0xbd4291c4	-0.047502294
166	0xbd9d4da8	-0.076808274
167	0x3da53ad8	0.08067864
168	0x3d4a6b48	0.049418718
169	0x3d4ec1c4	0.050477758
170	0xbd377304	-0.04478742
171	0x3d6a948c	0.05727057
172	0xbcff2da0	-0.031149685
173	0xbd212718	-0.039343923
174	0x3d46b870	0.048515737
175	0xbd7a2127	-0.061066773
176	0x3dc0bd54	0.094111115
177	0x3cb5b338	0.022180185
178	0xbd59ac37	-0.053142752
179	0xbc851c48	-0.016248837
180	0x3dc4d916	0.09611718
181	0xbdd957fd	-0.106124856
182	0x3d292394	0.041293696
183	0x3d2dfaf8	0.04247567
184	0xbde191ee	-0.11014162
185	0xbd97ed95	-0.07418362
186	0x3d9be88c	0.07612714
187	0xbca97cd4	-0.020689406
188	0x3d3515ac	0.04421012
189	0x3dd01f80	0.10162258
190	0xbdd07805	-0.10179142
191	0xbd80557f	-0.06266307
192	0xbbea4fd0	-0.0071506277
193	0xbd3deaf0	-0.046366632
194	0xbde73d28	-0.112909615
195	0x3d58152c	0.052754566
196	0x3d449f7c	0.04800366
197	0x3c50c330	0.012741849
198	0x3d3345ec	0.043767855
199	0xbdbf7a1e	-0.09349464
200	0x3dca0ede	0.09866117
201	0xbd6fd9d2	-0.05855734
202	0xbc6d1d28	-0.014472283
203	0xbdbd9255	-0.09256426
204	0xbd795e14	-0.060880736
205	0xbd403310	-0.046923697
206	0xbd0cfe1a	-0.034422018
207	0xbcea81c8	-0.028626338
208	0x3c86d960	0.016461074
209	0x3d9e25e0	0.07722068
210	0x3d4dbd10	0.050229132
211	0xbd5bf3f6	-0.053699456
212	0xbde6f257	-0.112766914
213	0xbc748bc0	-0.014925897
214	0xbd45d0e4	-0.048294917
215	0x3d90128e	0.07034789
216	0xbda81e5c	-0.082089156
217	0xbd73ccce	-0.05952149
218	0x3d8ec1ec	0.069705814
219	0x3d063b94	0.032771662
220	0xbdb00934	-0.08595505
221	0xbdb86948	-0.09004456
222	0xbdd09eed	-0.10186563
223	0x3d9ee516	0.077585384
224	0x3d9b7b40	0.075918674
225	0x3d6a662c	0.057226345
226	0x3ccf43f8	0.025300965
227	0x3d5c97e8	0.053855807
228	0xbd987e12	-0.07445921
229	0xbd5351ec	-0.0515918
230	0x3c654e80	0.013995767
231	0xbde7ab9f	-0.11312031
232	0xbd90d55a	-0.070719436
233	0xbd63b910	-0.05559641
234	0xbdafeeb4	-0.08590451
235	0x3d83d568	0.064371884
236	0x3d564a98	0.052317232
237	0x3d3f4458	0.046696037
238	0xbcd790b4	-0.026314117
239	0x3d9e8b4c	0.077414125
240	0x3d3eab84	0.04655029
241	0xbc4a0600	-0.012330532
242	0x3d9fe1ec	0.07806763
243	0xbdc5dbef	-0.0966109
244	0xbd318ac6	-0.043345235
245	0x3dad1992	0.08452143
246	0xbdd12144	-0.10211423
247	0xbd48e75c	-0.049048766
248	0x3d9c808a	0.076417044
249	0xbd3e66bc	-0.046484694
250	0xbd8b33e8	-0.0679701
251	0x3bbb0820	0.0057077557
252	0xbd751272	-0.059832044
253	0xbd5f8503	-0.05457021
254	0xbc3481b8	-0.0110172555
255	0x3cc28f40	0.023749948

conv1.bias f4 [6]
0	0x3cf2f4f8	0.029657826
1	0x3dde3042	0.10849048
2	0x3d60e00c	0.054901168
3	0xbb193da0	-0.0023382679
4	0x3dd8135e	0.10550569
5	0x3d94f9cc	0.072742075

conv2.weight f4 [16, 6, 5, 5]
0	0x3d9b4092	0.07580675
1	0xbd7ceac3	-0.061747324
2	0x3d1406c8	0.03613928
3	0x3ca1a46c	0.019731723
4	0x3d10de24	0.0353681
5	0x3d726de0	0.059186816
6	0x3ae39780	0.0017363876
7	0x3d6998f0	0.05703062
8	0x3d1267da	0.03574357
9	0xbcc29ff8	-0.02375792
10	0x3c736fe0	0.014858216
11	0xbd95b93e	-0.07310723
12	0xbd6107b4	-0.054938987
13	0xba2b3180	-0.00065305084
14	0xbd5e07b2	-0.054206558
15	0xbc977718	-0.018489406
16	0x3d8d798c	0.06907949
17	0xbcaf4cbc	-0.021398894
18	0x3c05da20	0.008169681
19	0x3cb1c4a0	0.021700203
20	0xbd609f88	-0.05483964
21	0xbca6157e	-0.02027392
22	0x3d8dcfc4	0.06924394
23	0xbd964ec0	-0.07339239
24	0xbbd88360	-0.006607458
25	0xbd88f823	-0.06687953
26	0x3d10d22a	0.035356678
27	0xbc84ce54	-0.016211666
28	0x3da725e0	0.08161521
29	0xbad712c0	-0.0016408786
30	0xbd11cb27	-0.03559413
31	0x3d6348a0	0.055489182
32	0xbb3b3c00	-0.0028569698
33	0x3d86ac14	0.0657579
34	0x3b8de540	0.0043303072
35	0x3c935058	0.017982647
36	0x3d1e865a	0.038702346
37	0x3d105b7c	0.035243496
38	0x3a49f280	0.0007703677
39	0xbd9ad320	-0.075598
40	0x3c9dc1cc	0.019257449
41	0xbd12eae3	-0.035868537
42	0xbd4034f2	-0.046925493
43	0x3c454710	0.012040868
44	0xbd62294e	-0.055215172
45	0xbd88d199	-0.066806026
46	0xbd870efd	-0.06594656
47	0x3c8dffb0	0.017333835
48	0xbd820dda	-0.06350298
49	0x3b034d80	0.0020035207
50	0xbd999030	-0.07498205
51	0x3d76b234	0.06022854
52	0xbd42b796	-0.047538362
53	0xbd6c56aa	-0.057699837
54	0xbcbba55a	-0.022905994
55	0x3cbda258	0.0231487
56	0xbc0c10d0	-0.00854893
57	0x3d11cc58	0.035595268
58	0x3c954034	0.018219091
59	0x3cb6d3cc	0.02231779
60	0x3d7c6558	0.061620086
61	0xbd90a62f	-0.07062947
62	0x3d01997e	0.031640522
63	0x3d0f1c32	0.034939
64	0x3a06aa00	0.00051370263
65	0x3c86b610	0.016444236
66	0xbd905c5f	-0.070488684
67	0x3ccc9728	0.02497442
68	0x3d8cd0f4	0.06875792
69	0xbd1fdd35	-0.03902932
70	0x3c81da4c	0.015851162
71	0xbd9e3183	-0.07724287
72	0xbd811ff1	-0.063049205
73	0x38b88800	8.799136e-05
74	0x3da31e98	0.0796482
75	0xbd8b5572	-0.06803407
76	0xbd07c7ae	-0.033149414
77	0x3cce59d8	0.025189325
78	0xbb016da0	-0.001974918
79	0x3d4e1430	0.05031222
80	0xbcc59d66	-0.024122905
81	0xbd7f2a1e	-0.062296025
82	0x3d834daa	0.064112976
83	0x3c822e00	0.015891075
84	0x3d548ba0	0.05189097
85	0x3d977680	0.07395649
86	0x3d292522	0.04129518
87	0x3d0d009a	0.0344244
88	0x3a908800	0.0011026859
89	0x3ce26e5c	0.027640514
90	0x3d8da15e	0.06915544
91	0x3d74aa98	0.059733003
92	0x3aa935c0	0.0012909696
93	0xbd150602	-0.036382683
94	0xbcd5bc94	-0.026090898
95	0x3d4fef94	0.05076559
96	0xbcb3cf24	-0.021949358
97	0xbccd0b34	-0.025029756
98	0xbd763fc6	-0.060119413
99	0xbd0f10d0	-0.034928143
100	0xbd3d8abd	-0.04627489
101	0xbda45762	-0.080244794
102	0xbd7d19c6	-0.061792158
103	0xbcd27c7e	-0.025694128
104	0x3c285920	0.010275155
105	0x3d5f0fc8	0.05445841
106	0xbd5e50a2	-0.054276116
107	0xbd707ee3	-0.05871476
108	0xbd6dc0c2	-0.058045156
109	0xbd09c2b7	-0.03363296
110	0x3d8ca494	0.06867328
111	0x3ba8eae0	0.0051549524
112	0x3d594810	0.05304724
113	0xbc9dc120	-0.019257128
114	0x3cf37c58	0.029722378
115	0x3d23604c	0.039886758
116	0x3c8ebfec	0.0174255
117	0x3d871dac	0.06597456
118	0xbb13d6a0	-0.0022558346
119	0xbbf86d00	-0.007581353
120	0x3d88bd86	0.06676774
121	0xbd8b94ac	-0.06815466
122	0xbc1fda98	-0.009756707
123	0x3d1937f2	0.03740687
124	0xbd798870	-0.060921133
125	0x3d1a41c2	0.037660368
126	0xbd8729f5	-0.065997995
127	0xbd8f21ee	-0.069888934
128	0xbd9e527d	-0.07730577
129	0x3b822fa0	0.0039729625
130	0xbd656863	-0.056007754
131	0xbc8339ac	-0.016018711
132	0x3cfdaeb8	0.030967101
133	0x3cf4cb94	0.02988223
134	0xbb6aa520	-0.0035803989
135	0xbd6bed5e	-0.057599418
136	0x3d68f044	0.05686976
137	0xbcb5cf40	-0.022193551
138	0xbd792cd4	-0.060833767
139	0xbda459b0	-0.08024919
140	0x3d867e94	0.065671116
141	0xbd824be7	-0.063621335
142	0x3da139a0	0.07872319
143	0xbc8eddbc	-0.017439716
144	0xbd9978ac	-0.074937195
145	0x3d496bec	0.049175188
146	0xbc313b28	-0.010817327
147	0x3d714b18	0.058909506
148	0x3d1cbb5c	0.038264617
149	0x3b99d280	0.004694283
150	0x3cad1f28	0.02113302
151	0xbd21f484	-0.03953983
152	0x3d353cc4	0.044247404
153	0xbc564620	-0.013078243
154	0xbcb05318	-0.021523997
155	0xbc738028	-0.014862098
156	0x3c269848	0.010168143
157	0xbbc45d50	-0.005992569
158	0xbd053742	-0.0325234
159	0xbd8be6d6	-0.06831138
160	0xbd2b5c21	-0.041835908
161	0xbd87267d	-0.06599138
162	0x3d60dc94	0.05489786
163	0xbda3f8ab	-0.08006414
164	0x3d9b20d6	0.07574622
165	0x3d6bb008	0.057540923
166	0x3c1a7c88	0.009429105
167	0xbd5d7bfa	-0.05407331
168	0x3d9509ee	0.072772846
169	0xbd0aca96	-0.033884607
170	0xbd98beb0	-0.07458246
171	0xbd8c9e26	-0.06866102
172	0x3c602448	0.013680525
173	0xbda59d22	-0.08086611
174	0xbd430c0e	-0.047618918
175	0xbd1f849c	-0.038944826
176	0xbb9717c0	-0.0046109855
177	0xbd32ed2d	-0.04368322
178	0xbd7ca8d0	-0.06168443
179	0xbd5cc048	-0.05389431
180	0xbd0e746a	-0.03477899
181	0xbd95e0ac	-0.073182434
182	0xbbcd0e70	-0.0062578246
183	0x3cc59bec	0.0241222
184	0x3ae99980	0.0017822236
185	0x3bf12420	0.0073590428
186	0x3da25fde	0.079284415
187	0x39912c00	0.00027689338
188	0xbd2d5eba	-0.042326666
189	0xbce6e87a	-0.028187025
190	0xbd46a0c4	-0.04849316
191	0x3cf3c2c0	0.02975595
192	0xbcdb3634	-0.026759245
193	0x3cd647cc	0.026157282
194	0xbc8487d4	-0.01617805
195	0x3c718450	0.014741018
196	0x3c939624	0.018015929
197	0xbc22e2a8	-0.009941734
198	0x3c0899d8	0.00833746
199	0x3d7601b4	0.060060218
200	0x3d60f9f4	0.054925874
201	0xbd2759b8	-0.040857047
202	0xbcd2909e	-0.025703724
203	0x3d1a7e2e	0.03771799
204	0xbd18da8f	-0.03731781
205	0x3d2ed00c	0.042678878
206	0x3d41adb0	0.047284782
207	0x3a4f7080	0.0007913187
208	0xbb2ce160	-0.002637945
209	0xbcc26e2a	-0.023734171
210	0x3d15d0d8	0.036576122
211	0xbcc5d20a	-0.024148006
212	0xbd523c29	-0.051326904
213	0xbd394518	-0.04523191
214	0xbd17fad2	-0.037104435
215	0xbc7ab9d0	-0.01530309
216	0x3d6abc90	0.057308733
217	0x3d0b350a	0.03398613
218	0xbd21229a	-0.03933964
219	0xbcc17fb4	-0.023620464
220	0x3c4439d0	0.011976674
221	0x3cc0e558	0.02354686
222	0xbd319ccc	-0.043362424
223	0xbd83091e	-0.06398223
224	0xbd67e2e3	-0.05661286
225	0x3c90a6d8	0.017657682
226	0xbccfb3aa	-0.025354225
227	0x3d292192	0.04129178
228	0xbc81b66c	-0.015834056
229	0x3d73154c	0.059346482
230	0xbd60eb04	-0.05491163
231	0xbcbdfc76	-0.023191672
232	0xbcd257a6	-0.02567656
233	0xbd3fd819	-0.046836946
234	0xbca76080	-0.020431757
235	0xbd0f3f6d	-0.034972597
236	0x3b42db60	0.0029732808
237	0xbd384b95	-0.044993956
238	0xbbe16290	-0.0068782046
239	0xbc8680a0	-0.016418755
240	0x3c8b66bc	0.017016761
241	0xbd51cda3	-0.0512215
242	0x3d307dc0	0.043088675
243	0x3d88784e	0.06663571
244	0xbc19e068	-0.0093918815
245	0xbd3f31bf	-0.0466783
246	0x3cf528f4	0.029926755
247	0xbd91fc84	-0.07128242
248	0x3d6adf38	0.057341784
249	0x3b2697c0	0.002542004
250	0x3cd10368	0.02551432
251	0xbd132f42	-0.03593374
252	0x3c5d8cf8	0.013522379
253	0x3d357c00	0.04430771
254	0x3d205e20	0.039152265
255	0xbd937a15	-0.0720102

conv2.bias f4 [16]
0	0x3d0783ee	0.033084802
1	0xbda691d4	-0.08133283
2	0xbd01f32a	-0.03172604
3	0xbd85acd9	-0.06527109
4	0xbd243af4	-0.040095285
5	0x3d80e69c	0.06293985
6	0xbda2f519	-0.07956905
7	0x3cdb38f0	0.026760548
8	0x3c2aa820	0.010416061
9	0xbd8e9917	-0.06962793
10	0x3d2184dc	0.039433345
11	0xbd250330	-0.040286243
12	0xbda01537	-0.078165464
13	0xbc41a590	-0.011819258
14	0xbcb3a6f8	-0.021930203
15	0x3d6b44f4	0.057438806

fc1.weight f4 [120, 400]
0	0x3d1ad981	0.037805084
1	0x3d3d3fb5	0.046203334
2	0x3d239e29	0.039945755
3	0x3d41e545	0.04733779
4	0xbbffec10	-0.0078101233
5	0x3d0802a1	0.033205632
6	0x3cfd7592	0.030939851
7	0x3d295965	0.04134502
8	0xbd49dcd5	-0.049282867
9	0x3a526f80	0.0008027479
10	0xbd2c3283	-0.04204036
11	0xbd21ae7b	-0.03947304
12	0x3c18ed40	0.009333909
13	0xbd4c12bd	-0.049822558
14	0x3cbe006a	0.023193557
15	0x3cd0643e	0.025438424
16	0xbc844a96	-0.016148847
17	0x3cd45eaa	0.025924046
18	0x3ca607fa	0.020267475
19	0x3d2db839	0.042412017
20	0x3c2300c0	0.009948909
21	0xbcc94d5d	-0.024573022
22	0x3c700054	0.014648516
23	0x3d22f1e7	0.039781477
24	0xbc682c0c	-0.014170658
25	0x3c2f05e0	0.010682553
26	0x3cd01dc2	0.025404815
27	0xbd0dd7ce	-0.034629636
28	0x3d11eed7	0.035628166
29	0xbcee9fb3	-0.029128885
30	0x3c020d38	0.007937722
31	0x3bf327d0	0.0074205175
32	0xbcd2f357	-0.0257508
33	0xbb2abe60	-0.0026053414
34	0x3c2394e0	0.009984225
35	0x3b790ae0	0.0038000867
36	0xbceefeba	-0.029174197
37	0xbced8bb3	-0.028997278
38	0x3ca73472	0.02041075
39	0x3d06acf3	0.03287978
40	0x3c8337b2	0.016017769
41	0x3971cd00	0.0002305992
42	0x3c69d03c	0.014270838
43	0xbcde6af7	-0.027150614
44	0xbcc13c53	-0.023588335
45	0xbb1fbae0	-0.002437286
46	0x3c5a1934	0.013311673
47	0xbc3b9894	-0.011449952
48	0x3d319539	0.0433552
49	0xbca62c00	-0.020284653
50	0x3c0f5b38	0.008749776
51	0x3d4ca4e9	0.049961958
52	0xbd1374aa	-0.03599993
53	0xbc0145d8	-0.007890187
54	0xbaa257c0	-0.0012385771
55	0x3cd8e6fa	0.026477326
56	0x3caebf9e	0.021331605
57	0xbcaaa783	-0.020831829
58	0x38957c00	7.1279705e-05
59	0x3c921252	0.017831001
60	0x3cdea3d2	0.027177725
61	0xba83e600	-0.0010063052
62	0x3b844428	0.004036445
63	0x3c7f9aa4	0.015600834
64	0x3c4d711c	0.012539174
65	0x3c9e7e32	0.019347284
66	0x3d1e8dd1	0.038709465
67	0x3d4561c3	0.048188936
68	0xbc5c76e0	-0.013456076
69	0xbce8972a	-0.028392393
70	0x3ccd57f2	0.02506635
71	0xbcbd47d0	-0.023105532
72	0xbc1f8b54	-0.009737808
73	0xbd4536cf	-0.048147973
74	0x3caba31a	0.020951796
75	0xbcb0fea0	-0.02160579
76	0x3b521500	0.0032055974
77	0xbc4f1020	-0.012638122
78	0x3d2cb805	0.042167682
79	0x3d2bc63b	0.041937094
80	0x3bd4f900	0.0064994097
81	0xbb821f80	-0.0039710402
82	0x3d37ee8f	0.04490524
83	0xbc8ed976	-0.017437678
84	0xbc170fd8	-0.009220086
85	0x3c8d2f72	0.017234538
86	0xbc2b3a88	-0.010450967
87	0xbd2e4898	-0.0425497
88	0x3d349683	0.04408885
89	0x3d24a161	0.040192965
90	0xbc6b5eb4	-0.014365841
91	0xbb6f7f00	-0.0036544204
92	0xbc0fdb08	-0.008780248
93	0xbad4a760	-0.0016224198
94	0x3b1aff00	0.0023650527
95	0xbd030c2d	-0.031994034
96	0xbd40a2fb	-0.04703043
97	0xbcf1c590	-0.02951315
98	0x3beabf18	0.0071638934
99	0x3a855ba0	0.0010174401
100	0xbc543e80	-0.012954354
101	0x3a5ce740	0.0008426793
102	0xbcf9b9e0	-0.03048414
103	0x3a8cd4c0	0.0010744557
104	0xbcb4720a	-0.022027034
105	0x3d3ea601	0.046545032
106	0xbd3ee237	-0.046602454
107	0x3d23a371	0.03995079
108	0xb9485800	-0.00019106269
109	0x3bd82a90	0.0065968707
110	0xbd0d1442	-0.034443147
111	0x3c5ee984	0.013605479
112	0xbaa93e60	-0.0012912266
113	0x3cbcb922	0.023037497
114	0x3c9baa42	0.019002084
115	0xbc871c84	-0.01649309
116	0x3cd60cfe	0.026129242
117	0x3d3bfedf	0.04589736
118	0x3d1a3d7d	0.037656296
119	0x3d359e1b	0.044340234
120	0xbc38b154	-0.011272747
121	0xbd2e35d2	-0.042531796
122	0xbad301c0	-0.0016098544
123	0xbcd313d3	-0.025766289
124	0xbd134e9e	-0.035963647
125	0x3cf39ce2	0.029737893
126	0xbc541574	-0.012944568
127	0xbcd62647	-0.026141299
128	0x3d36cb6b	0.04462759
129	0xbc3fe5c0	-0.0117124915
130	0xbcd2d02d	-0.025734032
131	0xbd0012bc	-0.031267866
132	0x3d2c9d43	0.042142164
133	0x3d0c3cfb	0.034237843
134	0xbd0dde42	-0.03463579
135	0xbcac2d93	-0.021017825
136	0x3cd78c32	0.026311968
137	0xbc7910f8	-0.0152018
138	0xbc005d68	-0.00783477
139	0x3d3499d5	0.04409202
140	0x3c1f0d20	0.009707719
141	0xbd24678e	-0.04013782
142	0x3d2c6761	0.042090777
143	0x3b7cc060	0.0038566813
144	0xbd32af9d	-0.04362451
145	0xbcfda797	-0.030963702
146	0xbd215a2a	-0.039392628
147	0xbb8ace90	-0.00423605
148	0x3ce08662	0.027407829
149	0xbd015fda	-0.03158555
150	0xbba1f228	-0.0049421974
151	0xbb483100	-0.0030546784
152	0xbcb6ac7d	-0.022299046
153	0xbb7a3120	-0.0038176253
154	0x3c6d4c4c	0.014483523
155	0x3d210e75	0.039320428
156	0xbcf3beb0	-0.029754013
157	0xbce1495a	-0.027500797
158	0x3d4c5733	0.049887847
159	0xbce85af7	-0.028363688
160	0xbd103225	-0.03520407
161	0x3d1df319	0.038561914
162	0xbd1b83a0	-0.037967324
163	0xbd191b13	-0.037379336
164	0x3d4526a9	0.048132572
165	0x3d3083eb	0.043094557
166	0xb95e9d00	-0.00021230057
167	0xbd2a2f4d	-0.041549016
168	0xbc84a52c	-0.016192041
169	0xbd35aa95	-0.044352133
170	0xbc9f039a	-0.019410897
171	0xbcdae850	-0.026722103
172	0x3cbcb8c2	0.023037318
173	0x3d0b0939	0.033944342
174	0xbd37ee55	-0.044905026
175	0xbd3e160d	-0.046407748
176	0x3d11b799	0.035575483
177	0x3cc06d06	0.023489486
178	0xbd02ba34	-0.03191586
179	0xbbfcd198	-0.007715415
180	0x3cb1f6de	0.02172416
181	0xbd36b313	-0.044604372
182	0x3c99b3ae	0.018762436
183	0x3d0d20f9	0.034455273
184	0x3d14c625	0.036321778
185	0xbb55f930	-0.0032649748
186	0x3a6d2f40	0.00090478733
187	0xbc1dd0d4	-0.009632308
188	0xbc4b8408	-0.012421615
189	0x3c7a3f44	0.015273873
190	0x3c8805e6	0.016604375
191	0x3d25daad	0.04049175
192	0xbc670820	-0.014101058
193	0xbc862806	-0.016376507
194	0x3c286af8	0.01027941
195	0xbc8a7944	-0.016903527
196	0xbcdc78aa	-0.026913006
197	0xbcbee0f0	-0.023300618
198	0xbd0034fc	-0.03130053
199	0x3d351413	0.044208597
200	0x3c0d4260	0.008621782
201	0xbd162fe0	-0.03666675
202	0xbbed5f00	-0.007243991
203	0x3aff1860	0.001946222
204	0xbc594588	-0.013261206
205	0xbd1b4510	-0.03790766
206	0x3c39c7a0	0.011339098
207	0xbd22b8d2	-0.03972704
208	0x3c212fa0	0.009838015
209	0xbc1b0c18	-0.009463333
210	0x3d280527	0.04102054
211	0xbd1b4535	-0.037907798
212	0xbd0937bc	-0.033500418
213	0x3c951e42	0.018202905
214	0x3d487d55	0.04894765
215	0xbd4945cd	-0.049138833
216	0x3ca8745a	0.020563293
217	0xbc4c668c	-0.012475621
218	0xbd1f5b48	-0.038905412
219	0x3c6ad1a4	0.014332209
220	0xbcf4172d	-0.029796207
221	0xbc922da4	-0.017844029
222	0xbae251c0	-0.0017266795
223	0x3c8876b2	0.01665816
224	0x3a9040c0	0.0011005625
225	0xbcec35a0	-0.028834164
226	0xbd4c1990	-0.049829066
227	0x3d39de41	0.045377973
228	0x3d34272f	0.04398268
229	0x3d3731bf	0.044725176
230	0xb8ead600	-0.0001119785
231	0x3c2bda88	0.010489114
232	0xbca42b10	-0.020040065
233	0x3d1cee31	0.038313095
234	0x3c7e3984	0.0155166425
235	0xbc4fdbf4	-0.012686718
236	0x3d15c7ff	0.036567684
237	0x3d0930b1	0.0334937
238	0x3d43e5e7	0.047826674
239	0x3be298a8	0.0069151707
240	0xbce208f0	-0.027592152
241	0xbc9a3d5a	-0.018828083
242	0x3cedbc0a	0.029020328
243	0x3d09bbc1	0.03362632
244	0x3b58dd80	0.0033091009
245	0x3adc3640	0.0016800836
246	0xbc051488	-0.008122571
247	0xbd1c25b3	-0.03812189
248	0xba304740	-0.0006724484
249	0xbbe53040	-0.0069942772
250	0x3d307b4f	0.043086346
251	0x3c9c8a9e	0.019109067
252	0x3ce3d6e2	0.027812425
253	0x3caf27ee	0.021381345
254	0x3cdfba9e	0.027310666
255	0x3cc7bc4a	0.024381775

fc1.bias f4 [120]
0	0x3c83c2fe	0.01608419
1	0x3d213f4f	0.039367016
2	0x3d359d17	0.044339266
3	0x3d0170af	0.031601604
4	0x3b129260	0.0022365078
5	0xbd4862d2	-0.048922367
6	0xbb17ca50	-0.002316136
7	0x3c92b3ba	0.017907966
8	0x3ce6a4a6	0.028154682
9	0xbd197e73	-0.037474107
10	0x3d204ee1	0.039137725
11	0xbb60fc80	-0.003433019
12	0x3bcfc658	0.006340783
13	0xbbdb6bd0	-0.006696202
14	0x3d17ba91	0.037043158
15	0x3c9d7cc2	0.019224528
16	0x3d2592c9	0.04042319
17	0xbbf21728	-0.0073880143
18	0x3b517be0	0.0031964704
19	0xbce6f640	-0.028193593
20	0x3d26c785	0.04071762
21	0x3d113955	0.035455067
22	0x3d154957	0.036446895
23	0x3b883118	0.004156243
24	0x3d2133a9	0.039355908
25	0xbcdea423	-0.027177876
26	0xbaa129c0	-0.0012295768
27	0xbd4413aa	-0.047870316
28	0xbcf039a0	-0.029324353
29	0xbb80d210	-0.0039312914
30	0xbba5ae70	-0.005056195
31	0xbd322dbf	-0.043500658
32	0x3c97237a	0.018449534
33	0x3d1eb99b	0.038751226
34	0x3d29d72f	0.04146498
35	0xbd19d7b6	-0.037559234
36	0x3d44b359	0.0480226
37	0xbcaaa7a7	-0.020831896
38	0x3d2d4407	0.042301204
39	0xbbb899e8	-0.0056335814
40	0xbd0eaa65	-0.03483047
41	0xbc1af640	-0.009458125
42	0xbbb19390	-0.005419202
43	0xbcc378b0	-0.02386126
44	0x3c61fd7c	0.013793346
45	0x3d398def	0.045301374
46	0xbc1235c0	-0.008923948
47	0x3c5d5294	0.013508458
48	0xbccea02a	-0.025222857
49	0x3cf871ea	0.030327756
50	0xbd14763a	-0.036245562
51	0xbcbf9a3d	-0.023388976
52	0x3c6366a4	0.013879452
53	0x3c92c7be	0.01791751
54	0xbd2352e3	-0.03987397
55	0x3c6c2304	0.014412645
56	0xbd19710b	-0.03746132
57	0x3c96d36a	0.018411357
58	0x3c80d2b2	0.015725467
59	0x3c9d70f2	0.019218896
60	0x3caf0d4a	0.021368641
61	0xbd337bb3	-0.04381914
62	0x3c40354c	0.011731457
63	0xbce253b3	-0.027627802
64	0x3d2eb99b	0.042657476
65	0xbd37b505	-0.044850368
66	0x3d325cfd	0.04354571
67	0xbc6cd668	-0.014455415
68	0xbd0dbd80	-0.03460455
69	0x3cdcaae6	0.02693696
70	0x3cdee812	0.02721027
71	0x3d07f843	0.033195745
72	0x3cfff052	0.031242523
73	0xbcd5ca20	-0.026097357
74	0xbd08a785	-0.033362884
75	0x3c3a8a54	0.011385519
76	0xbc6bd248	-0.014393397
77	0xbcb8dc3a	-0.02256595
78	0xbcd4838a	-0.025941629
79	0x3c8b8e26	0.017035555
80	0x3d3b5753	0.045737576
81	0xbd477b97	-0.04870185
82	0x3c17f954	0.009275753
83	0xbcfbed3a	-0.030752767
84	0x3bc9e880	0.0061617494
85	0xbd460443	-0.048343908
86	0xbca5a230	-0.020218939
87	0xbb3c3ba0	-0.0028722063
88	0x3cbed49e	0.023294743
89	0x3c904dd2	0.017615233
90	0x3cbd8bc6	0.023137938
91	0xbd48f3bd	-0.049060572
92	0xbc91fc56	-0.017820518
93	0xbbb51ac0	-0.0055268705
94	0x3b80b718	0.0039280765
95	0x3cd23096	0.025657933
96	0x3cab0926	0.020878386
97	0x3ca7a43a	0.020464052
98	0xbd392a72	-0.045206495
99	0x3d4a3961	0.049371127
100	0x3d0d8e79	0.0345597
101	0x3cfac192	0.03060988
102	0xbd115fbb	-0.035491686
103	0x3d259b49	0.040431295
104	0x3c48f02c	0.012264293
105	0xbd22fbb2	-0.039790817
106	0x3c6f6d74	0.014613498
107	0x3c3aeb34	0.011408616
108	0x3d1e3601	0.03862572
109	0x3d285c59	0.041103695
110	0x3cf502ae	0.029908504
111	0xbc3c700c	-0.011501323
112	0xbd3a22fb	-0.045443516
113	0x3d4a254d	0.04935198
114	0x3bee5fd8	0.007274609
115	0x3aa5bbc0	0.0012644455
116	0xbce72aa3	-0.028218573
117	0x3cb46b62	0.02202386
118	0x3b3b3100	0.0028563142
119	0x3ca342f6	0.01992939

fc2.weight f4 [84, 120]
0	0xbda178ec	-0.07884392
1	0xbcd6c350	-0.02621618
2	0x3d831174	0.06399813
3	0xbd94e736	-0.072706625
4	0x3cac9f38	0.021072015
5	0x3b4b9260	0.0031062588
6	0x3cbb2c9c	0.02284842
7	0x3d9ba672	0.07600106
8	0xbda6d548	-0.08146149
9	0xbcb9589c	-0.02262526
10	0xbd64b961	-0.055840854
11	0xbd5e146d	-0.0542187
12	0xbd0c7b4e	-0.03429728
13	0xbcd21f04	-0.025649555
14	0xba449200	-0.00074985623
15	0x3b343300	0.0027496219
16	0xbc953c10	-0.018217117
17	0xbcbcff18	-0.023070857
18	0x3d958e0a	0.073024824
19	0xbcaa8d44	-0.020819314
20	0x3d92dee0	0.07171416
21	0xbd52cc2c	-0.051464245
22	0xbd8e9e9f	-0.06963848
23	0x3d47d3ac	0.04878585
24	0x3d2e18c8	0.042504102
25	0x3dabcc3c	0.08388564
26	0x3ccb394c	0.024807595
27	0x3d0aad48	0.03385666
28	0xbd4a7cce	-0.04943543
29	0xbd83faad	-0.06444297
30	0x3db12b26	0.08650808
31	0xbd9863b6	-0.07440893
32	0xbdb4e263	-0.08832242
33	0x3d7c4098	0.06158504
34	0x3b956310	0.0045589283
35	0xbd007a28	-0.031366497
36	0xbd9cf7bd	-0.0766444
37	0x3d9e1e1a	0.07720585
38	0xbd29d1b8	-0.04145977
39	0xbcdb9658	-0.026805088
40	0xbd84f706	-0.064924285
41	0x3d831974	0.06401339
42	0xbdb7c376	-0.08972828
43	0xbd0b684d	-0.034035016
44	0xbb5d8780	-0.0033802688
45	0x3da23260	0.079197645
46	0xbcf87032	-0.030326936
47	0xbd7d3070	-0.06181377
48	0xbdbad990	-0.09123528
49	0x3db90544	0.090342075
50	0x3ca758b0	0.020428032
51	0xbd39a5fd	-0.045324314
52	0x3d7a408c	0.061096713
53	0x3d028022	0.03186048
54	0xbd0f821a	-0.035036184
55	0x3d8acb40	0.06777048
56	0xbd10b009	-0.03532413
57	0x3c505048	0.012714453
58	0x3db3f28a	0.08786495
59	0xbcb4dabc	-0.022076957
60	0x3c8b4f20	0.017005503
61	0x3da9a918	0.08284205
62	0xbd94d96c	-0.072680324
63	0xbd5b4adb	-0.053538185
64	0xbca2ea50	-0.01988712
65	0x3c7a7fa0	0.015289217
66	0x3d9e9a7c	0.07744309
67	0x3c8c80f8	0.01715134
68	0xbda53ae5	-0.08067874
69	0xba754380	-0.00093560666
70	0x3d59e738	0.053199023
71	0x3dab421e	0.0836222
72	0x3dabe636	0.083935186
73	0x3c090de8	0.008365132
74	0x3d98596c	0.07438931
75	0xbc8b2420	-0.016985
76	0xbcd771f8	-0.026299462
77	0x39bbc100	0.00035811216
78	0xbdb7e1c2	-0.08978607
79	0x3c667cb0	0.014067814
80	0x3baa8300	0.0052036047
81	0xbdaeeaaa	-0.08540852
82	0x3d6fc100	0.05853367
83	0x3db77c34	0.08959237
84	0xbd704db6	-0.05866786
85	0x3cf46a28	0.029835775
86	0xbda9fd15	-0.08300225
87	0x3d722f48	0.059127122
88	0x3cc549f4	0.024083115
89	0xbd994b3c	-0.07485053
90	0x3d6b9aa8	0.05752054
91	0x3bc20430	0.0059209093
92	0xbd313487	-0.043262985
93	0xbd9c9cb4	-0.07647076
94	0x3db998b2	0.090623274
95	0x3c52bde8	0.01286266
96	0xbd9950ea	-0.07486136
97	0x3d9fb6ee	0.07798563
98	0x3da54dda	0.0807149
99	0xbb0a3d40	-0.0021093637
100	0xbd1c1119	-0.038102243
101	0xbd95834a	-0.07300432
102	0xbc5b5438	-0.0133867785
103	0x3d79d0cc	0.06099014
104	0xbc74c280	-0.014938951
105	0x3d450518	0.04810056
106	0x3da9e940	0.08296442
107	0xbd3e96fd	-0.046530712
108	0xbd951e28	-0.072811425
109	0x3d4c7124	0.049912587
110	0xbd0a1c67	-0.033718493
111	0xbd91271e	-0.07087539
112	0x3c225c48	0.009909697
113	0x3c4cfd38	0.012511544
114	0x3c78d8c8	0.015188403
115	0xbb1644c0	-0.0022929162
116	0x3cf205ec	0.02954384
117	0xbd7ed897	-0.062218275
118	0x3abf2600	0.0014583468
119	0x3abfd980	0.0014636964
120	0xbbdfccf0	-0.0068298504
121	0xbc2764d0	-0.010216907
122	0xbd0bd283	-0.034136306
123	0xbcc75518	-0.024332568
124	0xbca6f964	-0.02038259
125	0xbd644ffa	-0.055740334
126	0xbd9bd060	-0.07608104
127	0x3d257c50	0.040401757
128	0x3d2a0d50	0.041516602
129	0x3d0a6380	0.033786297
130	0xbd0e2644	-0.03470446
131	0xbd22fca3	-0.039791714
132	0x3d9dcf2a	0.07705529
133	0xbd8fb96e	-0.0701779
134	0x3c24b978	0.010053985
135	0x3d5e2e60	0.054243445
136	0xbd2848a0	-0.041084886
137	0xbdb3875c	-0.08766052
138	0xb9a39b00	-0.00031205267
139	0xbd81f6f9	-0.063459344
140	0xbd13ad7d	-0.036054123
141	0xbcad1338	-0.021127328
142	0xbd52490f	-0.051339205
143	0x3c574048	0.013137884
144	0xbc66cbb0	-0.014086649
145	0x3c2836e0	0.0102669895
146	0x3d59f4c8	0.053211957
147	0x3c9ba420	0.01899916
148	0xbdb5e18a	-0.08880909
149	0xbd941e86	-0.072323844
150	0x3daecaae	0.08534752
151	0x3d40c2d4	0.047060803
152	0x3db9dc10	0.09075177
153	0x3d9508de	0.07277082
154	0xba8a3d80	-0.0010546893
155	0xbda4ad4c	-0.08040866
156	0x3d0ffb74	0.035151914
157	0x3ca0247c	0.019548647
158	0xbd569c28	-0.052395016
159	0xbd0668d2	-0.03281481
160	0x3d00f0a2	0.031479485
161	0x3bbf6da0	0.0058419257
162	0xbd812f67	-0.063078694
163	0xbc5950d0	-0.013263896
164	0x3d789740	0.06069112
165	0x3d932b36	0.07185976
166	0xbd808f8f	-0.06277382
167	0x3d152fa4	0.036422387
168	0x3d56e1f0	0.052461565
169	0x3db5c22a	0.088749245
170	0x3d84a0d0	0.06475985
171	0xbc2a7f98	-0.010406397
172	0xbd8c2c11	-0.068443425
173	0x3cb3567c	0.021891825
174	0x3d62fef8	0.05541894
175	0xbc92cd54	-0.017920174
176	0x3c813200	0.015770912
177	0x3cfabbf4	0.030607201
178	0xbd8121f0	-0.06305301
179	0x3d7b60d4	0.06137164
180	0xbc8d5e2c	-0.017256819
181	0x3db1e122	0.08685519
182	0x3d8eeaa6	0.069783494
183	0x3ce82f1c	0.028342776
184	0x3cf8bb3c	0.030362718
185	0xbda7c99d	-0.081927516
186	0x3c7caa60	0.01542148
187	0xbd892866	-0.066971585
188	0x3d268ab4	0.04065962
189	0xbd7fbc4c	-0.062435433
190	0xbd0b5954	-0.034020737
191	0xbd80d83a	-0.06291242
192	0x3da818f8	0.082078874
193	0x3da28d72	0.07937135
194	0x3d83899c	0.06422731
195	0xbd0f967e	-0.03505563
196	0x3d2be964	0.041970626
197	0xbbdd9f00	-0.006763339
198	0x3caeb6e8	0.02132745
199	0xbd7a80e0	-0.06115806
200	0x3d0ab334	0.033862308
201	0x3c1f7538	0.009732537
202	0x3bcf73d0	0.0063309446
203	0x3d422e6c	0.047407553
204	0x3cf31848	0.029674664
205	0x3db383b0	0.08765352
206	0x3dacc14a	0.084353045
207	0x3d4a9aec	0.04946415
208	0xbd8a37ff	-0.06748962
209	0xba81fe40	-0.0009917691
210	0x3da4bd02	0.08043863
211	0xbc2f0bc0	-0.010683954
212	0xbd8d2c30	-0.06893194
213	0x3ce02b80	0.027364492
214	0xbd889634	-0.06669274
215	0x3c8280f4	0.01593063
216	0xbd39d8bb	-0.045372706
217	0xbda5af35	-0.08090059
218	0x3d8b851c	0.06812498
219	0x3d81271c	0.06306288
220	0x3da68b46	0.08132033
221	0x3d2a7650	0.041616738
222	0x3d11d758	0.03560576
223	0xbd56bb66	-0.05242481
224	0x3d9dd2c6	0.077062175
225	0x3da3ec7c	0.0800409
226	0x3d05b4d6	0.03264316
227	0x3db51af0	0.088430285
228	0x3d471cb4	0.048611358
229	0xbd82f162	-0.06393696
230	0xbc80b4f0	-0.015711278
231	0x3d307184	0.043077007
232	0x3cc3e5c4	0.023913272
233	0xbd1b0afd	-0.037852276
234	0x3c8342d8	0.016023085
235	0x3db70baa	0.089377716
236	0x3d3e09b0	0.046395957
237	0x3ceda6c4	0.029010184
238	0x3d46edf4	0.048566774
239	0xbdb1ec62	-0.086876646
240	0x3c8f7138	0.017510042
241	0x3d012844	0.03153254
242	0xbdac553a	-0.08414693
243	0xbdae7a5e	-0.085194334
244	0x3bf58800	0.007493019
245	0xbb132480	-0.0022452176
246	0x3c4d8188	0.01254309
247	0x3ce0f864	0.027462192
248	0xbb075840	-0.0020651966
249	0xbc3981b0	-0.011322424
250	0xbd83de60	-0.06438899
251	0xbd83a5f9	-0.06428141
252	0x3d6364a8	0.055515915
253	0x3d1fad54	0.038983658
254	0x3db0e938	0.08638233
255	0x3db7ab7e	0.089682564

fc2.bias f4 [84]
0	0xbd99b500	-0.07505226
1	0xbd9c211b	-0.07623502
2	0x3b32b460	0.0027268156
3	0x3d37b148	0.044846803
4	0xbd47c469	-0.048771296
5	0xbd2405b0	-0.040044487
6	0xbba74100	-0.005104184
7	0xbcd271a0	-0.025688946
8	0x3d1bf048	0.038070947
9	0x3db9f7f6	0.09080498
10	0x3cd02f80	0.025413275
11	0x3953f000	0.00020211935
12	0x3da25432	0.07926215
13	0x3d8d6914	0.06904808
14	0x3daee304	0.085393935
15	0xbd67cbfd	-0.056591023
16	0x3d849c96	0.06475179
17	0xbd69a6f7	-0.057043996
18	0xbc9bc7dc	-0.019016199
19	0xbc1e9c50	-0.0096808225
20	0x3d914930	0.070940375
21	0xbc6c0100	-0.014404535
22	0xbc5d0448	-0.01348979
23	0xbd928ab8	-0.07155365
24	0xbce0ecb4	-0.027456619
25	0xbd14dcb3	-0.036343288
26	0x3ce76ed4	0.02825109
27	0x3bbaaa40	0.005696565
28	0xbda24ade	-0.07924436
29	0x3d57a3b0	0.05264634
30	0xbd69e90f	-0.057107028
31	0x3d16ab78	0.03678462
32	0x3cdd64e0	0.02702564
33	0xbc8031cc	-0.015648745
34	0xbc9eb1b8	-0.019371852
35	0xbd82250e	-0.06354724
36	0x3d51e84c	0.051246926
37	0xbd730d8b	-0.059339087
38	0x3daceffe	0.084442124
39	0xbd093598	-0.033498377
40	0xbd5a0de6	-0.05323591
41	0xbd96df84	-0.07366851
42	0x3d379390	0.04481846
43	0x3cda5e40	0.02665627
44	0x3d790124	0.060792103
45	0xbd88ffc4	-0.066894084
46	0xbd894fe1	-0.06704689
47	0xbda3aa0e	-0.0799142
48	0xbc405bf8	-0.011740677
49	0x3c965ff4	0.0183563
50	0xbd9de31b	-0.077093326
51	0x3d8e0014	0.06933609
52	0x3d5e3f28	0.05425945
53	0x3d4e0a5c	0.05030285
54	0xbd7c791c	-0.061638936
55	0x3d12924c	0.03578405
56	0xbd6dd852	-0.058067627
57	0xbc664a50	-0.014055803
58	0xbd1212c9	-0.035662446
59	0xbcd4bff4	-0.025970437
60	0xbd92b886	-0.07164101
61	0x3d02ab8a	0.031901874
62	0x3db3c73c	0.08778235
63	0x3db268a6	0.08711366
64	0x3d8455e8	0.06461698
65	0xbd9cf22d	-0.07663379
66	0xbbd85290	-0.006601639
67	0xbd296800	-0.041358948
68	0xbceace10	-0.028662711
69	0xbd5ed9de	-0.054406993
70	0x3b407020	0.0029363707
71	0xbc1a6750	-0.009424046
72	0x3c7ba210	0.015358463
73	0x3d70f95c	0.058831558
74	0x3d053e82	0.032530315
75	0xbd3727de	-0.044715755
76	0xbd6c185a	-0.05764041
77	0xbd392681	-0.045202736
78	0xbd57a073	-0.05264325
79	0xbcf60794	-0.03003291
80	0x3dad5b4a	0.08464678
81	0xbda59b66	-0.080862805
82	0xbbc79cc0	-0.006091684
83	0xbd19b26a	-0.037523665

fc3.weight f4 [10, 84]
0	0x3dabf2ff	0.08395957
1	0xbdcfca8a	-0.10146053
2	0x3d8783af	0.066169135
3	0x3d2f7442	0.04283548
4	0x3d9407db	0.07228061
5	0x3c81c89c	0.015842728
6	0xbda7eb72	-0.081992045
7	0x3d9ac25d	0.07556603
8	0x3db4401f	0.08801293
9	0xbc242398	-0.010018252
10	0x3d1aa9a6	0.037759446
11	0xbdd1b6a1	-0.10239912
12	0xbdba0808	-0.09083563
13	0x3d17a016	0.037017904
14	0x3dba2203	0.090885185
15	0x3d9f62e1	0.077825315
16	0x3d370a7a	0.044687726
17	0x3b301740	0.0026869327
18	0xbd9a88f0	-0.0754565
19	0x3da1df37	0.07903903
20	0xbddc23f7	-0.10749047
21	0xbdceb8d7	-0.10093849
22	0x3d911d2f	0.070856445
23	0x3cf9802c	0.030456625
24	0x3d9e160d	0.077190496
25	0xbdc3520c	-0.095371336
26	0x3b055960	0.002034746
27	0x3d8539e1	0.0650518
28	0xbdc94ec8	-0.098294795
29	0xbdb5f5c6	-0.08884768
30	0x3d6a7616	0.05724152
31	0xbd67abf8	-0.056560487
32	0x3cd0be1c	0.025481276
33	0xbd889a6a	-0.06670077
34	0xbdb7322b	-0.08945116
35	0xbdb7138f	-0.089392774
36	0x3da05d2d	0.07830272
37	0x3dc55ba3	0.09636619
38	0x3dbc6927	0.09199744
39	0xbd34c0b6	-0.044129096
40	0x3dd03f51	0.10168327
41	0x3d671a5e	0.05642163
42	0x3dba44d5	0.0909516
43	0xbdc7adc1	-0.09749938
44	0x3c0d3168	0.008617736
45	0x3cd674f4	0.026178814
46	0xbd1f1f52	-0.03884823
47	0xbd376530	-0.044774234
48	0x3d22c98e	0.039743
49	0xbce36160	-0.027756393
50	0xbd74467f	-0.059637543
51	0x3db3945b	0.08768531
52	0x3c0658b8	0.008199863
53	0xbd70b8cd	-0.05876999
54	0x3d45d342	0.048297174
55	0xbdd92bdb	-0.10604068
56	0xbd8d7126	-0.06906347
57	0x3dcf4063	0.10119703
58	0xbca79a54	-0.020459332
59	0x3d2297c6	0.039695524
60	0xbddca8a6	-0.10774355
61	0xbd9e8a03	-0.077411674
62	0x3bd75ea0	0.0065725595
63	0xbdaea0fa	-0.085267976
64	0x3d947415	0.072487034
65	0xbc520f38	-0.012821011
66	0x3d4ad5de	0.049520366
67	0x3d30cf4a	0.043166436
68	0xbdc36eb0	-0.09542596
69	0xbdaf7f1a	-0.085691646
70	0x3d2f879e	0.042853944
71	0xbc16faa8	-0.009215035
72	0xbd857849	-0.06517083
73	0x3d290f82	0.041274555
74	0xbbb7b9b0	-0.0056068525
75	0x3c1b5dd0	0.009482816
76	0x3db27c0d	0.08715067
77	0x3b62aea0	0.0034588948
78	0xbd5ef4d0	-0.05443269
79	0x3d974cf1	0.07387722
80	0xbbc4b310	-0.006002791
81	0xbdcb6efc	-0.09933278
82	0x3c6dceb0	0.01451461
83	0x3dc83b55	0.09776942
84	0xbd632a9b	-0.055460554
85	0x3c846e1c	0.016165785
86	0x3b42c080	0.002971679
87	0x3d154bd2	0.03644926
88	0xbd354e32	-0.044264026
89	0x3c3cefa8	0.011531748
90	0x3d191f5a	0.037383415
91	0x3d4a4782	0.0493846
92	0xbdb67074	-0.089081675
93	0xbd95481a	-0.07289143
94	0x3cf8616c	0.030319892
95	0x3d08f732	0.03343887
96	0x3cf80cfc	0.030279629
97	0xbd6e097f	-0.058114525
98	0xbd97b628	-0.074077904
99	0x3d9e263b	0.07722136
100	0x3ddaf5f1	0.10691441
101	0x3d2a99c2	0.04165054
102	0xbc4fab70	-0.012675151
103	0xbcdb8688	-0.026797548
104	0xbdb612be	-0.088902935
105	0x3c91ebbc	0.017812602
106	0xbba8cf50	-0.0051516667
107	0x3cdb65dc	0.026781969
108	0x3d69bdd2	0.057065792
109	0x3d90d69d	0.07072184
110	0x3c269140	0.010166466
111	0xbc723980	-0.014784217
112	0xbd0a7426	-0.033802174
113	0xbd8b9f7e	-0.0681753
114	0x3d1e0632	0.038580127
115	0x3dbe7cb1	0.09301127
116	0xbcdc0ed4	-0.02686254
117	0xbd09ac78	-0.033611745
118	0xbd29ac38	-0.041424006
119	0xbd46f933	-0.0485775
120	0xbd727d2b	-0.0592014
121	0xbdb1ef19	-0.086881824
122	0x3dbb8309	0.09155852
123	0x3db4947d	0.088173844
124	0x3d8cf96b	0.0688351
125	0xbd6cdf08	-0.057829887
126	0x3dd16fdd	0.10226414
127	0x3c51ca98	0.01280465
128	0x3dc56311	0.09638036
129	0xbdaa0b7e	-0.08302973
130	0x3d78a372	0.06070275
131	0xbda41351	-0.08011497
132	0xbd7fbce3	-0.062435996
133	0xbd6108a7	-0.054939892
134	0x3d6db272	0.058031507
135	0x3d30a42e	0.043125324
136	0x3d99ca05	0.07509235
137	0x3d54b8f6	0.051934205
138	0x3d61224e	0.054964356
139	0x3d6e284e	0.058143906
140	0x3db611e7	0.08890133
141	0xbd1d4182	-0.03839255
142	0xbd1041ce	-0.035219006
143	0x3dcd43f7	0.10022729
144	0xbc39a858	-0.01133164
145	0xbd83faaa	-0.06444295
146	0x3bc75930	0.00608363
147	0x3db7cf3d	0.089750744
148	0x3c2f6398	0.010704897
149	0x3dbf0a05	0.09328083
150	0x3d349106	0.044083618
151	0x3da6b4e1	0.08139969
152	0x3c3c7c58	0.011504255
153	0x3db5a0fb	0.08868595
154	0xbca86b4c	-0.020558976
155	0x3dd7d475	0.1053857
156	0x3c89c42c	0.016817175
157	0x3bb5ee70	0.0055521056
158	0x3cb1174c	0.021617554
159	0xbbddda80	-0.006770432
160	0xbd96aace	-0.07356797
161	0xbd20ecd6	-0.039288364
162	0xbda8061c	-0.0820429
163	0x3dcff7f9	0.10154719
164	0x3d335d32	0.04379005
165	0xbd761f21	-0.06008828
166	0xbd761305	-0.060076732
167	0xbd03ea00	-0.03220558
168	0x3d97912f	0.074007384
169	0x3c8e4ddc	0.01737111
170	0x3d020aae	0.031748466
171	0x3d60929e	0.054827325
172	0xbda56728	-0.08076316
173	0xbc8ad9d0	-0.016949564
174	0xbda250f5	-0.079255976
175	0xbdaebf1b	-0.08532544
176	0xbddc47a6	-0.10755853
177	0xbdcb751a	-0.09934445
178	0x3d96e545	0.073679484
179	0x3ccbc09c	0.024872117
180	0x3dc461f1	0.09588993
181	0x3c376990	0.011194602
182	0x3d91b309	0.07114226
183	0x3c343e38	0.011001162
184	0x3c02c588	0.007981665
185	0xbda3377a	-0.07969566
186	0xbdacdcc1	-0.08440543
187	0xbdd4de9f	-0.10394024
188	0x3da96763	0.082716726
189	0x3c11c758	0.008897625
190	0xbc6c92a0	-0.014439255
191	0xbd2a6f86	-0.041610263
192	0xbb9fa1c0	-0.004871577
193	0xbd4c82d3	-0.04992945
194	0xbcb96144	-0.022629388
195	0x3d838685	0.06422142
196	0xbdcf8762	-0.10133244
197	0x3ddb0d9d	0.10695956
198	0x3d9c17ef	0.076217525
199	0x3dc05571	0.09391297
200	0xbd435f72	-0.047698446
201	0x3d813e31	0.0631069
202	0xbd4807f4	-0.04883571
203	0xbc9ad700	-0.018901348
204	0xbd992249	-0.074772425
205	0xbdd2a6e6	-0.102857396
206	0xbda84460	-0.082161665
207	0xbd9bc345	-0.07605604
208	0xbd829f5d	-0.063780524
209	0xbb705f40	-0.0036677867
210	0xbd96e041	-0.07366992
211	0xbd8e41be	-0.06946133
212	0x3ccd9d04	0.025099285
213	0xbcff49b4	-0.031163074
214	0x3d3d13d6	0.046161495
215	0xbd842584	-0.06452468
216	0xbdaeed71	-0.08541382
217	0x3da74bb1	0.08168734
218	0x3d2b7686	0.04186108
219	0xbd4d93cd	-0.050189782
220	0xbd7a1774	-0.061057523
221	0x3dbd7469	0.09250719
222	0xbd280162	-0.041016944
223	0x3da46e61	0.080288656
224	0x3d98282d	0.07429538
225	0x3ca2766c	0.019831859
226	0x3d1923ae	0.037387542
227	0xbdbef5dc	-0.09324238
228	0x3dad4e95	0.08462254
229	0x3d26a50e	0.040684752
230	0x3bba4660	0.005684659
231	0xbce5ebc0	-0.028066516
232	0xbc209f90	-0.009803668
233	0xbd214676	-0.039373837
234	0xbd1da158	-0.038483948
235	0xbd73a23f	-0.0594809
236	0x3cdf302c	0.02724465
237	0xbd892911	-0.06697286
238	0xbdd6b95c	-0.10484573
239	0x3ba2b130	0.00496497
240	0xbd5de712	-0.054175444
241	0xbd69fc59	-0.057125423
242	0xbdc5505e	-0.096344694
243	0xbdcf6199	-0.10126037
244	0x3d2cb33a	0.04216311
245	0x3dc297e3	0.09501626
246	0x3d1f7636	0.038931094
247	0x3d929e5d	0.07159112
248	0xbdcb1d77	-0.09917729
249	0xbbcf4b70	-0.0063261315
250	0xbc2701e8	-0.010193326
251	0x3d15a846	0.03653743
252	0x3dbebfa1	0.09313894
253	0x3d0b0ad2	0.033945866
254	0x3d2c43ca	0.042056836
255	0xbd815646	-0.063152835

fc3.bias f4 [10]
0	0x3c9d2934	0.019184686
1	0x3d914e1f	0.070949785
2	0x3d540ae2	0.05176819
3	0x3d5a3a86	0.05327847
4	0xbbaec110	-0.0053330734
5	0x3d9a69e3	0.075397275
6	0xbd80a2d4	-0.06281057
7	0xbc656720	-0.014001638
8	0x3dc6d2b5	0.09708158
9	0xbd721825	-0.059105057
