save_nn_1.pth (torch_old, 736682 bytes, 102 tensors)

weight f4 [8, 3, 3, 3]
-0.20606665 -0.11268203 0.17635256 -0.27451122 0.051725123 0.3927782 -0.0036541787 -0.13977636
0.1667281 -0.023648577 -0.110451356 -0.17177954 0.126877 -0.12333831 -0.19322953 0.07782939
-0.31595808 -0.235921 0.20419618 0.27400535 -0.20758179 0.371282 0.39777365 0.22201021
0.18812804 -0.010604373 -0.16734712 0.12713616 0.23737046 0.023443744 -0.030506132 0.23391265
-0.12448864 -0.21158503 -0.077972524 -0.2829554 0.10518027 0.099603035 -0.11209523 -0.033855874
0.26577055 0.22456399 0.063860156 0.2918831 -0.023713578 -0.3818087 -0.318629 -0.09935858
-0.24869439 0.10287382 0.09275073 0.19618316 0.21676144 -0.13816765 0.06787147 -0.051611193
-0.43934023 -0.002429241 -0.07946757 -0.40727818 0.44151908 0.17121637 -0.12677273 -0.082265824
0.31314254 -0.12677544 -0.15439156 -0.025194675 -0.34326914 0.18957144 0.2746323 0.10597212
-0.08998156 0.19993085 0.24812603 -0.17912157 0.25977537 -0.200941 0.05779136 -0.011198974
-0.018149594 0.097865656 0.081210695 0.0145664755 0.31558487 0.20387994 0.03924756 0.08919689
0.15216644 -0.14442022 -0.0060742423 -0.042786427 -0.26452622 0.10611753 0.100743756 -0.5435531
-0.098896265 -0.0519343 -0.01919069 0.2244153 0.004219566 -0.18019262 0.35413688 -0.13845305
-0.4286006 0.19036531 0.0912767 -0.020958012 -0.15614976 0.481067 0.45284954 0.008636887
0.3338026 -0.15515468 -0.11288181 -0.11354575 -0.22234048 -0.1582531 0.060282253 0.089578256
0.11609654 -0.15858822 -0.17252961 0.02015722 -0.27867398 -0.29281953 0.13505821 0.014565237
0.02502985 -0.01183687 -0.21554267 -0.01860825 -0.057058495 0.15627363 -0.122491546 0.19072817
-0.07835149 0.20827992 0.1665262 0.20061074 0.051067438 -0.005346308 0.038372107 0.08653731
-0.12915117 -0.08046212 -0.103162855 -0.07787023 0.14021435 -0.07052063 -0.007536551 0.018627042
0.18573458 0.029298624 -0.029215893 0.07496853 -0.16906701 -0.053805962 0.30474052 -0.04417866
0.030279102 0.14247143 0.14154123 -0.23167916 0.08696894 0.048549622 -0.24573877 -0.25344115
0.012863285 -0.07054203 -0.13848205 0.35860428 0.17674303 0.23647629 0.009710705 0.01614318
0.0124066835 -0.14196071 -0.07975193 -0.17550205 0.22518568 0.26492348 0.07641221 0.13016273
-0.010588028 0.021947144 -0.12745085 -0.3091202 -0.1174182 0.29033998 -0.06874958 -0.18757948
0.1648149 0.058585268 -0.120719284 -0.016846959 0.20874971 0.28591985 0.016635094 0.043471977
-0.13736162 -0.18337905 -0.41334566 -0.18255164 -0.31677982 -0.1277159 0.09383541 -0.13673392
0.010003754 0.3317105 -0.35413826 0.1444798 0.09285635 -0.34029028 0.14719564 0.19729805
00000000: 2303 53be d6c5 e6bd c495 343e bc8c 8cbe
00000010: b9dd 533d 391a c93e f27a 6fbb 8921 0fbe
00000020: c5ba 2a3e a9ba c1bc 5234 e2bd fae6 2fbe
00000030: 0bec 013e cc98 fcbd f6dd 45be 0465 9f3d
00000040: 42c5 a1be 4695 71be ce18 513e 6e4a 8c3e
00000050: 5290 54be ad18 be3e fda8 cb3e a556 633e
00000060: a3a4 403e f7bd 2dbc 0b5d 2bbe fb2f 023e
00000070: 3e11 733e 180d c03c ffe7 f9bc cc86 6f3e
00000080: e6f3 febd bfa9 58be 0fb0 9fbd 88df 90be
00000090: c168 d73d adfc cb3d 2f92 e5bd 75ac 0abd
000000a0: 1413 883e 1af4 653e 1dc9 823d b471 953e
000000b0: fa42 c2bc 6e7c c3be 5723 a3be 837c cbbd
000000c0: bea9 7ebe 82af d23d 18f4 bd3d 3de4 483e
000000d0: b6f6 5d3e d27b 0dbe 3200 8b3d 4266 53bd
000000e0: 34f1 e0be e733 1fbb e5bf a2bd c486 d0be
000000f0: ca0e e23e 5853 2f3e b6d0 01be fc7a a8bd
00000100: 3854 a03e 6cd1 01be d218 1ebe 1065 cebc
00000110: f9c0 afbe 041f 423e 9b9c 8c3e e907 d93d
00000120: 4148 b8bd acba 4c3e c014 7e3e a56b 37be
00000130: 4701 853e 7ac3 4dbe a2b6 6c3d e77b 37bc
00000140: 75ae 94bc ca6d c83d cb51 a63d 3aa8 6e3c
00000150: 5794 a13e e7c5 503e 0dc2 203d dcac b63d
00000160: 85d1 1b3e e5e2 13be 700a c7bb d240 2fbd
00000170: fb6f 87be 2654 d93d be52 ce3d 4c26 0bbf
00000180: 208a cabd 10b9 54bd cb35 9dbc 20cd 653e
00000190: 4944 8a3b 6a84 38be 6e51 b53e a3c6 0dbe
000001a0: 8a71 dbbe 20ef 423e 47ef ba3d 23b0 abbc
000001b0: b9e5 1fbe 6a4e f63e e5db e73e bb81 0d3c
000001c0: 2de8 aa3e dee0 1ebe 942e e7bd ad8a e8bd
000001d0: 39ad 63be 1a0d 22be 86ea 763d ce74 b73d
000001e0: 06c4 ed3d f364 22be 9aab 30be c120 a53c
000001f0: 5bae 8ebe 71ec 95be b34c 0a3e 08a3 6e3c
00000200: 660b cd3c 6eef 41bc 38b7 5cbe 5470 98bc
00000210: 2bb6 69bd 3206 203e d9dc fabd 3f4e 433e
00000220: bf76 a0bd 5547 553e d885 2a3e e76c 4d3e
00000230: 172c 513d 1530 afbb 122c 1d3d 793a b13d
00000240: 3440 04be 53c9 a4bd 0c47 d3bd 6d7a 9fbd
00000250: 5a94 0f3e 1f6d 90bd 2cf5 f6bb bd97 983c
00000260: 3531 3e3e ab03 f03c 2b56 efbc 1a89 993d
00000270: e71f 2dbe a463 5cbd f306 9c3e aff4 34bd
00000280: e10b f83c 08e4 113e 2ff0 103e 4d3d 6dbe
00000290: c61c b23d f8db 463d f2a2 7bbe 0ac3 81be
000002a0: 87c0 523c 5778 90bd 3dce 0dbe fb9a b73e
000002b0: 20fc 343e d726 723e a619 1f3c b43e 843c
000002c0: 6745 4b3c 265e 11be fb54 a3bd cfb6 33be
000002d0: 1397 663e 0da4 873e 017e 9c3d 6149 053e
000002e0: 6879 2dbc 7fca b33c 7a82 02be 0145 9ebe
000002f0: f478 f0bd 71a7 943e 94cc 8cbd d614 40be
00000300: 3dc5 283e 1bf7 6f3d ac3b f7bd a202 8abc
00000310: 7cc2 553e 1664 923e 5246 883c ac0f 323d
00000320: 86a8 0cbe b8c7 3bbe 0ba2 d3be d1ee 3abe
00000330: f730 a2be f5c7 02be c82c c03d fa03 0cbe
00000340: c9e6 233c f5d5 a93e 9c51 b5be 83f2 133e
00000350: 782b be3d 873a aebe 74ba 163e 8008 4a3e

weight f4 [8]
1.0228059 0.96246827 1.0920666 1.0930289 1.0707324 0.9778053 0.90195346 1.089467
00000000: 4eeb 823f 5264 763f d7c8 8b3f 5fe8 8b3f
00000010: c20d 893f 7351 7a3f 6ce6 663f a873 8b3f

bias f4 [8]
0.31253657 0.05823219 0.0887175 0.44580758 0.039197344 -0.11701914 0.2849965 0.17059112
00000000: cb04 a03e e084 6e3d 85b1 b53d e440 e43e
00000010: 658d 203d bba7 efbd 10eb 913e 70af 2e3e

running_mean f4 [8]
0.0085331695 -0.13160898 0.046269953 -0.04905672 0.063066356 -0.23287214 0.08180594 0.13171707
00000000: b5ce 0b3c 81c4 06be 9085 3d3d b3ef 48bd
00000010: ef28 813d 0976 6ebe df89 a73d d7e0 063e

running_var f4 [8]
0.918467 0.5212695 1.4020783 1.87528 1.4125253 1.6898003 1.8891433 1.1320784
00000000: a720 6b3f eb71 053f 4d77 b33f 2d09 f03f
00000010: a1cd b43f 604b d83f 73cf f13f f2e7 903f

weight f4 [8, 8, 3, 3]
-0.081036024 -0.22262119 0.048807032 -0.17668624 -0.15396363 0.17559427 -0.17080992 0.1136624
0.27405536 -0.13197044 0.15759063 0.19808006 -0.0793999 0.240475 0.10149165 -0.13453846
0.018837294 -0.042825107 -0.0791037 0.1683439 -0.068244435 0.018029774 0.17165548 0.15875375
-0.026637562 0.037916068 0.020879375 0.13773517 -0.056943484 0.10504664 -0.121814236 -0.0271643
-0.09729262 -0.09840357 -0.013405496 -0.07464687 0.11027591 -0.022808157 0.0422973 -0.008233505
0.04694258 -0.09328453 -0.07312431 0.06376277 -0.09505745 0.14619558 0.13069901 0.2011902
-0.03473417 0.070287876 0.0521037 -0.071404114 -0.15456662 0.0064094057 0.047417905 -0.092312954
-0.026103873 0.10109353 -0.064499766 -0.033499777 -0.019230623 0.08148566 0.13320911 -0.11637263
-0.08821987 0.055623613 -0.11163111 -0.050107483 -0.06590802 -0.023696098 -0.16916841 -0.040407613
-0.07894223 0.04637052 0.11816338 -0.11475454 -0.12674506 -0.037296727 0.027745347 0.064154066
-0.06279528 -0.043206807 0.05794903 -0.19502752 -0.010899601 -0.045470156 -0.069762036 -0.12041555
0.022268312 -0.029137323 -0.1397211 -0.051660344 -0.110627905 -0.20772797 -0.09185076 -0.05626612
-0.018532103 0.09978484 -0.07637282 0.04962536 0.025675297 0.02421157 -0.12631325 -0.04364961
0.052332554 -0.23347096 0.005579147 0.06190332 0.030388162 0.049797446 0.12219894 -0.014166312
-0.15285796 0.025068436 0.062084507 0.014361668 -0.0273241 0.023627717 0.0987557 0.050188888
0.19875546 0.011149413 -0.14169101 -0.0110660605 -0.06077312 -0.016155876 0.004143708 -0.014074977
-0.13111904 -0.13139433 -0.058535926 0.07835431 -0.0930253 0.08164968 0.034879487 0.1298475
-0.093217425 -0.066988766 0.16705078 0.04072603 -0.07114533 0.011895579 -0.05404946 -0.18099882
0.008690944 -0.10696596 -0.072791725 -0.023516808 0.061707687 0.1152029 -0.09377652 0.07338835
0.17896007 -0.15968505 0.027408728 -0.0108613 -0.1751396 -0.051367957 0.11371321 -0.10577001
0.035137165 -0.03896902 -0.06851629 0.12165907 0.0326382 0.041274607 -0.11271589 -0.026375426
-0.07937681 -0.1298688 -0.03598215 -0.029445637 0.10596724 -0.010304143 0.12745376 -0.20268379
-0.14775066 -0.011450176 -0.16160291 -0.1263249 0.09996959 -0.18645985 -0.22829778 0.11153083
-0.06204486 -0.031883754 0.11507374 0.041841976 0.09079038 -0.10383687 -0.076010756 -0.012965928
-0.13145334 0.03631998 0.09993783 0.08012333 0.22604279 0.009039915 0.06280471 0.0785794
-0.16659205 -0.06986836 -0.14584757 -0.10277206 -0.1982533 0.02702872 -0.0941253 -0.07384901
0.08638349 0.17678879 -0.07465392 -0.028303307 -0.10948048 -0.23656844 -0.075794525 -0.08852545
-0.07704221 -0.0032163726 0.027523 0.11397729 0.16086075 0.065972984 -0.0170381 -0.10431626
-0.102614276 -0.10705124 -0.033316106 -0.013684207 -0.022643453 -0.01824946 0.06371086 -0.027748749
-0.06627517 0.000621154 0.043242406 0.02105986 -0.06544843 -0.2417473 -0.20768361 -0.13890933
-0.058430195 0.19174153 -0.054747283 -0.17345515 0.04993672 0.15782344 0.031469733 0.069214456
0.054607194 0.023217754 0.01860746 0.05203935 0.12617639 0.102775745 -0.095680304 0.078468725
00000000: 37f6 a5bd cff6 63be e2e9 473d 3ded 34be
00000010: a4a8 1dbe fcce 333e cce8 2ebe d5c7 e83d
00000020: fc50 8c3e 4223 07be 705f 213e 80d5 4a3e
00000030: 6a9c a2bd 143f 763e dbda cf3d 73c4 09be
00000040: ab50 9a3c 6169 2fbd 1f01 a2bd 5862 2c3e
00000050: bdc3 8bbd 2db3 933c 74c6 2f3e 5890 223e
00000060: 0437 dabc e14d 1b3d 390b ab3c 730a 0d3e
00000070: 923d 69bd b122 d73d be79 f9bd ab87 debc
00000080: 5a41 c7bd d087 c9bd baa2 5bbc 75e0 98bd
00000090: 56d8 e13d 2cd8 babc ef3f 2d3d d3e5 06bc
000000a0: dd46 403d f60b bfbd 33c2 95bd 0e96 823d
000000b0: 7bad c2bd 4bb4 153e f6d5 053e ce04 4e3e
000000c0: 6b45 0ebd 17f3 8f3d b06a 553d 523c 92bd
000000d0: b646 1ebe fe05 d23b 4739 423d 930e bdbd
000000e0: cad7 d5bc 200a cf3d 7418 84bd 1037 09bd
000000f0: 8a89 9dbc f4e1 a63d f867 083e c654 eebd
00000100: 9fac b4bd 96d5 633d da9e e4bd 813d 4dbd
00000110: c9fa 86bd 521e c2bc 7c3a 2dbe 7482 25bd
00000120: 77ac a1bd 04ef 3d3d a4ff f13d 6e04 ebbd
00000130: 75c9 01be 74c4 18bd 364a e33c 3563 833d
00000140: d09a 80bd 9ff9 30bd f65b 6d3d 4bb5 47be
00000150: 3d94 32bc ea3e 3abd 66df 8ebd 6e9c f6bd
00000160: 096c b63c 65b1 eebc 0c13 0fbe cc99 53bd
00000170: e290 e2bd a4b6 54be 401c bcbd 4e77 66bd
00000180: a3d0 97bc ff5b cc3d 5a69 9cbd f643 4b3d
00000190: 0055 d23c 5857 c63c 4358 01be efc9 32bd
000001a0: a95a 563d 0313 6fbe 47d1 b63b 568e 7d3d
000001b0: 98f0 f83c 68f8 4b3d 7043 fa3d d219 68bc
000001c0: cc86 1cbe 525c cd3c 534c 7e3d 344d 6b3c
000001d0: cad6 dfbc ea8e c13c 6e40 ca3d dd92 4d3d
000001e0: 8d86 4b3e 07ac 363c 7317 11be 6c4e 35bc
000001f0: 3ced 78bd 5459 84bc f1c7 873b bb9a 66bc
00000200: 1244 06be 3c8c 06be 5ec3 6fbd 3978 a03d
00000210: 0c84 bebd f337 a73d cbdd 0e3d bef6 043e
00000220: c7e8 bebd 6831 89bd 5c0f 2b3e 56d0 263d
00000230: a5b4 91bd ade5 423c f762 5dbd c157 39be
00000240: 7664 0e3c f810 dbbd d413 95bd 52a6 c0bc
00000250: 33c1 7c3d 7fef eb3d e70d c0bd a24c 963d
00000260: 4f41 373e 7a84 23be 4588 e03c 98f3 31bc
00000270: cc57 33be 3567 52bd 79e2 e83d f29d d8bd
00000280: fdeb 0f3d fb9d 1fbd 4552 8cbd 6428 f93d
00000290: a2af 053d 900f 293d 97d7 e6bd 4711 d8bc
000002a0: 4f90 a2bd 54fc 04be 0562 13bd fa37 f1bc
000002b0: 5a05 d93d b5d2 28bc 3d83 023e 578c 4fbe
000002c0: f34b 17be 8599 3bbc 3c7b 25be 515b 01be
000002d0: dbbc cc3d 55ef 3ebe e5c6 69be 476a e43d
000002e0: c022 7ebd 8a98 02bd c8ab eb3d 7e62 2b3d
000002f0: 4ff0 b93d 6da8 d4bd 87ab 9bbd 0b6f 54bc
00000300: b49b 06be 42c4 143d 34ac cc3d b317 a43d
00000310: c377 673e 271c 143c c19f 803d 3dee a03d
00000320: 1b97 2abe 2517 8fbd 1159 15be 287a d2bd
00000330: ea02 4bbe 566b dd3c c4c4 c0bd 263e 97bd
00000340: d4e9 b03d 1f08 353e 28e4 98bd 56dc e7bc
00000350: 4d37 e0bd ff3e 72be 293a 9bbd d54c b5bd
00000360: 4ec8 9dbd c7c9 52bb ea77 e13c ed6c e93d
00000370: aeb8 243e d81c 873d 7c93 8bbc c3a3 d5bd
00000380: 6f27 d2bd ae3d dbbd 7876 08bd b933 60bc
00000390: c37e b9bc e47f 95bc d77a 823d 5851 e3bc
000003a0: 47bb 87bd f0d4 223a f31e 313d ba85 ac3c
000003b0: d409 86bd 9b8c 77be 03ab 54be 3f3e 0ebe
000003c0: 8054 6fbd e457 443e b03e 60bd 3a9e 31be
000003d0: 728a 4c3d 789c 213e 68e6 003d 4fc0 8d3d
000003e0: cbab 5f3d 2933 be3c ac6e 983c 3727 553d
000003f0: 6234 013e 177c d23d 09f4 c3bd 36b4 a03d

weight f4 [8]
1.043593 1.0829756 1.0629097 0.91423583 0.9650348 1.0201728 0.96359205 0.91569453
00000000: 7594 853f f29e 8a3f 6d0d 883f 5c0b 6a3f
00000010: 850c 773f 0695 823f f8ad 763f f56a 6a3f

bias f4 [8]
0.002553597 0.12202649 0.15682785 0.05991679 -0.05275643 -0.045226034 -0.13702202 -0.1308272
00000000: 405a 273b 06e9 f93d 7b97 203e 4f6b 753d
00000010: 2017 58bd ef3e 39bd 804f 0cbe 91f7 05be

running_mean f4 [8]
-0.13683867 -0.6801856 -0.8862095 0.4715805 -0.03815769 0.89648825 -0.10793929 -0.5318603
00000000: 701f 0cbe a520 2ebf a0de 62bf 0073 f13e
00000010: 3d4b 1cbd 4180 653f 460f ddbd ff27 08bf

running_var f4 [8]
0.48086044 0.42775142 0.6937895 0.42401692 0.30727994 0.76044476 0.41854984 0.2542446
00000000: 5733 f63e 3c02 db3e 309c 313f bf18 d93e
00000010: cc53 9d3e 82ac 423f 2a4c d63e 592c 823e

weight f4 [8, 8, 3, 3]
0.16772173 0.06626062 -0.012042708 -0.0033670526 -0.06843152 -0.026112115 0.030570919 -0.12753543
-0.23767506 -0.0043358165 -0.12584278 0.08112239 -0.05978577 0.0078057367 -0.07468484 0.11428659
-0.004219484 0.1506354 0.049218725 0.12668608 0.053498264 0.016240649 -0.09936823 0.013989539
-0.07531597 -0.029744083 -0.0360189 -0.13301784 -0.015668813 -0.018521618 0.055224963 -0.087055326
-0.011651749 0.048482496 0.16451849 0.21290438 -0.05644347 -0.077047855 0.20326556 -0.08432638
0.07842389 0.0784015 0.08840523 0.025869694 0.0015382663 -0.13824886 -0.101719804 -0.15212367
-0.11423312 0.00242674 -0.18243198 -0.06327225 0.07871171 -0.11393853 -0.03751904 -0.029757801
-0.19872405 0.049483806 0.033139378 0.04768204 0.115307145 0.088967845 0.14392197 0.17533499
0.018280959 -0.066018485 -0.020835893 0.09869168 0.0052848137 -0.121590786 -0.04707439 -0.024514023
-0.16536467 -0.18537685 -0.19678333 -0.03759708 0.08041013 -0.063476354 0.10260165 -0.04199177
-0.03948455 0.053779803 -0.16829813 -0.05348003 0.040075757 0.08206118 0.01898122 0.028949097
-0.0093303975 0.022039883 0.09361017 0.083453156 0.061093837 0.24641283 0.07652372 -0.08310702
0.06684872 -0.03447305 0.10019793 -0.066202946 0.024549048 -0.03238605 0.053606424 0.06022904
-0.07321823 0.09320223 -0.064856835 0.07414608 0.14466345 0.050382942 0.021681717 0.17722651
0.06047878 -0.10365431 -0.014131997 0.0512301 -0.02848052 -0.18979049 -0.08756339 -0.18947881
-0.08738076 -0.13222396 3.44322e-05 0.15165162 -0.008818058 -0.10030361 -0.20104879 -0.039810464
-0.15574683 0.010942693 -0.12102191 -0.0023957442 0.055968124 0.15203704 0.07117158 0.045246743
-0.012119285 0.100120835 -0.03085399 -0.05582554 0.089578606 -0.18382987 0.03952291 0.04806974
0.17198181 0.17037083 0.12234889 0.06548372 -0.009038198 -0.14355838 -0.019737178 0.033453688
-0.029071411 0.013681341 0.014446353 0.040037815 -0.08498518 0.0104937395 -0.048256468 -0.0029478525
-0.009499984 -0.019391298 -0.06219277 -0.041278295 0.06460225 0.08110704 0.034599066 -0.04928553
0.046801683 -0.009710531 -0.16449559 -0.09598565 -0.009298865 0.15564121 -0.046113215 -0.073427565
0.10537895 -0.07912123 -0.10574204 -0.05614582 -0.017169908 -0.1460755 -0.027580412 -0.02246353
-0.013442924 0.09869373 -0.08198722 0.04110879 0.015050613 -0.045688003 0.107262224 0.22920768
0.07488807 0.0988073 0.066265605 -0.01042685 -0.10261032 0.089782074 -0.018493064 -0.021281054
0.06257617 -0.1549828 -0.13224478 -0.19126038 -0.14603767 -0.219146 -0.083781384 -0.036394246
0.06842678 -0.053287588 0.051132604 -0.0181159 0.022580612 0.124847285 0.13611202 -0.02987745
-0.12966323 -0.03133117 -0.12336479 0.03734378 -0.16357926 0.011365607 -0.024306852 -0.14808923
0.058430623 0.05416475 -0.019047221 -0.19669913 0.13722146 0.03602312 -0.27330524 0.12915766
-0.0030019744 -0.118841365 -0.14038725 -0.13000458 -0.013892517 -0.15818648 -0.1336621 0.13182569
0.10588022 -0.062459417 0.06927059 -0.0025975406 -0.15938672 0.07859986 0.07631061 -0.08314863
-0.034786034 0.031093996 -0.059450448 -0.089766204 -0.075086184 -0.20545122 -0.12264158 0.07936912
00000000: 3fbf 2b3e a6b3 873d c74e 45bc c5a9 5cbb
00000010: d325 8cbd 13e9 d5bc dd6f fa3c a698 02be
00000020: 1761 73be 7713 8ebb eedc 00be 7f23 a63d
00000030: ece1 74bd 44c7 ff3b 5ef4 98bd 160f ea3d
00000040: 9943 8abb 2b40 1a3e 9399 493d ffb9 013e
00000050: ff20 5b3d 1c0b 853c 9281 cbbd 6134 653c
00000060: 423f 9abd dda9 f3bc 8e88 13bd d435 08be
00000070: e25b 80bc a6ba 97bc 9233 623d 104a b2bd
00000080: fae6 3ebc 9595 463d 8977 283e 9b03 5a3e
00000090: 4531 67bd 44cb 9dbd d924 503e 4fb3 acbd
000000a0: b49c a03d f790 a03d cd0d b53d aeec d33c
000000b0: a79f c93a 1c91 0dbe 7952 d0bd 4fc6 1bbe
000000c0: 0ef3 e9bd f109 1f3b 73cf 3abe e294 81bd
000000d0: 9b33 a13d 9b58 e9bd 91ad 19bd a2c6 f3bc
000000e0: 517e 4bbe 88af 4a3d 28bd 073d 3e4e 433d
000000f0: 2726 ec3d c634 b63d 4860 133e 048b 333e
00000100: f3c1 953c b334 87bd 09b0 aabc dd1e ca3d
00000110: 3b2c ad3b 9704 f9bd 13d1 40bd a2d1 c8bc
00000120: 5b55 29be 6ed3 3dbe 9281 49be 65ff 19bd
00000130: 11ae a43d e4ff 81bd d020 d23d 90ff 2bbd
00000140: 8dba 21bd 3648 5c3d 5856 2cbe e00d 5bbd
00000150: 7a26 243d b10f a83d 817e 9b3c a826 ed3c
00000160: 86de 18bc fc8c b43c b0b6 bf3d 7de9 aa3d
00000170: 883d 7a3d a553 7c3e 78b8 9c3d 0334 aabd
00000180: fbe7 883d 9d33 0dbd 9334 cd3d 6995 87bd
00000190: 161b c93c 3ca7 04bd 6992 5b3d bab2 763d
000001a0: 70f3 95bd d0e0 be3d a9d3 84bd e6d9 973d
000001b0: a822 143e 585e 4e3d db9d b13c de7a 353e
000001c0: 99b8 773d b648 d4bd e489 67bc a7d6 513d
000001d0: fb4f e9bc 7058 42be 6f54 b3bd bc06 42be
000001e0: aff4 b2bd b865 07be 4b6b 1038 904a 1b3e
000001f0: 9e79 10bc fb6b cdbd bcdf 4dbe 4c10 23bd
00000200: 197c 1fbe fb48 333c 56da f7bd eb01 1dbb
00000210: d53e 653d 99af 1b3e 68c2 913d a654 393d
00000220: f78f 46bc 270c cd3d 82c1 fcbc 52a9 64bd
00000230: fd74 b73d e63d 3cbe c6e2 213d c7e4 443d
00000240: 001c 303e b175 2e3e 0e92 fa3d 541c 863d
00000250: f314 14bc f800 13be ddaf a1bc bc06 093d
00000260: 2b27 eebc b427 603c 65b0 6c3c b1fe 233d
00000270: b60c aebd efed 2b3c 93a8 45bd c230 41bb
00000280: d2a5 1bbc 80da 9ebc d9bd 7ebd 6e13 29bd
00000290: 2f4e 843d 731b a63d c0b7 0d3d a0df 49bd
000002a0: 1fb3 3f3d eb18 1fbc 8871 28be 2094 c4bd
000002b0: 445a 18bc 6960 1f3e 36e1 3cbd 3161 96bd
000002c0: ebd0 d73d 500a a2bd 488f d8bd 29f9 65bd
000002d0: e8a7 8cbc d194 15be 51f0 e1bc 7005 b8bc
000002e0: b63f 5cbc f01f ca3d eae8 a7bd b161 283d
000002f0: d996 763c 5823 3bbd 4cac db3d 6bb5 6a3e
00000300: eb5e 993d 7b5b ca3d 43b6 873d 61d5 2abc
00000310: 5c25 d2bd aadf b73d c47e 97bc 9b55 aebc
00000320: ef27 803d d0b3 1ebe 2d6b 07be c3d9 43be
00000330: e68a 15be cf67 60be 9395 abbd 2212 15bd
00000340: 5723 8c3d 1644 5abd 6c70 513d cc67 94bc
00000350: fafa b83c efaf ff3d f360 0b3e 8ec1 f4bc
00000360: 70c6 04be 1d55 00bd aea6 fcbd cbf5 183d
00000370: 5281 27be d036 3a3c 2a1f c7bc b4a4 17be
00000380: f354 6f3d dbdb 5d3d eb08 9cbc 7f6b 49be
00000390: c883 0c3e fb8c 133d aaee 8bbe e841 043e
000003a0: c6bc 44bb 1a63 f3bd adc1 0fbe ec1f 05be
000003b0: 719d 63bc a3fb 21be b8de 08be 50fd 063e
000003c0: bbd7 d83d 72d5 7fbd bddd 8d3d 803b 2abb
000003d0: 4636 23be f7f8 a03d bd48 9c3d d449 aabd
000003e0: cd7b 0ebd d6b8 fe3c 5082 73bd 58d7 b7bd
000003f0: c9c6 99bd ce61 52be 822b fbbd 478c a23d

weight f4 [8]
0.8501027 0.9987013 0.94561464 0.9798255 1.0371249 0.9219794 0.9629721 0.97691935
00000000: 55a0 593f e3aa 7f3f cd13 723f d8d5 7a3f
00000010: 82c0 843f d806 6c3f 5785 763f 6317 7a3f

bias f4 [8]
0.043183114 0.0020991464 0.08257359 0.08974684 0.0017083203 0.06230613 -0.018779228 0.036325913
00000000: c7e0 303d d591 093b 581c a93d 31cd b73d
00000010: b8e9 df3a b634 7f3d e5d6 99bc 7bca 143d

running_mean f4 [8]
-0.09002834 -0.07097868 -0.09043574 -0.7608614 -0.3194279 -0.50322473 -0.031210989 0.5132009
00000000: c760 b8bd 455d 91bd 6036 b9bd d0c7 42bf
00000010: 0e8c a3be 56d3 00bf 30ae ffbc 2261 033f

running_var f4 [8]
0.38862458 0.36561054 0.30255577 0.4174158 0.45245314 0.5874696 0.2520981 0.55768704
00000000: cdf9 c63e 4e31 bb3e 97e8 9a3e 86b7 d53e
00000010: f0a7 e73e 6864 163f 0113 813e 94c4 0e3f

weight f4 [8, 8, 3, 3]
0.18916246 0.0333193 0.023823006 -0.09074994 -0.15378594 -0.14412086 -0.089844786 -0.018052638
0.13160488 0.075018756 -0.024965812 0.0795146 0.06227248 0.11095924 0.06722005 -0.1309311
0.09584491 -0.027933715 0.19219075 0.10958146 -0.109373756 0.106518686 -0.07038611 -0.16151251
0.12130107 -0.029539874 0.07121866 0.039271634 0.0645625 -0.22427562 0.12572077 0.074207954
-0.12681738 0.038825758 -0.2151913 -0.11730996 0.1857611 0.12250472 0.1263956 0.09568812
-0.029921416 -0.025382474 -0.03409685 -0.16085534 -0.10792473 0.0023870773 -0.044513788 0.06139865
-0.15234032 -0.12685725 -0.10545165 0.07589654 -0.014523468 0.016760036 -0.0870601 -0.014756879
0.10377961 0.0026241061 0.033158895 0.103988014 -0.026056988 0.006870849 0.02761648 -0.22233367
-0.1082734 0.1038136 -0.09771763 -0.056669615 0.18205275 0.0500579 -0.079763725 0.015031605
0.09270347 0.13966887 0.1435379 0.07902055 0.22946025 0.07177562 0.13344483 0.001117186
-0.110422894 -0.051533144 -0.14988351 -0.13055862 0.014122085 -0.082366586 -0.067335956 0.010418435
0.0044714287 -0.12893224 -0.064336404 0.09100753 -0.07636905 0.05607982 0.093755566 0.05455704
-0.02118885 -0.0051686433 0.09609319 -0.10403295 -0.006416645 -0.047683984 -0.10014398 -0.08912688
0.026651792 0.11226917 0.03328109 0.107778214 0.009497102 -0.11387368 -0.07422334 0.12360531
-0.09831118 -0.07407743 -0.06336903 0.12313371 0.025798224 0.07167219 0.0709906 0.11136675
-0.048724968 0.034295168 0.10150113 -0.07032215 -0.033270832 -0.014728914 0.095350556 -0.10974593
0.025127525 0.07029846 0.06634565 0.05769585 0.011174083 0.0922061 0.10186542 -0.0016203703
-0.016004365 0.13056186 0.08599572 0.08139402 0.15055633 0.0058270046 0.076673955 -0.00092777837
-0.023611533 0.15485165 0.10894994 -0.05970815 -0.12632766 0.06530956 -0.1745165 -0.12726097
0.1560589 0.014296519 -0.06760536 0.07122962 0.1589689 0.15956861 0.0894251 0.1387731
0.07311713 -0.06345584 -0.13314347 -0.026585437 0.073501825 0.096553095 0.16696906 0.09455226
-0.103454776 0.05997552 0.022413114 0.08724461 0.11856722 0.06779299 0.10415701 -0.021533368
0.068107545 0.02840198 -0.10663159 0.034722064 -0.075344265 0.06026163 0.16537789 0.021466013
0.16951883 0.09137339 0.124388315 0.14866565 -0.025112947 0.10774266 -0.08538847 -0.0015414252
-0.062081385 -0.018617906 0.0029475929 0.092170745 -0.15054424 -0.073108494 -0.10669732 -0.020033319
0.12186997 -0.056678418 -0.033153422 0.1097637 -0.13211502 0.0031435706 -0.016980428 0.2462896
0.11128903 -0.008830558 0.0938899 0.107216485 0.106170416 0.07930069 0.08890427 0.009742357
-0.023579001 0.013622811 0.0659984 0.13903679 0.07653862 -0.102767155 0.1949429 0.022090755
-0.0059375167 0.061230347 0.04663516 -0.046498794 0.07857918 0.1075834 -0.22303168 0.028271928
-0.046566416 -0.094763406 -0.034561794 -0.012137756 0.05697495 -0.05231366 -0.017313594 -0.0184425
-0.046189472 -0.0625191 0.07708203 -0.06781605 0.01900813 0.17304656 -0.095246404 0.12460101
0.18874761 -0.14632295 -0.047462355 0.022521175 -0.12223216 0.03261395 0.09544403 0.13053495
00000000: ceb3 413e d179 083d 7728 c33c 1bdb b9bd
00000010: 107a 1dbe 6b94 13be 8b00 b8bd 20e3 93bc
00000020: 6ec3 063e 6fa3 993d 1a85 ccbc 8dd8 a23d
00000030: 6e11 7f3d 993e e33d aaaa 893d cd12 06be
00000040: 564a c43d 3fd5 e4bc a7cd 443e 3f6c e03d
00000050: 59ff dfbd 7826 da3d 9826 90bd 8963 25be
00000060: b26c f83d 9bfd f1bc 17db 913d 4bdb 203d
00000070: 5839 843d 82a8 65be f2bc 003e 57fa 973d
00000080: 6adc 01be c207 1f3d 1c5b 5cbe 3440 f0bd
00000090: 2838 3e3e c1e3 fa3d d96d 013e 22f8 c33d
000000a0: c21d f5bc e8ee cfbc 23a9 0bbd 43b7 24be
000000b0: a407 ddbd 8370 1c3b 1754 36bd 277d 7b3d
000000c0: 1aff 1bbe dee6 01be 09f7 d7bd a56f 9b3d
000000d0: d7f3 6dbc 584c 893c 914c b2bd d6c6 71bc
000000e0: 678a d43d 32f9 2b3b 9fd1 073d abf7 d43d
000000f0: 7775 d5bc dc24 e13b f53b e23c 70ab 63be
00000100: 72be ddbd 3a9c d43d 2e20 c8bd 661e 68bd
00000110: 096c 3a3e 8309 4d3d 2a5b a3bd 1f47 763c
00000120: 51db bd3d 5b05 0f3e 99fb 123e 87d5 a13d
00000130: a1f7 6a3e 19ff 923d c3a5 083e 8b6e 923a
00000140: 6625 e2bd 6b14 53bd 107b 19be 29b1 05be
00000150: 5160 673c d0af a8bd 6fe7 89bd 15b2 2a3c
00000160: 1085 923b d006 04be cec2 83bd 2862 ba3d
00000170: 6067 9cbd f4b3 653d eb02 c03d 3477 5f3d
00000180: 3d94 adbc b95d a9bb 82cc c43d 3a0f d5bd
00000190: b842 d2bb 4850 43bd 4918 cdbd 2788 b6bd
000001a0: dc54 da3c 61ed e53d c151 083d d3ba dc3d
000001b0: bc99 1b3c 9b36 e9bd 6802 98bd c824 fd3d
000001c0: 5f57 c9bd e8b5 97bd 9fc7 81bd 872d fc3d
000001d0: cc56 d33c dfc8 923d 8563 913d 4014 e43d
000001e0: d593 47bd 1779 0c3d d3df cf3d 0f05 90bd
000001f0: ff46 08bd 8b51 71bc 2747 c33d 79c2 e0bd
00000200: 3dd8 cd3c a4f8 8f3d 3ae0 873d 7c52 6c3d
00000210: 8013 373c 8dd6 bc3d d19e d03d 9b62 d4ba
00000220: 961b 83bc 02b2 053e 861e b03d e8b1 a63d
00000230: 702b 1a3e 75f0 be3b 3c07 9d3d 2736 73ba
00000240: f96c c1bc 6e91 1e3e 2521 df3d 8890 74bd
00000250: 0a5c 01be 05c1 853d 74b4 32be b350 02be
00000260: e7cd 1f3e f23b 6a3c ae74 8abd d6e0 913d
00000270: bec8 223e f465 233e 8224 b73d 891a 0e3e
00000280: 6fbe 953d 23f5 81bd c356 08be b4c9 d9bc
00000290: 2088 963d a1bd c53d f0f9 2a3e 9ea4 c13d
000002a0: 19e0 d3bd e4a8 753d b59b b73c 4dad b23d
000002b0: 5fd3 f23d 0dd7 8a3d 4550 d53d bf66 b0bc
000002c0: f87b 8b3d 45ab e83c aa61 dabd b938 0e3d
000002d0: 184e 9abd e6d4 763d d258 293e 7ed9 af3c
000002e0: 5896 2d3e f921 bb3d 4dbf fe3d cf3b 183e
000002f0: abb9 cdbc 2fa8 dc3d 26e0 aebd a609 caba
00000300: 0d49 7ebd 9484 98bc 672c 413b 04c4 bc3d
00000310: 4528 1abe e8b9 95bd 2084 dabd ea1c a4bc
00000320: f696 f93d a127 68bd e2cb 07bd cacb e03d
00000330: 2949 07be 5d04 4e3b 8a1a 8bbc 5733 7c3e
00000340: 81eb e33d 0bae 10bc 5949 c03d 5194 db3d
00000350: e06f d93d 6668 a23d 7113 b63d 689e 1f3c
00000360: c028 c1bc 3632 5f3c 2b2a 873d a95f 0e3e
00000370: 48c0 9c3d 9677 d2bd 1d9f 473e acf7 b43c
00000380: 808f c2bb accc 7a3d 8204 3f3d 8575 3ebd
00000390: 1fee a03d b054 dc3d 6b62 64be 889a e73c
000003a0: 6dbc 3ebd 5113 c2bd ab90 0dbd 70dd 46bc
000003b0: 915e 693d d946 56bd 3dd5 8dbc ba14 97bc
000003c0: 2c31 3dbd 040a 80bd 2fdd 9d3d 24e3 8abd
000003d0: f0b6 9b3c 1e33 313e 8c10 c3bd d02e ff3d
000003e0: 0e47 413e afd5 15be e367 42bd 547e b83c
000003f0: db54 fabd 3596 053d 2978 c33d f4aa 053e

weight f4 [8]
1.0495219 0.90460837 0.95482326 1.0353745 0.9893184 1.0671793 0.98171586 1.0157043
00000000: bc56 863f 6a94 673f 4c6f 743f 2787 843f
00000010: f843 7d3f 5599 883f bb51 7b3f 9902 823f

bias f4 [8]
0.07718746 -0.06356577 -0.098099425 0.04703162 -0.014182201 0.03672491 -0.05241249 -0.007323947
00000000: 7614 9e3d c52e 82bd 5ae8 c8bd 3aa4 403d
00000010: 765c 68bc dc6c 163d 7bae 56bd b8fd efbb

running_mean f4 [8]
-0.21847752 1.13895 1.737949 -0.25295517 -0.37539318 -1.1590246 -0.603852 -0.93302023
00000000: 92b8 5fbe 1dc9 913f 1d75 de3f 5783 81be
00000010: 8933 c0be eb5a 94bf 0b96 1abf 6ada 6ebf

running_var f4 [8]
1.4081936 0.844334 0.80774033 1.7989595 1.3732785 1.1877462 0.72610617 0.8479398
00000000: b03f b43f 4626 583f 12c8 4e3f 4e44 e63f
00000010: 97c7 af3f 1108 983f 18e2 393f 9512 593f

weight f4 [8, 8, 3, 3]
0.023444634 -0.1015721 0.025200667 -0.10973544 -0.11699646 -0.018721383 -0.21739228 -0.08944571
-0.07044215 0.07182772 0.058699515 -0.0049371906 -0.09879356 0.120793104 -0.024958543 -0.033085804
-0.017878367 0.16359621 0.027741095 0.17254196 0.19860855 0.124635465 0.20653409 0.07722465
0.05915619 0.012089368 0.062385064 -0.20396575 -0.1078687 -0.09089115 -0.12989649 -0.10371992
-0.12813066 -0.04737072 -0.0033716336 -0.110043 -0.07242144 0.0107119465 -0.05396447 -0.017322067
-0.019354578 -0.08444489 0.06466034 -0.111581735 0.06265886 -0.0049544214 0.057743058 0.027246283
-0.02231555 -0.10469839 0.16945538 -0.089924574 0.102091886 -0.050865054 -0.07674688 -0.031052649
-0.13108096 0.023389475 0.045500766 -0.011028343 -0.025708748 0.1021905 0.013598503 0.0969681
-0.0135408435 0.08207447 0.20103592 0.1346129 -0.0010697014 0.02642432 -0.021939633 -0.056042854
-0.06311191 -0.07395103 -0.10583699 -0.13027687 -0.13297941 -0.05079505 -0.0553318 0.034936618
-0.016474374 -0.024893636 -0.11136805 -0.01752923 0.11485139 0.055291284 -0.03131133 0.039605606
-0.05702535 -0.055616293 0.04177665 -0.10374403 -0.11757582 0.06170015 0.037571974 -0.082664475
0.116505794 0.104057916 0.03669983 0.03219507 -0.03594226 0.10105448 -0.0020129662 0.10107505
0.019194968 0.12041102 -0.00045107436 0.033671614 0.09736243 0.06074561 0.07713192 0.112387046
0.18852754 0.013602598 0.1416025 0.08445979 -0.061652876 -0.111135945 0.0014728359 0.05685423
0.07448068 -0.10218704 -0.107468225 -0.06751995 -0.08395299 0.108735874 -0.17286958 -0.1314227
-0.16767764 -0.099069245 -0.06179053 -0.16612367 -0.03946233 0.0029097942 -0.05292726 0.008977205
0.054329593 -0.10296822 -0.061672777 -0.12543783 -0.046096273 -0.04749112 -0.09134441 0.04941806
0.13549891 0.0049448255 -0.0008827423 0.051272362 0.10233593 -0.05431489 0.036830418 -0.0054075457
0.06367504 -0.1354777 -0.07769352 0.024562316 -0.029371671 0.11585842 0.022389518 -0.011193896
0.0018187755 0.036889922 -0.0509415 -0.082117654 0.16130452 -0.0069380896 -0.03330144 -0.042920742
-0.06266018 0.05292303 0.097552136 -0.11116595 -0.0021458238 0.052303016 0.05862363 -0.0013805507
0.22236556 0.093031354 0.07409689 0.24656735 0.072199784 -0.008921291 -0.016543731 0.037928537
0.0030868603 0.010909923 -0.07617341 0.060904175 -0.14127174 -0.05222278 0.07924285 -0.16131106
0.06293236 -0.13072547 -0.1282607 -0.08692399 -0.1303091 -0.09515063 0.05687233 0.06167857
-0.023873225 -0.09269092 -0.040545996 0.079436824 0.03616086 -0.038913064 -0.00883551 -0.008669503
-0.089484945 -0.2521006 0.016018381 -0.13581146 -0.11721685 0.033222437 -0.046853866 -0.028036019
0.14177169 0.093799554 0.010540948 -0.19923343 0.07984979 -0.13160355 -0.22508289 -0.12438063
-0.0039600586 -0.029102862 -0.12009843 0.06451021 -0.13374859 0.045547817 0.05051097 -0.037170928
0.0324586 0.10386925 -0.12549105 0.04749681 0.0022925634 -0.033970904 0.10007892 -0.04424306
-0.044951234 0.013835026 -0.033152066 0.050108556 -0.032439716 -0.14241794 -0.016738264 0.015576214
0.03435365 0.0787813 0.15533823 0.041982092 0.14004324 0.032236982 0.07717308 0.00292017
00000000: f60e c03c 0805 d0bd a171 ce3c f9bc e0bd
00000010: d79b efbd 965d 99bc 159c 5ebe 502f b7bd
00000020: f943 90bd 691a 933d e76e 703d 28c8 a1bb
00000030: 4754 cabd 6062 f73d dc75 ccbc fb84 07bd
00000040: a775 92bc c485 273e 4b41 e33c d7ae 303e
00000050: 0a60 4b3e e140 ff3d ac7d 533e f527 9e3d
00000060: c34d 723d 7c12 463c 7b87 7f3d 66dc 50be
00000070: 44ea dcbd 2425 babd 9603 05be 1c6b d4bd
00000080: af34 03be cd07 42bd a0f6 5cbb 395e e1bd
00000090: b151 94bd 2981 2f3c d909 5dbd 02e7 8dbc
000000a0: 7e8d 9ebc 71f1 acbd a46c 843d f784 e4bd
000000b0: 4a53 803d b358 a2bb fc83 6c3d 9933 df3c
000000c0: 1acf b6bc 1c6c d6bd b685 2d3e 602a b8bd
000000d0: 8d15 d13d e057 50bd 782d 9dbd 2062 febc
000000e0: 163a 06be 499b bf3c 035f 3a3d 39b0 34bc
000000f0: 279b d2bc 4149 d13d 41cc 5e3c 3697 c63d
00000100: 6ada 5dbc a916 a83d 5cdc 4d3e f7d7 093e
00000110: 3935 8cba d177 d83c bfba b3bc 318d 65bd
00000120: d140 81bd a373 97bd 10c1 d8bd 4d67 05be
00000130: c12b 08be 780e 50bd 99a3 62bd b319 0f3d
00000140: 44f5 86bc bded cbbc ef14 e4bd 7699 8fbc
00000150: 3537 eb3d 1d79 623d 4f40 00bd 7d39 223d
00000160: 6a93 69bd e9cd 63bd fe1d 2b3d c077 d4bd
00000170: 97cb f0bd 4cb9 7c3d 12e5 193d fe4b a9bd
00000180: 979a ee3d 511c d53d 9052 163d fade 033d
00000190: 3138 13bd a7f5 ce3d f8eb 03bb 7000 cf3d
000001a0: c43e 9d3c 0e9a f63d 2d7e ecb9 3feb 093d
000001b0: f465 c73d 64d0 783d 57f7 9d3d 2e2b e63d
000001c0: 5d0d 413e 6edd 5e3c 3f00 113e 41f9 ac3d
000001d0: ba87 7cbd 3e9b e3bd 2c0c c13a fbdf 683d
000001e0: 5489 983d 7047 d1bd 4d18 dcbd e647 8abd
000001f0: 8cef abbd eab0 de3d b904 31be ac93 06be
00000200: b0b3 2bbe d1e4 cabd 1118 7dbd 531c 2abe
00000210: 41a3 21bd 3fb2 3e3b 41ca 58bd 2015 133c
00000220: b588 5e3d 01e1 d2bd 989c 7cbd c672 00be
00000230: 72cf 3cbd 0c86 42bd c712 bbbd 976a 4a3d
00000240: 3ac0 0a3e 3408 a23b d567 67ba f802 523d
00000250: 8095 d13d 4a79 5ebd 7edb 163d c831 b1bb
00000260: 0f68 823d abba 0abe c81d 9fbd e936 c93c
00000270: dc9c f0bc 2e47 ed3d 396a b73c 9a66 37bc
00000280: fb63 ee3a e319 173d 09a8 50bd 4d2d a8bd
00000290: 032d 253e ea58 e3bb 1767 08bd a9cd 2fbd
000002a0: fb53 80bd d2c5 583d 6ac9 c73d f9aa e3bd
000002b0: f3a0 0cbb b03b 563d 551f 703d 98f3 b4ba
000002c0: ccb3 633e 3987 be3d 1cc0 973d 277c 7c3e
000002d0: 7bdd 933d 9b2a 12bc b886 87bc f45a 1b3d
000002e0: ec4c 4a3b 89bf 323c ce00 9cbd a876 793d
000002f0: 8aa9 10be 8ee7 55bd 134a a23d ba2e 25be
00000300: aee2 803d e6dc 05be c656 03be 3405 b2bd
00000310: c06f 05be 55de c2bd f6f2 683d aba2 7c3d
00000320: c891 c3bc bdd4 bdbd 8f13 26bd c6af a23d
00000330: 691d 143d 4e63 1fbd d1c2 10bc 880a 0ebc
00000340: e243 b7bd 5413 81be fb38 833c 2912 0bbe
00000350: 630f f0bd 4014 083d d7e9 3fbd cbab e5bc
00000360: 992c 113e fb19 c03d f1b3 2c3c d903 4cbe
00000370: 4988 a33d 15c3 06be 217c 66be 46bb febd
00000380: 61c3 81bb 2069 eebc 2af6 f5bd ee1d 843d
00000390: 64f5 08be 5990 3a3d 97e4 4e3d 8b40 18bd
000003a0: 4ff3 043d 67b9 d43d ba80 00be 048c 423d
000003b0: d53e 163b 1325 0bbd 2df6 cc3d 3638 35bd
000003c0: c91e 38bd 4eac 623c 76ca 07bd a13e 4d3d
000003d0: 82df 04bd 02d6 11be af1e 89bc 6033 7f3c
000003e0: 6ab6 0c3d 1758 a13d fc10 1f3e 6af5 2b3d
000003f0: 7f67 0f3e ed0a 043d eb0c 9e3d 5360 3f3b

weight f4 [8]
1.0338893 0.9667129 0.98339033 1.0372595 1.0127106 0.9622797 0.9467987 0.97623324
00000000: 7c56 843f 7f7a 773f 78bf 7b3f ebc4 843f
00000010: 80a0 813f f657 763f 6661 723f 6cea 793f

bias f4 [8]
0.10955336 0.051855527 0.03915593 0.056427028 -0.07250678 -0.005909384 0.029121475 0.06290265
00000000: 835d e03d 7666 543d f861 203d 0720 673d
00000010: 6f7e 94bd 82a3 c1bb 2990 ee3c 1bd3 803d

running_mean f4 [8]
-0.18277884 -0.3705454 -0.12803935 0.29436028 0.3951332 1.0850757 0.32214946 0.23327251
00000000: 602a 3bbe 20b8 bdbe bf1c 03be 64b6 963e
00000010: e64e ca3e c3e3 8a3f c6f0 a43e fdde 6e3e

running_var f4 [8]
0.5254225 0.34540442 0.4305993 0.4366577 0.43119955 0.4407297 0.402153 0.42033118
00000000: 1782 063f d9d8 b03e 8377 dc3e 9991 df3e
00000010: 30c6 dc3e 53a7 e13e ffe6 cd3e a635 d73e

weight f4 [16, 8, 3, 3]
0.119688064 0.002521566 0.004028622 -0.07539215 0.0033822898 0.031263318 -0.04822249 -0.04681253
0.07813056 -0.1436196 -0.14802562 -0.09761137 -0.009243284 -0.11331521 0.012278053 0.029128166
-0.099783 -0.07060769 0.043706693 0.0023908666 0.049840543 0.008866748 0.1752718 0.010100963
0.076426335 -0.0056530754 0.2066806 0.091997206 0.033750094 0.041785073 -0.04952495 0.05640717
0.027517851 -0.0048323134 0.16217786 0.06263338 -0.06335192 -0.0552747 0.07846247 0.024521297
-0.098383665 -0.08684194 -0.1415557 -0.09997343 -0.011025328 -0.045564458 -0.059292756 0.0144064985
0.13098198 0.08881789 -0.11295533 -0.042610243 0.05745073 -0.05349804 0.039324164 -0.08983455
0.024360444 0.10584485 0.11262507 0.023330066 0.06707085 0.10607526 -0.016793223 0.118265785
0.031261414 -0.06985791 0.14810538 0.017930193 0.07708017 -0.022073377 0.09894081 0.11142172
-0.059910018 -0.092403725 0.11223154 -0.13479678 -0.021518942 0.019657154 -0.050168213 0.030463314
0.067311585 -0.09999765 -0.029203964 0.110946774 0.04418293 0.047472317 0.009469727 0.12302514
-0.03252547 -0.093013 0.098700285 -0.014191046 0.041600052 0.1260443 0.056544825 -0.068990275
0.095318206 -0.0826476 -0.054243684 -0.13726364 -0.03444812 -0.04987098 -0.12609325 -0.014402436
0.027800024 -0.15405886 0.08095702 0.10332392 -0.044533227 0.008010503 -0.11486613 0.02144878
-0.113922976 -0.038728762 -0.066757426 0.10208597 0.09172519 0.040903673 -0.064344086 0.060574587
-0.17484571 -0.00700769 0.15009701 -0.13897866 0.112474576 0.115077436 0.06273593 0.047633573
0.018948248 -0.00058628025 -0.1262215 0.058954757 0.064501055 -0.108765505 -0.0102950875 0.15276773
0.069277644 -0.045987308 0.17071499 -0.03192084 -0.1820727 0.15447281 0.016733445 -0.06235063
-0.14528085 -0.18642175 0.048251506 -0.058795318 -0.010753822 -0.0043547405 -0.073007636 -0.02832204
-0.010477255 0.13450465 0.12719175 -0.106350146 0.08722817 -0.092159025 -0.028570004 0.025424872
-0.10323521 -0.08340048 -0.15564299 -0.207807 -0.055068206 -0.1831361 -0.15344688 0.033935368
-0.016404089 -0.03921534 0.047036313 -0.10172135 -0.089205824 0.00049380213 0.049321625 -0.12895043
-0.099610664 -0.0421072 -0.09813062 0.076988645 0.020311227 -0.15805055 -0.15809284 0.02580262
-0.041146282 -0.0013993944 -0.10957887 -0.047768928 -0.09320763 -0.0920911 0.018211724 0.094394386
-0.096836396 -0.022240875 -0.059561912 0.018788217 0.09166207 0.11630874 -0.028383045 -0.067357644
0.08610898 -0.054680772 0.09743178 -0.01772546 0.058856823 0.0631117 0.03212944 -0.022576496
-0.024673685 0.011227728 0.108637884 -0.040257193 -0.11641884 -0.0022173706 -0.018052991 -0.04453015
0.071216576 -0.070291646 -0.021406103 0.07254233 -0.0070966324 -0.11868567 0.039087407 0.022938179
-0.109294355 0.0043554925 0.087198064 -0.025430482 0.0776372 0.0520841 0.16772945 0.050514903
-0.04116966 0.05377547 0.10010215 0.022115039 0.022373294 0.14912648 0.04493614 0.014456493
0.07489951 0.10027425 0.039464407 0.05233166 -0.03793974 0.012146958 -0.05456738 0.086354256
0.061660964 0.07369512 0.10267701 -0.096202284 0.10732416 0.11539194 0.10663515 0.011158587
00000000: 041f f53d dc40 253b 8802 843b 3367 9abd
00000010: 68a9 5d3b f70d 003d f284 45bd 7fbe 3fbd
00000020: ea02 a03d 0411 13be 0794 17be 78e8 c7bd
00000030: 2571 17bc ce11 e8bd e329 493c 319e ee3c
00000040: 085b ccbd c49a 90bd ca05 333d 16b0 1c3b
00000050: 9925 4c3d d645 113c 737a 333e 827e 253c
00000060: 6985 9c3d 6f3d b9bb 14a4 533e 0869 bc3d
00000070: 8a3d 0a3d d326 2b3d adda 4abd 340b 673d
00000080: 1e6d e13c 6258 9ebb f411 263e ee45 803d
00000090: a7be 81bd b967 62bd eeb0 a03d e3e0 c83c
000000a0: 607d c9bd 30da b1bd faf3 10be dfbe ccbd
000000b0: 94a3 34bc cca1 3abd f6dc 72bd 3c09 6c3c
000000c0: 2420 063e 27e6 b53d 2055 e7bd 1488 2ebd
000000d0: 7551 6b3d c320 5bbd 6012 213d 2dfb b7bd
000000e0: 8e8f c73c 2fc5 d83d f9a7 e63d b21e bf3c
000000f0: 715c 893d fc3d d93d f191 89bc 5535 f23d
00000100: f80b 003d aa11 8fbd f0a8 173e 57e2 923c
00000110: 35dc 9d3d 3ad3 b4bc 7ba1 ca3d 1231 e43d
00000120: 3564 75bd 2a3e bdbd a6d9 e53d 2b08 0abe
00000130: 7e48 b0bc 0a08 a13c 2f7d 4dbd 338e f93c
00000140: a8da 893d 91cb ccbd 273d efbc 1038 e33d
00000150: 29f9 343d 5572 423d ea26 1b3c 9bf4 fb3d
00000160: 6d39 05bd 9a7d bebd 6023 ca3d 9081 68bc
00000170: d164 2a3d c211 013e 8c9b 673d c64a 8dbd
00000180: 3136 c33d 2543 a9bd a02e 5ebd d78e 0cbe
00000190: 7919 0dbd 8345 4cbd 971e 01be 32f8 6bbc
000001a0: e0bc e33c 9bc1 1dbe cbcc a53d 7e9b d33d
000001b0: 7968 36bd 7c3e 033c ef3e ebbd 5ab5 af3c
000001c0: 7350 e9bd 0da2 1ebd 1eb8 88bd 7312 d13d
000001d0: 6bda bb3d 9c8a 273d d5c6 83bd 0f1d 783d
000001e0: c10a 33be c4a0 e5bb 08b3 193e 6c50 0ebe
000001f0: 1259 e63d b8ad eb3d b27b 803d 6c1b 433d
00000200: 5b39 9b3c 9ab0 19ba 3540 01be 8b7a 713d
00000210: 2119 843d 73c0 debd baac 28bc 256f 1c3e
00000220: 70e1 8d3d 305d 3cbd e9cf 2e3e 6dbf 02bd
00000230: 4471 3abe 1f2e 1e3e 9414 893c 6063 7fbd
00000240: 81c4 14be 58e5 3ebe 5fa3 453d 5cd3 70bd
00000250: cc30 30bc 36b2 8ebb 0785 95bd 9f03 e8bc
00000260: cba8 2bbc 96bb 093e 8e3e 023e 1bce d9bd
00000270: afa4 b23d dfbd bcbd a40b eabc d247 d03c
00000280: fb6c d3bd dfcd aabd e060 1fbe 5ccb 54be
00000290: 338f 61bd 0888 3bbe 2e21 1dbe d0ff 0a3d
000002a0: de61 86bc 44a0 20bd 26a9 403d 4853 d0bd
000002b0: 8bb1 b6bd 8072 013a 7905 4a3d 950b 04be
000002c0: ad00 ccbd 9978 2cbd b5f8 c8bd 39ac 9d3d
000002d0: bb63 a63c 01d8 21be 17e3 21be 0460 d33c
000002e0: 0189 28bd e26b b7ba e36a e0bd 5aa9 43bd
000002f0: a4e3 bebd 429a bcbd c130 953c d851 c13d
00000300: 2952 c6bd 7f32 b6bc 31f7 73bd bfe9 993c
00000310: 53b9 bb3d 4733 ee3d 8f83 e8bc cef2 89bd
00000320: e859 b03d f2f8 5fbd 508a c73d fc34 91bc
00000330: da13 713d b540 813d 299a 033d 58f2 b8bc
00000340: 7820 cabc 81f4 373c 8a7d de3d bae4 24bd
00000350: 006d eebd 4e51 11bb dee3 93bc 3f65 36bd
00000360: ffd9 913d 11f5 8fbd da5b afbc 1391 943d
00000370: de8a e8bb 7911 f3bd 1e1a 203d d9e8 bb3c
00000380: b8d5 dfbd 85b8 8e3b e694 b23d 9653 d0bc
00000390: 4100 9f3d 2356 553d 45c1 2b3e b7e8 4e3d
000003a0: 84a1 28bd ab43 5c3d 5b02 cd3d 992a b53c
000003b0: 3348 b73c 9db4 183e f50e 383d edda 6c3c
000003c0: ea64 993d 965c cd3d 6ea5 213d b959 563d
000003d0: b366 1bbd 0904 473c 0c82 5fbd 80da b03d
000003e0: 3590 7c3d 78ed 963d 5348 d23d b405 c5bd
000003f0: c5cc db3d 9c52 ec3d 8863 da3d 82d2 363c

weight f4 [16]
1.0046911 1.0145391 1.0168533 0.99895453 1.0456821 1.0220499 1.0312922 1.0105824
1.0135331 0.91817856 1.0108517 0.99599266 0.99271756 0.9911476 1.0052882 0.93048906
00000000: b899 803f 6bdc 813f 4028 823f 7cbb 7f3f
00000010: e9d8 853f 88d2 823f 6201 843f c45a 813f
00000020: 74bb 813f c00d 6b3f 9763 813f 60f9 7e3f
00000030: bd22 7e3f d9bb 7d3f 49ad 803f 8834 6e3f

bias f4 [16]
-0.034975585 -0.0038740644 0.06524371 -0.018082436 0.018380916 0.014123332 -0.041634675 -0.011097191
-0.026368694 -0.044424802 -0.034195375 0.0075775725 -0.05054844 0.017472113 -0.022796666 -0.023809766
00000000: 8f42 0fbd 04e4 7dbb 7f9e 853d 9e21 94bc
00000010: 9393 963c 8c65 673c 1f89 2abd fed0 35bc
00000020: 2903 d8bc c8f6 35bd 7310 0cbd 494d f83b
00000030: e20b 4fbd ad21 8f3c 13c0 babc b30c c3bc

running_mean f4 [16]
0.95172024 -0.066766 -1.9856315 1.1603467 0.73217344 -1.8400954 0.318714 -0.56919366
-1.7293247 1.4559989 -0.42542502 -0.9032816 0.955481 0.036209624 -1.0982618 0.3846227
00000000: f0a3 733f 9dbc 88bd 2c29 febf 3e86 943f
00000010: b86f 3b3f 3f88 ebbf 7b2e a33e adb6 11bf
00000020: 835a ddbf 2c5e ba3f 4fd1 d9be 773d 67bf
00000030: 679a 743f 8b50 143d d893 8cbf 44ed c43e

running_var f4 [16]
1.2733924 1.1506051 1.4482211 1.2661177 1.357485 1.6422747 1.061776 1.2710087
1.4595876 1.281446 1.3476616 1.283152 1.1374227 1.4212741 1.0262109 1.0515957
00000000: 86fe a23f 0747 933f 4f5f b93f 2510 a23f
00000010: 12c2 ad3f 0f36 d23f 47e8 873f 6ab0 a23f
00000020: c4d3 ba3f 6c06 a43f 2d80 ac3f 533e a43f
00000030: 1197 913f 4fec b53f e15a 833f b09a 863f

weight f4 [16, 16, 3, 3]
-0.058645625 -0.0769328 0.054945182 0.0026292684 0.061081108 -0.05436159 -0.07281095 0.028024865
0.013786135 -0.045382157 0.05138425 0.056976605 0.022201873 0.055251464 0.017225169 -0.08734359
-0.12501357 0.014235263 0.01984064 -0.061506312 0.027956046 -0.02590567 0.0024915105 -0.02228804
0.028104788 0.047821328 0.061560433 0.14841484 0.091221355 0.04836345 0.08630459 0.10037403
-0.02836285 -0.07620403 -0.104907975 0.058210924 -0.05479757 -0.07013059 -0.01538424 0.028397154
0.033729464 0.14732102 -0.023035267 0.012680738 0.034588847 0.0012779324 -0.06359403 -0.027092976
0.047614217 0.051594626 0.06897161 -0.038962457 0.049723715 -0.045324765 0.10143868 0.095412895
0.009501646 0.22234206 0.14701088 -0.023001364 -0.053059474 -0.012587048 -0.096839175 -0.10807328
-0.07997265 0.13911267 0.0047789374 -0.06839623 0.12307265 -0.05694215 0.096450344 0.057705417
0.021781206 -0.030465888 0.057073236 -0.04692662 0.025083104 -0.0049482756 -0.1074969 -0.0545915
-0.015363938 0.036124937 0.04043623 0.07565866 -0.09025229 -0.048838634 -0.0038462083 -0.050124045
-0.066883646 -0.07375299 0.083393745 -0.019883411 -0.07608007 -0.07895835 -0.04782009 0.16117105
-0.09685002 -0.044223577 -0.0050596884 0.062822215 -0.012045641 -0.04664977 -0.01957872 -0.04964772
0.017291056 0.00047012453 -0.092576936 -0.06446099 0.01574714 0.0020306136 -0.05244612 0.06851167
-0.084401906 0.07231682 0.03263496 0.017322673 -0.039572258 -0.11704459 -0.13394849 0.04616556
-0.14455296 -0.014833467 0.11492484 0.047478635 0.0484059 -0.05785836 -0.07916871 -0.028588515
-0.039394952 -0.12447467 0.02274593 0.035953995 -0.03116086 -0.004697503 -0.043029692 0.009809824
-0.06069495 0.020046718 -0.11378673 -0.10946046 0.051044896 -0.06210226 0.07116795 0.07371628
-0.0423 -0.07949959 0.06093199 -0.058845256 -0.059231848 0.045265537 -0.0031783083 0.030901736
0.08613939 -0.0001011108 -0.10289714 0.08419305 0.013172792 -0.12447138 -0.00022104594 -0.051314905
-0.07326788 0.0074631735 -0.07372893 -0.055971943 -0.028109638 0.0036864274 0.0843574 0.09445987
-0.07383248 -0.0138340965 0.06469084 0.05127617 -0.033000406 -0.037090614 0.0076185274 -0.040391415
-0.092537604 -0.013877299 0.0029515733 -0.08942349 0.07008025 -0.08450565 0.0243333 -0.031339753
-0.027270561 -0.0027466742 -0.033238236 -0.12733665 -0.09630146 -0.1445748 0.002081594 0.10013938
-0.040900804 0.06302355 0.09241273 0.025659896 0.1418096 -0.046576336 -0.041435793 0.04779641
0.09838831 0.02258205 0.0118386485 0.02665219 0.012321769 0.032105234 0.015301431 0.043214556
0.0053273654 -0.037288174 -0.024645103 0.036289554 0.026172109 -0.07906756 -0.07288222 0.0061798766
-0.03126832 -0.11582218 0.004908545 -0.027701573 0.076403625 -0.027443279 0.024346456 0.15335555
0.044410806 0.074735016 0.11179776 0.034579504 0.011070396 0.049985476 -0.07883222 -0.008124954
0.022344343 0.052214693 -0.0644802 -0.0030562356 0.015762646 -0.08196276 -0.10422439 0.037001856
0.009344907 0.04368215 -0.04319944 -0.016530098 0.031918358 -0.032871857 -0.069089144 -0.07885931
0.01845957 -0.0496121 -0.08391088 -0.04727211 -0.041273683 0.071150064 0.15472338 -0.046906978
00000000: 6536 70bd f28e 9dbd 330e 613d ce4f 2c3b
00000010: 2f30 7a3d 42aa 5ebd e81d 95bd 6794 e53c
00000020: 3edf 613c a4e2 39bd 4b78 523d 4d60 693d
00000030: b4e0 b53c 5c4f 623d cc1b 8d3c 32e1 b2bd
00000040: 8f03 00be 053b 693c d688 a23c 0bee 7bbd
00000050: 1404 e53c 2138 d4bc 9c48 233b 6895 b6bc
00000060: 033c e63c 4ce0 433d cb26 7c3d 0ffa 173e
00000070: 43d2 ba3d c118 463d 76c0 b03d e690 cd3d
00000080: 3559 e8bc dc10 9cbd fed9 d6bd 946e 6e3d
00000090: 6b73 60bd a0a0 8fbd 2e0e 7cbc 26a1 e83c
000000a0: e827 0a3d 52db 163e 75b4 bcbc dfc2 4f3c
000000b0: 09ad 0d3d 4c80 a73a 963d 82bd 17f2 ddbc
000000c0: 2007 433d e354 533d fd40 8d3d 1997 1fbd
000000d0: 18ab 4b3d 76a6 39bd 15bf cf3d d667 c33d
000000e0: cbac 1b3c a3ad 633e 058a 163e 5b6d bcbc
000000f0: e454 59bd e839 4ebc 9e53 c6bd 8655 ddbd
00000100: b3c8 a3bd 8d73 0e3e a298 9c3b 5313 8cbd
00000110: 830d fc3d 2c3c 69bd c287 c53d 845c 6c3d
00000120: 806e b23c 9993 f9bc a0c5 693d 2136 40bd
00000130: 157b cd3c 2525 a2bb 5627 dcbd 569b 5fbd
00000140: 07b9 7bbc bef7 133d 76a0 253d edf2 9a3d
00000150: 31d6 b8bd 050b 48bd ab10 7cbb df4e 4dbd
00000160: 4bfa 88bd cf0b 97bd 57ca aa3d 89e2 a2bc
00000170: decf 9bbd eab4 a1bd 00df 43bd 060a 253e
00000180: 4e59 c6bd c823 35bd becb a5bb efa8 803d
00000190: 155b 45bc d413 3fbd 8d63 a0bc 685b 4bbd
000001a0: f9a5 8d3c 0c7b f639 fa98 bdbd 2004 84bd
000001b0: 2500 813c 0b14 053b bed1 56bd d94f 8c3d
000001c0: e8da acbd d71a 943d 3cac 053d 47e8 8d3c
000001d0: 8516 22bd 13b5 efbd cb29 09be 1918 3d3d
000001e0: b105 14be 1208 73bc b75d eb3d f578 423d
000001f0: 4445 463d e3fc 6cbd 3423 a2bd 7632 eabc
00000200: 9a5c 21bd 93ec febd ac55 ba3c 7f44 133d
00000210: 0f45 ffbc 83ed 99bb e73f 30bd 62b9 203c
00000220: 459b 78bd 0439 a43c 0409 e9bd ce2c e0bd
00000230: 7414 513d f05e 7ebd 81c0 913d 90f8 963d
00000240: c442 2dbd aed0 a2bd d393 793d b907 71bd
00000250: 189d 72bd 5b68 393d 2a4b 50bb a325 fd3c
00000260: d969 b03d 730b d4b8 bcbb d2bd 686d ac3d
00000270: b2d2 573c daea febd 91c8 67b9 942f 52bd
00000280: 780d 96bd a38d f43b 31ff 96bd d642 65bd
00000290: 2f46 e6bc fd97 713b 93c3 ac3d 2d74 c13d
000002a0: 7c35 97bd 68a8 62bc a27c 843d f606 523d
000002b0: 6f2b 07bd 54ec 17bd d7a4 f93b 7871 25bd
000002c0: 5b84 bdbd 9c5d 63bc 2f6f 413b aa23 b7bd
000002d0: 3c86 8f3d 4c11 adbd a156 c73c 1d5e 00bd
000002e0: 8366 dfbc 8c01 34bb d124 08bd 8a64 02be
000002f0: b339 c5bd 6b0b 14be 5a6b 083b e015 cd3d
00000300: 9a87 27bd 7e12 813d e342 bd3d b434 d23c
00000310: 8936 113e d4c6 3ebd 94b8 29bd 2bc6 433d
00000320: cf7f c93d fefd b83c e4f6 413c b255 da3c
00000330: 3fe1 493c c780 033d dab2 7a3c bf01 313d
00000340: 2e91 ae3b 7cbb 18bd 87e4 c9bc 5ba4 143d
00000350: e466 d63c 2cee a1bd 4643 95bd 9080 ca3b
00000360: 3613 00bd 2e34 edbd dcd7 a03b 69ee e2bc
00000370: 8179 9c3d bad0 e0bc 3872 c73c 3d09 1d3e
00000380: 1be8 353d ac0e 993d 39f6 e43d 3da3 0d3d
00000390: 9b60 353c 92bd 4c3d c972 a1bd 871e 05bc
000003a0: 7c0b b73c 13df 553d 320e 84bd 204b 48bb
000003b0: aa20 813c 17dc a7bd 9973 d5bd 428f 173d
000003c0: 611b 193c 0eec 323d e5f1 30bd 216a 87bc
000003d0: d3bc 023d a4a4 06bd 9c7e 8dbd fd80 a1bd
000003e0: 8638 973c 0f36 4bbd 78d9 abbd 66a0 41bd
000003f0: 980e 29bd 20b7 913d ce6f 1e3e 8821 40bd

weight f4 [16]
1.0027237 1.023472 0.98398864 1.0817788 0.99356157 1.0354339 0.9516237 1.0260236
1.0283258 0.9477577 0.96754074 1.0387675 0.98483545 1.039575 0.9693673 1.0263815
00000000: 4059 803f 2101 833f aee6 7b3f ba77 8a3f
00000010: 0d5a 7e3f 1989 843f 9c9d 733f be54 833f
00000020: 2ea0 833f 40a0 723f c0b0 773f 55f6 843f
00000030: 2d1e 7c3f cb10 853f 7528 783f 7860 833f

bias f4 [16]
0.013251496 0.027019095 0.050993994 0.03917023 -0.02059947 -0.006273239 -0.033085477 0.008501442
0.00796075 0.01078032 0.023741303 0.03456052 0.037349973 -0.0042662565 0.017364977 -0.004131285
00000000: cd1c 593c 2657 dd3c 14df 503d f770 203d
00000010: 38c0 a8bc be8f cdbb a384 07bd a249 0b3c
00000020: ce6d 023c f09f 303c 1f7d c23c 558f 0d3d
00000030: 49fc 183d f4cb 8bbb ff40 8e3c bb5f 87bb

running_mean f4 [16]
-0.11303334 -0.5441568 -0.2553367 -0.6937811 -0.21599308 -0.09179115 0.0021889603 0.24406677
-0.07677948 0.017088467 0.101779774 -0.0020405592 -0.49720237 -0.25511953 -0.008561138 0.049823876
00000000: 067e e7bd dc4d 0bbf 7ebb 82be a39b 31bf
00000010: 4a2d 5dbe 00fd bbbd a974 0f3b a4ec 793e
00000020: 8f3e 9dbd 1dfd 8b3c ea71 d03d e7ba 05bb
00000030: 4f91 febe 079f 82be 0444 0cbc 1f14 4c3d

running_var f4 [16]
0.24346961 0.37970158 0.31284463 0.37930867 0.3971989 0.3053544 0.25655055 0.47438675
0.334465 0.44149745 0.23356476 0.36506003 0.45987278 0.31193775 0.29955864 0.30271697
00000000: 1950 793e 3f68 c23e 2c2d a03e bf34 c23e
00000010: a75d cb3e 6957 9c3e 985a 833e d2e2 f23e
00000020: ff3e ab3e f40b e23e 9a2b 6f3e 26e9 ba3e
00000030: 7274 eb3e 4eb6 9f3e c05f 993e b8fd 9a3e
