save_nn.pth (torch_old, 736682 bytes, 102 tensors)

weight f4 [8, 3, 3, 3]
-0.1768196 0.4818017 0.29380533 -0.35035926 0.025119374 0.24687865 -0.3925026 -0.017431054
-0.050558884 -0.17192802 0.2897086 0.03084335 -0.53782034 -0.05899628 0.18193966 -0.2203388
0.12581718 0.19098881 -0.24430326 -0.11556957 0.17560168 -0.45531824 0.06146279 0.23268926
0.04032905 0.13936286 0.19593014 -0.13832018 -0.1855989 0.065646395 -0.07608839 -0.1634771
0.28679484 -0.03051042 -0.31891868 0.15476541 0.24340588 0.08603108 0.13365887 0.22352597
-0.17607881 0.007372529 -0.16771589 -0.36264983 -0.09278276 0.17818071 0.12735835 -0.05025064
-0.19254197 -0.06951425 0.15156767 0.08436417 -0.14128433 -0.22429699 0.35972437 0.19189863
0.009594618 0.30293125 -0.3582986 0.16883965 -0.011974192 -0.65928787 -0.016311185 0.47146782
0.21949804 0.001161459 0.34405252 -0.15929332 0.0037410692 0.1756487 -0.2678783 0.26487738
0.1423407 -0.23772544 -0.18553294 -0.10293102 -0.60830885 -0.3255224 0.29167122 -0.2739281
0.15600042 0.10573829 -0.17859833 -0.18631904 -0.15003362 0.058398914 -0.20982534 0.20992772
-0.41370887 -0.23392534 -0.12352261 -0.32588357 -0.36900446 -0.19217166 -0.007543653 -0.030247858
0.1440238 -0.38819888 -0.27519977 0.19696884 0.30935636 0.237243 0.22880527 0.4876258
0.35001144 0.097239666 0.048952684 -0.16710515 0.18828005 0.563363 0.5307702 0.038212884
-0.14089523 -0.27085987 -0.041450102 -0.24813716 -0.33391693 -0.06492128 0.3821547 0.28094786
0.049500007 -0.2491548 -0.20616266 -0.18581717 -0.47883454 -0.39943233 0.24982636 0.25507557
0.35301587 0.029007524 -0.005335035 0.15461773 -0.15881991 -0.1383302 -0.25432146 0.13201952
-0.2497156 -0.17262764 0.048625007 -0.14267336 -0.27332366 0.16438408 0.41845122 -0.070947416
-0.015809879 -0.25202385 -0.045970187 0.11120072 -0.21673754 -0.36646143 0.59520996 0.42002568
-0.19610342 -0.012197684 -0.27437708 -0.4501774 0.27353075 -0.2565975 -0.26890108 0.77528924
0.3607773 -0.025875293 0.29053575 0.2419152 0.6068733 0.6468233 0.104966514 0.3781298
0.16010271 -0.22466429 -0.20597915 -0.28072068 -0.50174874 -0.2636225 0.1867676 -0.61840785
-0.42666313 0.39059582 -0.4443573 -0.5514012 -0.16634342 -0.039881717 0.118758 0.45508274
-0.4302971 -0.15200664 0.6260123 -0.05054387 0.12368807 -0.18755129 -0.09352812 0.15240853
0.29472712 -0.1574214 -0.076589495 -0.0867308 -0.101538256 0.34300393 0.057381522 -0.29852435
-0.21440892 0.28930795 -0.37496856 0.10610593 0.007842116 -0.18404397 0.27975446 -0.13255247
-0.300742 0.14366278 0.055850744 -0.42601585 -0.014629226 0.16218624 -0.28765687 0.26818517
00000000: 3210 35be b6ae f63e a76d 963e 4a62 b3be
00000010: 25c7 cd3c c2cd 7c3e 1af6 c8be 92cb 8ebc
00000020: d516 4fbd e60d 30be b054 943e 31ab fc3c
00000030: 98ae 09bf 15a6 71bd 644e 3a3e 7fa0 61be
00000040: 38d6 003e 9292 433e a22a 7abe bdaf ecbd
00000050: edd0 333e 791f e9be 68c0 7b3d 1846 6e3e
00000060: 1330 253d 23b5 0e3e e9a1 483e cea3 0dbe
00000070: a30d 3ebe 9e71 863d 3bd4 9bbd 8a66 27be
00000080: c6d6 923e fdf0 f9bc 4f49 a3be d37a 1e3e
00000090: 643f 793e 1031 b03d dfdd 083e fee3 643e
000000a0: 014e 34be 4195 f13b b7bd 2bbe 3dad b9be
000000b0: e304 bebd 0175 363e 3a6a 023e 9dd3 4dbd
000000c0: b929 45be 7d5d 8ebd 8e34 1b3e 1fc7 ac3d
000000d0: d7ac 10be 1cae 65be cb2d b83e 1381 443e
000000e0: bf32 1d3c ce19 9b3e ea72 b7be 4de4 2c3e
000000f0: 672f 44bc 17c7 28bf 099f 85bc 3b64 f13e
00000100: 18c4 603e 193c 983a a727 b03e ca1d 23be
00000110: ba2c 753b 41dd 333e 5827 89be 029e 873e
00000120: c3c1 113e 4c6e 73be 59fc 3dbe 80cd d2bd
00000130: 21ba 1bbf dfaa a6be ee55 953e 4e40 8cbe
00000140: 93be 1f3e 518d d83d 7be2 36be 6bca 3ebe
00000150: 6aa2 19be b333 6f3d 74dc 56be 4bf7 563e
00000160: a6d1 d3be 208a 6fbe 6cf9 fcbd 36da a6be
00000170: 27ee bcbe a6c8 44be bf30 f7bb 5bca f7bc
00000180: fa7a 133e 01c2 c6be fce6 8cbe 33b2 493e
00000190: f563 9e3e d4ef 723e ee4b 6a3e 17aa f93e
000001a0: b334 b33e 9725 c73d 9c82 483d 9d1d 2bbe
000001b0: 7ccc 403e 8f38 103f 8ee0 073f 1d85 1c3d
000001c0: d746 10be 25ae 8abe 95c7 29bd ab17 7ebe
000001d0: 29f7 aabe 73f5 84bd c8a9 c33e 66d8 8f3e
000001e0: 85c0 4a3d 7022 7fbe 4e1c 53be db46 3ebe
000001f0: cd29 f5be 6582 ccbe 7bd2 7f3e 4499 823e
00000200: 7fbe b43e 30a1 ed3c 84d1 aebb 1c54 1e3e
00000210: b0a1 22be 6fa6 0dbe 6c36 82be 2030 073e
00000220: 72b5 7fbe 4dc5 30be 042b 473d f718 12be
00000230: 14f1 8bbe 4d54 283e 3d3f d63e e14c 91bd
00000240: b883 81bc 4509 81be 3c4b 3cbd 34bd e33d
00000250: 72f0 5dbe d5a0 bbbe ae5f 183f 9b0d d73e
00000260: 56cf 48be cbd8 47bc 277b 8cbe a77d e6be
00000270: 390c 8c3e bf60 83be 67ad 89be 5b79 463f
00000280: cdb7 b83e 6cf8 d3bc 1ac1 943e 9eb8 773e
00000290: 0c5c 1b3f 3696 253f aff8 d63d 3b9a c13e
000002a0: f7f1 233e 650e 66be 33ec 52be 9fba 8fbe
000002b0: 9b72 00bf 87f9 86be 0140 3f3e fa4f 1ebf
000002c0: 9773 dabe 2dfc c73e cd82 e3be a128 0dbf
000002d0: ee55 2abe 035b 23bd 6537 f33d 9b00 e93e
000002e0: e74f dcbe a1a7 1bbe 5842 203f 1707 4fbd
000002f0: 2c50 fd3d 720d 40be ac8b bfbd fb10 1c3e
00000300: 79e6 963e 1333 21be f4da 9cbd eb9f b1bd
00000310: 4af3 cfbd 369e af3e e308 6b3d 2fd8 98be
00000320: 038e 5bbe 2c20 943e e1fb bfbe 114e d93d
00000330: 387c 003c 0676 3cbe fa3b 8f3e d6bb 07be
00000340: dbfa 99be 561c 133e c0c3 643d c01e dabe
00000350: 6caf 6fbc 2614 263e c347 93be 914f 893e

weight f4 [8]
0.9263476 0.89588803 0.84780645 0.7667997 1.047802 1.1856855 1.0147393 1.025233
00000000: 1e25 6d3f eb58 653f d809 593f fc4c 443f
00000010: 601e 863f 8bc4 973f fae2 813f d63a 833f

bias f4 [8]
0.18304282 -0.19095007 0.8447314 0.21738298 -0.1694183 0.048125472 0.49558893 0.06612584
00000000: 946f 3b3e 6a88 43be 5140 583f a599 5e3e
00000010: fe7b 2dbe 371f 453d d5bd fd3e fc6c 873d

running_mean f4 [8]
0.010322837 0.17186488 0.022403698 0.33260515 0.09271504 0.039002582 0.07060449 0.19546872
00000000: 1e21 293c 59fd 2f3e f687 b73c 394b aa3e
00000010: 62e1 bd3d 2cc1 1f3d 1699 903d f428 483e

running_var f4 [8]
3.7329774 1.5543927 2.8083794 2.49052 6.0133657 6.8028374 3.2814183 2.6404934
00000000: 1ae9 6e40 57f6 c63f 7dbc 3340 ae64 1f40
00000010: 7e6d c040 d8b0 d940 c202 5240 d8fd 2840

weight f4 [8, 8, 3, 3]
-0.11741805 -0.18172847 -0.067018814 0.112194344 0.08875171 0.050539456 0.10159696 0.2869227
0.07197764 -0.004894679 -0.025353283 -0.2211576 0.015531048 -0.0007164547 -0.18687642 0.06813378
0.09330318 0.013525785 0.13383034 -0.2466749 -0.043058075 -0.06756327 -0.14574973 0.11045197
-0.22069705 0.047925044 0.20001893 -0.19056374 -0.14175363 -0.05292676 0.0037312992 0.0409101
-0.02236672 -0.07747173 0.05779836 0.020418929 -0.21941571 -0.21998404 -0.14021324 -0.119108796
-0.25529215 -0.119675845 -0.11565868 -0.27574223 -0.2998967 -0.14871022 0.061144568 -0.09581514
-0.29951063 -0.2306713 -0.063188106 -0.19699502 0.049228307 0.25677153 -0.2218056 -0.002446697
-0.114104524 -0.34004658 0.049874928 0.12416483 -0.17735282 0.046274062 0.2601091 0.001159323
0.0019231827 -0.18613853 -0.07031091 0.027944792 -0.06664223 0.14745092 0.1768539 -0.2712332
0.0899552 -0.083076976 0.10562732 -0.11034302 -0.2731819 0.0073895063 0.048927717 -0.14891858
-0.03212957 0.029416852 0.0009433149 -0.009917646 -0.0012068913 0.03983479 0.08327926 -0.009198174
0.11327126 0.20922427 0.10844851 0.13124375 -0.14511444 0.12752165 0.1902636 0.015106249
0.11406857 0.31698814 0.10430646 -0.011502121 -0.07349139 0.15548088 0.12228561 -0.089200824
-0.060141385 -0.05465965 -0.108755484 0.01625406 -0.097474515 -0.13621934 0.0032338053 -0.15594918
-0.07009607 0.009036593 -0.034570724 0.119070485 -0.016362619 -0.044890486 0.036168117 -0.09337126
0.0017955615 -0.020433405 0.1754532 -0.1466631 -0.04905929 -0.044433977 -0.13138708 -0.14121161
-0.17444569 -0.3313222 -0.2939339 -0.06343616 -0.20731516 -0.051618893 -0.030548783 -0.16438699
0.07465273 -0.29570836 -0.23530595 0.082797684 -0.020594575 -0.041139543 0.07763044 0.16466635
-0.10512445 -0.024675779 -0.1232021 -0.07003989 -0.06533904 -0.40047783 0.011251826 -0.02564499
-0.30359128 -0.17609423 0.014497757 0.012492624 -0.052586738 -0.09711818 0.022464182 0.11810908
0.052105103 0.12609562 0.2835253 -0.10102044 -0.13661486 -0.14164634 -0.28506228 0.208405
-0.04040929 0.10920526 0.23334996 -0.038155057 -0.082411684 0.05681655 0.0021205833 0.17477046
0.18782884 -0.08866868 0.05000986 -0.007691388 -0.1478986 -0.20433189 -0.08973207 -0.1429325
-0.12258914 -0.009147512 0.1304563 0.18600535 -0.250947 -0.16936608 0.11206801 -0.093426116
-0.119440705 0.05908205 -0.034314536 -0.3696393 -0.21601048 -0.08260306 -0.09203687 -0.21461788
0.18038681 -0.057009067 -0.14294523 0.31145218 -0.037921723 0.007894548 -0.003132965 0.10928799
-0.092715584 -0.10998376 -0.018954419 0.032787003 -0.038817853 -0.055966325 0.0029782932 0.13730538
0.051793218 -0.10311945 0.09133646 0.10755084 -0.10221263 -0.23579551 0.033613335 0.2301149
0.14689289 0.11470239 -0.17791766 -0.036693797 0.06898044 -0.091126956 -0.13569957 0.16409998
0.11708091 0.022728171 0.11467622 -0.38336205 -0.09103496 0.22129357 -0.27430543 -0.04445331
0.09845146 -0.03664889 0.048254926 0.017093448 0.03149076 -0.031810284 0.34378314 0.13994487
-0.027414864 0.061890054 0.15206592 0.08988483 -0.14680406 -0.11807856 0.031103851 -0.074847996
00000000: e078 f0bd 0717 3abe 2941 89bd 26c6 e53d
00000010: 75c3 b53d 7602 4f3d 1112 d03d 88e7 923e
00000020: 0369 933d 8b63 a0bb b0b1 cfbc 2377 62be
00000030: f075 7e3c 76d0 3bba 885c 3fbe b989 8b3d
00000040: bd15 bf3d 419b 5d3c d20a 093e 5898 7cbe
00000050: aa5d 30bd 9d5e 8abd 6b3f 15be a434 e23d
00000060: 68fe 61be 0d4d 443d c3d1 4c3e 2423 43be
00000070: dd27 11be bbc9 58bd d088 743b 5991 273d
00000080: 693a b7bc 80a9 9ebd f9bd 6c3d 9945 a73c
00000090: 83ae 60be 7f43 61be 0f94 0fbe 50ef f3bd
000000a0: a7b5 82be 9c18 f5bd 75de ecbd 162e 8dbe
000000b0: 0f8c 99be 7e47 18be ba72 7a3d ba3a c4bd
000000c0: 7559 99be 1935 6cbe c468 81bd 10b9 49be
000000d0: 9fa3 493d 8f77 833e 0221 63be c458 20bb
000000e0: a2af e9bd 961a aebe a749 4c3d 214a fe3d
000000f0: fa9b 35be df89 3d3d 052d 853e 6df4 973a
00000100: 4e13 fc3a 199b 3ebe 2bff 8fbd 7aec e43c
00000110: b97b 88bd 60fd 163e 3019 353e 14df 8abe
00000120: 6f3a b83d 4324 aabd 2353 d83d 85fb e1bd
00000130: 7fde 8bbe ac23 f23b 6e68 483d 1d7e 18be
00000140: 4c9a 03bd 9cfb f03c cb48 773a 9f7d 22bc
00000150: 8d30 9eba ce29 233d 518e aa3d f0b3 16bc
00000160: c3fa e73d e33e 563e 411a de3d c364 063e
00000170: e198 14be 0995 023e 76d4 423e 3380 773c
00000180: c89c e93d 454c a23e a09e d53d 6473 3cbc
00000190: a782 96bd 6136 1f3e e170 fa3d ecae b6bd
000001a0: d056 76bd cce2 5fbd 32bb debd 3c27 853c
000001b0: b8a0 c7bd 157d 0bbe 40ee 533b 24b1 1fbe
000001c0: 878e 8fbd 380e 143c 089a 0dbd 3adb f33d
000001d0: e60a 86bc 16df 37bd 0525 143d 6e39 bfbd
000001e0: 0c59 eb3a f563 a7bc 01aa 333e da2e 16be
000001f0: 65f2 48bd 6700 36bd 568a 06be c799 10be
00000200: e4a1 32be 10a3 a9be 817e 96be d1ea 81bd
00000210: 6d4a 54be 556e 53bd 7141 fabc 1055 28be
00000220: 88e3 983d 1667 97be 0bf4 70be d591 a93d
00000230: f4b5 a8bc f081 28bd b5fc 9e3d 4c9e 283e
00000240: 7d4b d7bd dc24 cabc 6251 fcbd 1371 8fbd
00000250: 79d0 85bd 6e0b cdbe 9459 383c 7115 d2bc
00000260: 5170 9bbe 0c52 34be 0088 6d3c ddad 4c3c
00000270: 3165 57bd e5e5 c6bd ce06 b83c 2ce3 f13d
00000280: 296c 553d 361f 013e 3a2a 913e cee3 cebd
00000290: c4e4 0bbe bd0b 11be aff3 91be 1f68 553e
000002a0: 3684 25bd 02a7 df3d 4bf3 6e3e 7a48 1cbd
000002b0: 75c7 a8bd 79b8 683d 7cf9 0a3b 07f7 323e
000002c0: 3456 403e ed97 b5bd 24d7 4c3d 0a08 fcbb
000002d0: bb72 17be 613c 51be 73c5 b7bd e65c 12be
000002e0: 0410 fbbd 72df 15bc 5696 053e 3078 3e3e
000002f0: 207c 80be 4d6e 2dbe ea83 e53d 3156 bfbd
00000300: 549d f4bd 0500 723d 668d 0cbd 5d41 bdbe
00000310: da31 5dbe cb2b a9bd d47d bcbd cac4 5bbe
00000320: 52b7 383e 5782 69bd 3c60 12be a976 9f3e
00000330: cf53 1bbd 2258 013c 6e52 4dbb 62d2 df3d
00000340: abe1 bdbd 2a3f e1bd 4c46 9bbc aa4b 063d
00000350: 78ff 1ebd f23c 65bd 782f 433b c899 0c3e
00000360: 2025 543d 4a30 d3bd 9c0e bb3d 9d43 dc3d
00000370: db54 d1bd 6174 71be 23ae 093d 3ea3 6b3e
00000380: 176b 163e 16e9 ea3d 0c30 36be 3c4c 16bd
00000390: 9e45 8d3d c5a0 babd d4f4 0abe d309 283e
000003a0: 1ec8 ef3d 6e30 ba3c 5edb ea3d 0848 c4be
000003b0: 8970 babd c89a 623e c371 8cbe ad14 36bd
000003c0: eba0 c93d 251d 16bd f5a6 453d 8f07 8c3c
000003d0: 75fc 003d 804b 02bd 5804 b03e b54d 0f3e
000003e0: 2395 e0bc 6d80 7d3d 2bb7 1b3e 8a15 b83d
000003f0: ce53 16be 2cd3 f1bd 81cd fe3c e849 99bd

weight f4 [8]
0.99652123 0.96619314 1.1603372 1.0887637 0.9523945 0.94617325 0.95682335 1.0000933
00000000: 041c 7f3f 6f58 773f ee85 943f 9c5c 8b3f
00000010: 20d0 733f 6938 723f 60f2 743f 0f03 803f

bias f4 [8]
0.11226118 -0.27981892 0.09986213 -0.017839042 -0.21761997 -0.02840245 -0.00845654 0.0239446
00000000: 31e9 e53d 6d44 8fbe 8484 cc3d 2f23 92bc
00000010: c5d7 5ebe 41ac e8bc 4d8d 0abc 7727 c43c

running_mean f4 [8]
-1.3097299 -0.39595017 -0.80083996 -0.30956435 1.3967808 -1.3481661 -0.82986236 -0.39598364
00000000: 3ba5 a7bf fbb9 cabe d903 4dbf 387f 9ebe
00000010: b7c9 b23f b590 acbf dc71 54bf 5ebe cabe

running_var f4 [8]
2.0060043 0.76169586 1.6626235 1.2034103 1.5470742 1.106898 1.2097731 1.2384704
00000000: 6062 0040 80fe 423f d9d0 d43f 5909 9a3f
00000010: 8706 c63f d5ae 8d3f d8d9 9a3f 3386 9e3f

weight f4 [8, 8, 3, 3]
0.17073229 0.111250415 0.03173763 -0.12448952 -0.1890483 -0.061768394 -0.17431417 -0.18072939
-0.08202749 0.06627183 0.10522311 0.18055516 0.045119714 -0.044259977 -0.088271655 -0.11236205
-0.13619918 -0.14480619 0.029412178 0.17588554 0.3024853 0.06847276 0.10026842 0.09199557
-0.25738424 -0.21949938 -0.22100937 0.26802775 0.13213757 -0.052582618 -0.025358312 -0.019871028
-0.032373212 -0.06179082 -0.17263976 -0.1638587 0.05026486 -0.1654023 -0.07505546 0.043776955
-0.070180416 0.15920581 -0.16143328 0.02765151 -0.013177199 -0.16943625 -0.08791494 -0.06816577
0.18847021 0.04889316 0.14774032 0.28065896 0.081798546 0.23807673 -0.08024626 -0.07710789
-0.066976264 -0.14007291 -0.114006355 -0.06266488 -0.0033529135 0.15636745 0.29590502 -0.086612225
-0.19956425 -0.18823028 0.2487313 0.16462705 0.14057797 -0.0480534 -0.11332883 -0.07637743
-0.029265052 0.09768041 0.0696868 0.13027588 0.2289307 0.16441196 -0.07797502 0.12855065
0.12142125 0.09647597 -0.2107299 -0.20756783 0.013481768 -0.06967185 -0.13724513 0.13378079
-0.14428882 -0.034401704 0.05102762 -0.13736475 -0.12284589 -0.049837157 -0.076408245 -0.10224845
-0.12483921 0.010537702 -0.09539216 0.04460634 0.042832065 -0.2218624 -0.01361478 0.20032586
-0.040257636 -0.09069116 0.032779444 -0.024719544 0.019966789 -0.085366055 0.03280113 -0.20571227
-0.17534949 -0.19500133 -0.10147238 -0.16772546 -0.17832902 0.029462341 0.024118705 0.27148402
0.17133932 -0.200482 0.09537775 0.06052955 -0.19543181 -0.20232318 -0.012498904 -0.19804743
0.043180674 0.027979873 -0.1300476 -0.10710831 -0.0016306482 0.21705136 -0.092438236 0.024348136
-0.21237499 0.027155558 -0.0578355 0.1293975 0.19253883 0.032732375 0.04569038 0.28008687
-0.042929925 -0.055793058 -0.10314477 0.054581407 -0.09093186 0.050418925 -0.007929128 -0.008317567
0.18882252 0.072882995 0.21468617 0.19223759 0.047745187 -0.073341705 -0.1976349 -0.15956879
-0.2753747 -0.317357 0.05163961 0.06747868 0.022844916 0.09598099 -0.31682453 -0.10640639
-0.069157146 -0.17817387 0.03283255 -0.01686468 0.0944003 0.019249748 -0.18047027 -0.10901241
0.12182362 -0.032327864 -0.123316534 0.07819744 -0.15379211 -0.27801615 -0.22837557 0.058863007
-0.079149015 0.11308046 -0.07097877 0.1120928 0.05968578 -0.038777977 0.015820233 0.056159638
-0.1686899 0.05649432 -0.03865359 -0.014305302 -0.018810738 0.0027572075 -0.054827526 -0.037869688
-0.07284627 0.14826997 0.079269476 0.21514146 0.11423276 0.044622093 0.13328005 -0.19100697
-0.17861089 -0.08245627 -0.0169221 -0.26876986 -0.12976837 0.08911531 -0.008351792 0.11025531
0.2290838 0.20505022 -0.080445014 0.17476939 0.20373322 -0.095458016 0.06587101 -0.03029578
-0.14164758 0.06776959 -0.034105062 -0.15156949 -0.07872418 0.018131102 0.08998644 -0.006355308
-0.024720958 0.13574916 -0.034387928 0.19541244 0.038421165 0.13568535 0.27993876 -0.0364694
-0.047505565 -0.14032121 -0.4363098 0.10662663 0.1330327 -0.09222045 0.051323023 0.22864856
0.15314503 -0.25327283 -0.28061184 -0.087991334 -0.008014355 -0.07984699 0.06757997 -0.11565487
00000000: 72d4 2e3e 42d7 e33d 51ff 013d 5df4 febd
00000010: e195 41be db00 7dbd 6a7f 32be 2011 39be
00000020: 07fe a7bd 86b9 873d 377f d73d 74e3 383e
00000030: 73cf 383d f349 35bd c5c7 b4bd 131e e6bd
00000040: cc77 0bbe 1348 14be cff1 f03c 571b 343e
00000050: 5adf 9a3e 723b 8c3d 8859 cd3d 2c68 bc3d
00000060: dec7 83be 72c4 60be 4850 62be ef3a 893e
00000070: 124f 073e df60 57bd 3cbc cfbc 91c8 a2bc
00000080: c699 04bd 5f18 7dbd 7ac8 30be 93ca 27be
00000090: 87e2 4d3d 385f 29be adb6 99bd 774f 333d
000000a0: c0ba 8fbd d906 233e c44e 25be 6b85 e23c
000000b0: 2ee5 57bc b280 2dbe c00c b4bd 7f9a 8bbd
000000c0: 56fe 403e 3244 483d 3d49 173e 88b2 8f3e
000000d0: ff85 a73d 63ca 733e 2758 a4bd beea 9dbd
000000e0: da2a 89bd 466f 0fbe 2a7c e9bd 7256 80bd
000000f0: 8ebc 5bbb ca1e 203e dd80 973e c061 b1bd
00000100: 925a 4cbe 70bf 40be 6bb3 7e3e fe93 283e
00000110: acf3 0f3e a4d3 44bd f218 e8bd c56b 9cbd
00000120: 43bd efbc ab0c c83d f4b7 8e3d 0a67 053e
00000130: cf6c 6a3e 9c5b 283e 5eb1 9fbd c8a2 033e
00000140: b4ab f83d 3195 c53d 94c9 57be a98c 54be
00000150: a2e2 5c3c 1db0 8ebd fd89 0cbe d5fd 083e
00000160: 73c0 13be cde8 0cbd 5602 513d 58a9 0cbe
00000170: a096 fbbd 0c22 4cbd ed7b 9cbd a367 d1bd
00000180: b3ab ffbd 53a6 2c3c f75c c3bd 23b5 363d
00000190: ad70 2f3d e62f 63be 8710 5fbc 3922 4d3e
000001a0: 31e5 24bd 49bc b9bd bd43 063d a480 cabc
000001b0: 6491 a33c 66d4 aebd 7a5a 063d 3da6 52be
000001c0: d18e 33be 6eae 47be c0d0 cfbd 39c0 2bbe
000001d0: e29b 36be 025b f13c 9794 c53c f4ff 8a3e
000001e0: 9373 2f3e 274b 4dbe 6955 c33d d5ed 773d
000001f0: 471f 48be cf2d 4fbe 34c8 4cbc f2cc 4abe
00000200: 38de 303d 0c36 e53c 332b 05be 9a5b dbbd
00000210: 79bb d5ba b642 5e3e 4250 bdbd be75 c73c
00000220: d478 59be 5575 de3c ebe4 6cbd c780 043e
00000230: e628 453e 6212 063d d625 3b3d 8c67 8f3e
00000240: 4ad7 2fbd 4387 64bd 913d d3bd c190 5f3d
00000250: 7c3a babd 1384 4e3d 2ce9 01bc 6846 08bc
00000260: b15a 413e ae43 953d b1d6 5b3e eed9 443e
00000270: 7590 433d 2d34 96bd ce60 4abe 0066 23be
00000280: eafd 8cbe 9e7c a2be 0e84 533d 4332 8a3d
00000290: 4325 bb3c ae91 c43d d336 a2be 98eb d9bd
000002a0: 43a2 8dbd 3673 36be 6d7b 063d cc27 8abc
000002b0: f254 c13d a6b1 9d3c 33cd 38be e641 dfbd
000002c0: a97e f93d 396a 04bd 618d fcbd fb25 a03d
000002d0: ae7b 1dbe 2258 8ebe 49db 69be 561a 713d
000002e0: e118 a2bd ba96 e73d 515d 91bd e990 e53d
000002f0: 1479 743d a8d5 1ebd 6f99 813c a607 663d
00000300: 0cbd 2cbe 9766 673d 3a53 1ebd c960 6abc
00000310: fa18 9abc 44b2 343b d492 60bd 3f1d 1bbd
00000320: 6d30 95bd 15d4 173e 0958 a23d 0b4e 5c3e
00000330: def2 e93d a8c5 363d 917a 083e 5597 43be
00000340: c6e5 36be d5de a8bd 37a0 8abc 349c 89be
00000350: 00e2 04be 1682 b63d f4d5 08bc 89cd e13d
00000360: f294 6a3e aff8 513e 5bc0 a4bd bff6 323e
00000370: 719f 503e 7e7f c3bd 61e7 863d db2e f8bc
00000380: 100c 11be c8ca 8a3d c0b1 0bbd 0835 1bbe
00000390: 253a a1bd ad87 943c d04a b83d 3040 d0bb
000003a0: 9b83 cabc d401 0b3e 5bda 0cbd 331a 483e
000003b0: 835f 1d3d 1af1 0a3e 2254 8f3e f060 15bd
000003c0: 3295 42bd 5db0 0fbe 0064 dfbe 105f da3d
000003d0: b939 083e 13de bcbd 1738 523d d922 6a3e
000003e0: 0dd2 1c3e faac 81be 5bac 8fbe cd34 b4bd
000003f0: a44e 03bc d286 a3bd 5e67 8a3d 76dc ecbd

weight f4 [8]
1.1327002 1.0013894 0.81506205 0.94572604 0.94674987 0.8905716 1.0244225 1.3589646
00000000: 52fc 903f 872d 803f e8a7 503f 1a1b 723f
00000010: 335e 723f 80fc 633f 4720 833f 8df2 ad3f

bias f4 [8]
-0.14560013 -0.12608698 0.17322883 0.19428918 0.014851637 0.07616104 -0.13016126 0.29675403
00000000: 3318 15be f21c 01be e662 313e bef3 463e
00000010: 4854 733c 52fa 9b3d fe48 05be 25f0 973e

running_mean f4 [8]
-0.15601191 -0.28896442 -0.53386843 -0.112936445 -0.45289227 -0.53709364 -0.44998568 -0.6414389
00000000: 96c1 1fbe 25f3 93be 9aab 08bf 394b e7bd
00000010: 7fe1 e7be f87e 09bf 8664 e6be 5735 24bf

running_var f4 [8]
0.6437378 0.45772395 0.59929067 0.69715744 0.40956482 0.4011494 0.7237231 0.7127441
00000000: 00cc 243f cb5a ea3e 1d6b 193f e978 323f
00000010: 7bb2 d13e 7463 cd3e eb45 393f 6676 363f

weight f4 [8, 8, 3, 3]
0.16738369 0.16664952 0.027167376 0.09422916 0.06421575 -0.062777035 0.094451815 0.060035773
-0.07787218 -0.09508931 0.007758384 -0.04569469 0.00056378974 -0.075837195 0.062226836 -0.195984
0.020550638 0.23042746 -0.10785832 -0.009530513 0.23919739 -0.21979323 0.24107203 0.08646151
0.15300955 0.25478813 0.1122399 -0.0033234234 0.20055084 0.07062037 0.12679629 0.21206534
0.07046881 -0.0018830164 0.1508883 -0.07680342 0.12430633 0.09094429 0.013090932 -0.07670379
-0.05086386 0.060721267 -0.14469492 -0.11587851 -0.04232108 -0.010489192 0.09839063 0.123820774
0.008510197 0.09209018 -0.050938766 -0.15631412 0.06432384 -0.14009015 0.06460386 0.21336292
0.013035273 0.0345884 0.18312787 -0.010222621 -0.03159301 -0.032581717 -0.15168805 -0.06929058
-0.12726165 -0.042088054 -0.033400625 0.16395731 0.17439137 0.07556357 0.14760154 0.07275886
0.10349536 0.058282495 -0.101167046 -0.1522129 0.00041197657 0.07403752 0.075389005 0.05471501
0.04919134 0.003150718 0.11320249 0.04190879 -0.17453352 0.092538275 0.070815995 -0.16103785
0.11914111 0.120059624 0.16069837 0.21224996 -0.061225902 -0.059225716 -0.11689316 -0.057697847
-0.16477285 -0.17303434 0.011668842 -0.15837282 -0.14267029 -0.06331013 -0.05633082 -0.06254282
0.012455095 -0.107291475 -0.14772788 0.05140479 -0.014160746 0.1439472 0.19976771 -0.15128233
0.043041207 0.02811844 -0.17727342 -0.0043121553 0.17727876 0.00034425047 0.00010655926 -0.1589664
0.117541134 0.11588983 -0.15121865 0.15147822 -0.024174003 -0.144394 -0.06818758 -0.18713504
-0.07984612 0.060747307 0.064287536 0.101573125 0.086739294 0.073476225 -0.123729594 0.050052665
-0.2000224 -0.289186 0.19611399 -0.06716614 -0.15503037 0.26398635 0.16344681 -0.174346
0.005530643 -0.020819368 -0.089260384 0.20032987 0.38132712 0.13478054 -0.08582394 0.020748042
0.062517345 -0.1016642 0.086948924 -0.17867738 0.047772814 -0.02112044 0.009028758 -0.1094056
0.038092237 -0.1652067 -0.1825408 -0.2802699 -0.24577764 0.14953516 0.005891641 0.01882603
0.08694506 0.061514847 0.06734147 0.17273888 0.05255283 -0.14115582 -0.046018705 0.08160601
0.19155972 -0.112134464 -0.08533868 -0.07719114 -0.061138548 -0.07160636 -0.06415472 0.12810747
0.25877512 0.11958953 -0.015868632 0.15499192 0.10434777 0.0329701 -0.008060635 0.084229246
0.110887274 0.014103353 -0.003989027 -0.12929793 -0.15842299 -0.2569738 0.11894082 -0.073596776
-0.18150842 0.092588425 0.099853985 0.15841797 0.07190364 -0.176091 0.04211804 0.077085085
0.11988181 0.25288275 0.012114788 -0.080855325 -0.0583204 -0.080923304 -0.023304576 -0.05384292
-0.091534615 0.109067485 0.032445073 0.093411446 0.17520799 -0.1928704 -0.16305813 0.16461319
0.0043672486 0.008191966 -0.036923103 -0.15463462 0.20793441 0.15530786 -0.37552255 0.1386912
0.19688192 -0.23485976 0.046599228 -0.1633163 0.12728606 0.25617304 -0.3472511 0.071077034
0.0490538 -0.27318498 0.042842384 0.09526601 -0.14084536 -0.17219384 -0.1281275 0.1480325
-0.03208365 -0.28827322 0.16560586 0.07593542 -0.22416161 -0.1304785 0.045295212 0.09587192
00000000: a166 2b3e 2ca6 2a3e 1e8e de3c 38fb c03d
00000010: 8c83 833d 3f91 80bd f46f c13d 12e8 753d
00000020: 737b 9fbd 2fbe c2bd 0b3a fe3b 5b2a 3bbd
00000030: 4acb 133a 8850 9bbd 91e1 7e3d 08b0 48be
00000040: d059 a83c 2df5 6b3e d3e4 dcbd de25 1cbc
00000050: 29f0 743e 7a11 61be 96db 763e bb12 b13d
00000060: 89ae 1c3e 9773 823e 08de e53d cbcd 59bb
00000070: 335d 4d3e 6aa1 903d e3d6 013e a827 593e
00000080: f451 903d 8ccf f6ba 7682 1a3e 1d4b 9dbd
00000090: 5194 fe3d 0041 ba3d 597b 563c e016 9dbd
000000a0: 9f56 50bd ddb6 783d e82a 14be b651 edbd
000000b0: de58 2dbd dcda 2bbc 0781 c93d bf95 fd3d
000000c0: 5a6e 0b3c c799 bc3d 2ba5 50bd cf10 20be
000000d0: 38bc 833d cb73 0fbe 074f 843d cf7b 5a3e
000000e0: e691 553c 91ac 0d3d df85 3b3e c87c 27bc
000000f0: ac67 01bd 6874 05bd 1d54 1bbe 38e8 8dbd
00000100: e150 02be 8664 2cbd 18cf 08bd 6de4 273e
00000110: a793 323e 13c1 9a3d dc24 173e 9902 953d
00000120: 60f5 d33d a0b9 6e3d ab30 cfbd b3dd 1bbe
00000130: 8ffe d739 fca0 973d 8d65 9a3d d91c 603d
00000140: dc7c 493d 477c 4e3b b5d6 e73d 8da8 2b3d
00000150: eab8 32be b584 bd3d fa07 913d 1be7 24be
00000160: 4100 f43d d2e1 f53d 1d8e 243e 0e58 593e
00000170: 03c8 7abd aa96 72bd ae65 efbd 9454 6cbd
00000180: 37ba 28be ea2f 31be ac2e 3f3c 7c2c 22be
00000190: 2918 12be bea8 81bd 25bb 66bd 7316 80bd
000001a0: 7410 4c3c a2bb dbbd fa45 17be d48d 523d
000001b0: 7902 68bc e566 133e e88f 4c3e c1e9 1abe
000001c0: fa4b 303d a558 e63c 2a87 35be fb4c 8dbb
000001d0: 9088 353e 847c b439 9178 df38 17c8 22be
000001e0: 68b9 f03d a657 ed3d 10d9 1abe 1b1d 1b3e
000001f0: 8f08 c6bc 05dc 13be eea5 8bbd 54a0 3fbe
00000200: 5d86 a3bd 2bd2 783d 2fa9 833d 9205 d03d
00000210: 5fa4 b13d b47a 963d f165 fdbd 0604 4d3d
00000220: acd2 4cbe 3010 94be 1bd2 483e 678e 89bd
00000230: 48c0 1ebe 3829 873e 9a5e 273e c287 32be
00000240: 653a b53b 618d aabc 26ce b6bd 4623 4d3e
00000250: 4f3d c33e e903 0a3e 76c4 afbd ccf7 a93c
00000260: 1809 803d 5235 d0bd 4712 b23d 34f7 36be
00000270: 6dad 433d c604 adbc 5bed 133c 0b10 e0bd
00000280: 9b06 1c3d f22b 29be faeb 3abe 897f 8fbe
00000290: 22ad 7bbe bf1f 193e ab0e c13b 0c39 9a3c
000002a0: 4010 b23d fef6 7b3d 53ea 893d 76e2 303e
000002b0: a341 573d 278b 10be 1c7e 3cbd 0d21 a73d
000002c0: 3b28 443e c1a6 e5bd 0cc6 aebd 6316 9ebd
000002d0: 6a6c 7abd 5ba6 92bd 8d63 83bd 9b2e 033e
000002e0: 2c7e 843e 5beb f43d effe 81bc 34b6 1e3e
000002f0: 49b4 d53d a80b 073d c110 04bc 6280 ac3d
00000300: de18 e33d c011 673c 62b6 82bb ad66 04be
00000310: a339 22be 1292 83be 3f97 f33d e8b9 96bd
00000320: 58dd 39be 009f bd3d 3f80 cc3d 5238 223e
00000330: 3742 933d 3351 34be f783 2c3d c9de 9d3d
00000340: 9884 f53d d979 813e 1b7d 463c 7a97 a5bd
00000350: 5fe1 6ebd 1ebb a5bd 3de9 bebc 658a 5cbd
00000360: 8076 bbbd c65e df3d 20e5 043d 804e bf3d
00000370: b969 333e d17f 45be b6f8 26be 5c90 283e
00000380: 231b 8f3b 9937 063c ae3c 17bd 8a58 1ebe
00000390: c2ec 543e 0609 1f3e 7e44 c0be 1105 0e3e
000003a0: 6a9b 493e 147f 70be d5de 3e3d 633c 27be
000003b0: 4757 023e 1d29 833e e5ca b1be d690 913d
000003c0: a3ec 483d e7de 8bbe 7f7b 2f3d d31a c33d
000003d0: c439 10be 9553 30be db33 03be d595 173e
000003e0: 256a 03bd 8c98 93be 9594 293e 0884 9b3d
000003f0: 9f8a 65be 289c 05be 7987 393d 7f58 c43d

weight f4 [8]
1.0151713 0.99047 1.0275947 1.3117137 0.8940389 0.87412715 0.8952614 0.9523864
00000000: 22f1 813f 718f 7d3f 3988 833f 3ce6 a73f
00000010: bcdf 643f ccc6 5f3f da2f 653f 98cf 733f

bias f4 [8]
-0.062178332 -0.16364081 -0.114469856 -0.19634522 -0.11205233 -0.13873525 0.025760595 0.05731382
00000000: b5ae 7ebd 7591 27be 2c6f eabd b90e 49be
00000010: b17b e5bd 9d10 0ebe e207 d33c e5c1 6a3d

running_mean f4 [8]
2.2085695 -0.7948784 0.18007967 -0.7549618 -1.1698222 1.3119808 -0.1602047 0.08596327
00000000: 3459 0d40 277d 4bbf ce66 383e 2d45 41bf
00000010: bcbc 95bf fdee a73f b30c 24be 830d b03d

running_var f4 [8]
2.1449063 1.6013399 2.089798 4.666727 1.0922847 1.4591922 0.70208025 2.3831182
00000000: 2546 0940 b5f8 cc3f 40bf 0540 d455 9540
00000010: fccf 8b3f cfc6 ba3f 88bb 333f 0285 1840

weight f4 [8, 8, 3, 3]
0.15671544 0.24914683 0.23494852 0.07572142 0.1739962 0.16460685 0.068599895 -0.051679973
0.11534929 0.009963269 -0.07016196 -0.016752731 0.002974931 -0.16382596 -0.083378896 -0.06995256
-0.034236 0.0024836853 0.021880902 0.08632075 0.16914839 0.13927984 0.009676588 0.0036887466
0.15349206 0.038450122 0.043915644 -0.034265574 -0.21832268 -0.23213206 -0.14935887 -0.029415462
0.048429538 -0.029057346 -0.06617788 -0.013819452 0.13617848 0.11040778 0.048535034 0.047430955
0.02193364 0.12695602 -0.06889687 -0.19062737 -0.01858192 0.13241379 -0.053905517 -0.045822866
0.09670888 0.039009456 -0.07190047 -0.023134748 -0.08362627 -0.01462348 0.0139123965 -0.0048850584
0.13885808 -0.10905322 -0.0027479376 -0.04491248 -0.0064433906 0.0015662526 -0.02257559 -0.05495005
0.13382176 0.10228609 -0.034868248 -0.06003881 0.08513218 0.033761103 -0.0012446168 -0.023026664
-0.093685694 -0.07434325 0.012584542 0.013957172 -0.155724 0.024315473 -0.00012407609 0.00026600476
-0.16335465 -0.05083816 0.007600285 0.11498689 0.016017891 0.12715288 0.20450653 -0.018002812
-0.08912937 0.17737143 0.028220404 0.02324704 0.059192944 0.095065616 -0.08028966 0.004330458
0.1467339 0.045973703 0.19205298 0.08886288 -0.10315406 0.080679044 0.15687001 0.1548143
0.009516974 0.07380648 0.17571928 0.189164 0.07811871 0.0040725763 0.048699897 -0.10190509
0.00040922823 0.08977882 -0.06400692 -0.055089127 0.08460006 0.031913973 0.054675505 0.14977029
0.09540332 0.11242967 0.1951507 -0.1051137 0.15163767 0.2042311 0.06752085 0.05032604
0.17049351 0.0850733 0.11630698 0.10978594 -0.12944525 -0.07013995 0.16932979 -0.093648046
0.016914286 -0.02352073 -0.13300799 -0.11020535 -0.11126001 -0.116339624 -0.082117915 -0.08607774
0.0684738 -0.088705264 -0.1957195 0.00426511 0.13488635 0.04589415 0.025113648 0.046248548
0.12665306 0.047927793 0.04515011 0.01839439 0.054077722 -0.03846851 -0.11491306 0.082269095
0.25157547 0.075611725 -0.18627842 0.021629851 -0.0538426 0.046599645 0.1122882 -0.0051317336
0.17270865 0.0033209985 -0.12052067 -0.026473174 0.1518568 -0.017131267 0.12896422 0.20497239
0.15097131 0.004734109 0.12569718 0.051556118 0.070354566 -0.051052775 -0.102046154 0.09577408
-0.13800628 -0.21771047 0.1819879 -0.04056778 -0.14878254 -0.18978804 -0.11673867 -0.22789039
-0.07910233 -0.20468318 -0.11260655 -0.1395773 -0.11926476 -0.13449787 -0.07796357 0.06753743
0.00562489 0.08249659 0.18189268 0.06055354 0.045069814 0.009820955 0.029685302 -0.26654983
-0.024253841 -0.04350892 -0.21683674 -0.10500324 0.0077652875 -0.20539127 -0.014404904 -0.12474832
0.07726355 -0.06427995 -0.10376751 0.025068033 -0.015719432 -0.047408246 0.08943785 -0.019457255
0.0036647732 0.025399141 0.118435554 0.1505091 -0.03237694 0.12941512 -0.006408455 0.16924885
0.065060444 0.16050594 -0.15234794 -0.09670332 -0.19932747 -0.1108416 0.0956458 -0.01629168
-0.14675564 -0.10701004 0.16965994 0.09368343 0.22671293 0.19089611 0.14460668 0.3907586
0.30542526 0.23127408 0.32519308 0.22077581 0.084485516 -0.0036793412 -0.088306844 -0.018406896
00000000: 037a 203e 5920 7f3e 5896 703e d513 9b3d
00000010: 0f2c 323e b38e 283e 1a7e 8c3d 61ae 53bd
00000020: 403c ec3d fb3c 233c 13b1 8fbd 063d 89bc
00000030: 0ff7 423b fec1 27be 8ec2 aabd 4a43 8fbd
00000040: 0c3b 0cbd 53c5 223b 943f b33c efc8 b03d
00000050: 3c35 2d3e 609f 0e3e 8d8a 1e3c e6be 713b
00000060: 062d 1d3e e07d 1d3d e4e0 333d 0f5a 0cbd
00000070: fb8f 5fbe 07b4 6dbe 88f1 18be b2f8 f0bc
00000080: 0d5e 463d ac09 eebc 4588 87bd fc6a 62bc
00000090: 5f72 0b3e 791d e23d accc 463d f646 423d
000000a0: 2dae b33c c200 023e cd19 8dbd d233 43be
000000b0: 1c39 98bc 7b97 073e 08cc 5cbd c2b0 3bbd
000000c0: 4e0f c63d 61c8 1f3d 8e40 93bd 1585 bdbc
000000d0: 4044 abbd 5297 6fbc d2f0 633c d712 a0bb
000000e0: d030 0e3e 4b57 dfbd be16 34bb 26f6 37bd
000000f0: 1423 d3bb b74a cd3a 72f0 b8bc 4e13 61bd
00000100: 9208 093e 5f7b d13d 02d2 0ebd 41eb 75bd
00000110: c859 ae3d 1549 0a3d 6922 a3ba 6aa2 bcbc
00000120: 49de bfbd 4641 98bd 652f 4e3c 9fac 643c
00000130: 1d76 1fbe 3e31 c73c 6c1a 02b9 8e76 8b39
00000140: 7146 27be ad3b 50bd d00b f93b 3f7e eb3d
00000150: f437 833c 5d34 023e 296a 513e a27a 93bc
00000160: 7689 b6bd dba0 353e 7a2e e73c 9470 be3c
00000170: 4d74 723d c3b1 c23d e86e a4bd 84e6 8d3b
00000180: 6941 163e ec4e 3c3d 89a9 443e befd b53d
00000190: 7042 d3bd 0e3b a53d 88a2 203e a487 1e3e
000001a0: 15ed 1b3c da27 973d c1ef 333e 35b4 413e
000001b0: b4fc 9f3d 3f73 853b 8b79 473d 9eb3 d0bd
000001c0: af8d d639 f5dd b73d 0f16 83bd 23a5 61bd
000001d0: cc42 ad3d 3ab8 023d 6cf3 5f3d 625d 193e
000001e0: d162 c33d 8741 e63d 96d5 473e da45 d7bd
000001f0: e846 1b3e f521 513e 5f48 8a3d ad22 4e3d
00000200: da95 2e3e e93a ae3d 5b32 ee3d 73d7 e03d
00000210: 4c8d 04be 89a5 8fbd ca64 2d3e 8cca bfbd
00000220: d48f 8a3c 8cae c0bc 3f33 08be 58b3 e1bd
00000230: 4adc e3bd 7843 eebd 702d a8bd 8749 b0bd
00000240: fe3b 8c3d 1bab b5bd b16a 48be 56c2 8b3b
00000250: a61f 0a3e 81fb 3b3d 23bb cd3c 1e6f 3d3d
00000260: 57b1 013e ef4f 443d 52ef 383d d5af 963c
00000270: 9a80 5d3d 2891 1dbd 8a57 ebbd b37c a83d
00000280: 80ce 803e 52da 9a3d c5bf 3ebe 1631 b13c
00000290: 0f8a 5cbd 45df 3e3d 5bf7 e53d 1a28 a8bb
000002a0: 89da 303e 1ca5 593b 8bd3 f6bd 45de d8bc
000002b0: 5980 1b3e df56 8cbc 320f 043e 48e4 513e
000002c0: 3998 1a3e 9620 9b3b c3b6 003e 822c 533d
000002d0: 0e16 903d b71c 51bd 93fd d0bd 3325 c43d
000002e0: 8551 0dbe 7eef 5ebe 095b 3a3e 672a 26bd
000002f0: 735a 18be cc57 42be af14 efbd 195c 69be
00000300: 6700 a2bd 7898 51be 439e e6bd 5aed 0ebe
00000310: 1541 f4bd cfb9 09be 5dab 9fbd 1051 8a3d
00000320: ff50 b83b f9f3 a83d 1342 3a3e fd06 783d
00000330: 209b 383d 12e8 203c 972e f33c 3879 88be
00000340: feaf c6bc 6936 32bd 730a 5ebe f00b d7bd
00000350: f473 fe3b 1752 52be 8c02 6cbc 0c7c ffbd
00000360: 5a3c 9e3d 35a5 83bd 0f84 d4bd 7a5b cd3c
00000370: 0ac6 80bc 262f 42bd 312b b73d d264 9fbc
00000380: b12c 703b dc11 d03c 578e f23d 0f1f 1a3e
00000390: af9d 04bd 6685 043e 04fe d1bb 924f 2d3e
000003a0: 693e 853d ab5b 243e 1901 1cbe 640c c6bd
000003b0: 801c 4cbe ec00 e3bd f2e1 c33d 2176 85bc
000003c0: 1c47 16be 1428 dbbd 56bb 2d3e 19dd bf3d
000003d0: 6f27 683e 457a 433e c613 143e 8311 c83e
000003e0: b360 9c3e 1dd3 6c3e b57f a63e 0e13 623e
000003f0: be06 ad3d 1a21 71bb 38da b4bd 0fca 96bc

weight f4 [8]
0.783574 0.98255956 0.972204 1.1209023 1.0530281 0.9940578 0.7378239 1.0006801
00000000: 4e98 483f 0689 7b3f 5de2 783f ba79 8f3f
00000010: a0c9 863f 927a 7e3f 07e2 3c3f 4916 803f

bias f4 [8]
0.15630282 0.08467893 0.044071868 0.35673282 -0.08535334 -0.019338895 0.13111012 0.08375546
00000000: d90d 203e 266c ad3d b484 343d afa5 b63e
00000010: bbcd aebd 9a6c 9ebc bb41 063e fc87 ab3d

running_mean f4 [8]
0.35159704 0.58362275 -0.23797983 0.4287399 -1.0068336 0.9565054 0.09189884 -0.51153713
00000000: 8704 b43e 4d68 153f fcb0 73be cc83 db3e
00000010: ecdf 80bf 8add 743f 7635 bc3d 19f4 02bf

running_var f4 [8]
0.5684639 0.51260996 0.5596873 1.1318246 0.9781594 0.85636574 0.78570825 0.6524729
00000000: da86 113f 683a 033f ab47 0f3f a1df 903f
00000010: a868 7a3f c93a 5b3f 2d24 493f 7708 273f

weight f4 [16, 8, 3, 3]
-0.08051143 0.11522779 -0.11239468 -0.04982243 0.02577847 -0.08474985 0.019478915 -0.05616288
0.181993 -0.012465323 0.105017245 -0.03941126 -0.017505972 -0.1685588 0.003975365 0.03760525
-0.05596016 -0.07639084 -0.18602099 0.02839207 0.11942208 -0.07660538 -0.06432046 -0.023011547
-0.14344287 -0.025708769 -0.21296108 0.07459339 0.277552 0.099194326 -0.080076516 -0.13152294
-0.09376013 -0.17189762 0.059014454 -0.10136242 -0.00018304205 -0.08950108 -0.12898634 -0.044670243
-0.0039906525 -0.055059597 -0.059653647 -0.06370416 -0.03285783 -0.06044096 0.0037516956 -0.1374274
0.012936267 0.042244457 -0.029416556 0.03340402 0.1804387 0.16719304 0.02466685 0.01508827
0.13274786 -0.02435649 0.009513873 0.13520575 -0.14161971 -0.064574726 -0.101814516 -0.16299295
-0.14784439 -0.1282343 0.12865411 -0.085883565 -0.10203775 0.07852289 0.15841681 0.20929575
0.053375557 0.06920352 -0.016361611 -0.02788733 -0.10488579 -0.052788515 -0.011004268 0.0945025
0.11978183 -0.039402355 0.07199731 0.10534242 0.06844415 0.009363458 0.103898145 -0.03672996
-0.050463416 -0.018586 0.17645478 0.12794712 0.19885667 -0.18436219 -0.0715853 -0.10214522
-0.06522266 -0.08797609 0.13127616 -0.0061452924 -0.1056998 -0.11735239 0.17120227 -0.052296434
-0.17299716 0.03570271 0.09956163 0.16061547 0.008073399 0.14093985 0.112254016 0.15630998
0.122780114 0.09424048 -0.055921018 -0.052945554 -0.042960156 0.11506447 0.16957684 -0.0019154096
0.07941087 0.061001405 0.13853922 -0.021029351 0.034866855 0.17909385 -0.20710352 0.04270993
0.006799578 -0.1911849 -0.14570902 -0.04148283 0.045647044 -0.094548315 0.039493244 0.03332199
-0.029255938 0.113065034 -0.053138133 0.21459165 0.22122973 0.092631444 0.006645408 -0.020217806
-0.17243162 -0.10376423 -0.018545633 -0.10960908 -0.043010246 0.07394215 0.04324314 -0.031906888
-0.06758835 0.13626932 -0.034587204 0.0056640226 0.0072732987 0.08949454 0.018630411 0.10581252
0.030271176 -0.061754145 0.0765143 0.06773642 -0.16244698 0.14680943 0.15884095 -0.034121867
-0.07872593 0.015569258 0.20900442 0.056615565 0.050681453 -0.0047846525 -0.1337309 0.12892638
0.119186886 -0.044001196 0.06361415 -0.046238434 0.07603694 0.076994896 0.13107255 -0.06595061
-0.049276035 0.07276135 0.011421084 0.13193698 0.026966408 -0.070182554 -0.09450977 0.06697348
-0.11446924 -0.045706555 -0.070323214 -0.014458607 -0.05971167 -0.040415604 0.03816 0.1098299
-0.07426933 0.16107611 0.18762155 -0.028842574 -0.059244912 0.22297789 0.3211583 0.012763895
-0.06616018 0.08361715 -0.010683136 0.1548423 0.10373447 0.04626091 0.18643178 0.26037517
0.058068782 0.007034428 -0.05109525 0.039247423 -0.12795979 -0.15929022 -0.07260163 -0.22632284
0.034021854 0.14139766 -0.024472104 -0.029713174 -0.0024051052 0.0072602066 -0.107710175 0.04620275
-0.034774672 -0.067022674 -0.04673136 -0.11003631 -0.073631756 -0.012346964 -0.055525523 0.058847077
-0.067103036 -0.16303767 -0.05528479 0.14711902 0.058338925 0.111872815 -0.11833464 -0.076247856
0.10668719 0.13819407 -0.090049274 0.06474479 -0.015056739 0.031154806 -0.0922691 -0.089035586
00000000: 2de3 a4bd 8cfc eb3d 2f2f e6bd 9b12 4cbd
00000010: 5f2d d33c 5491 adbd 3f92 9f3c 0c0b 66bd
00000020: 5f5c 3a3e 5b3b 4cbc 4813 d73d b46d 21bd
00000030: af68 8fbc ae9a 2cbe c743 823b f607 1a3d
00000040: 7b36 65bd cd72 9cbd 497c 3ebe 7d96 e83c
00000050: 9093 f43d 48e3 9cbd 72ba 83bd b682 bcbc
00000060: b0e2 12be 329b d2bc 7812 5abe 6bc4 983d
00000070: 4c1b 8e3e 6526 cb3d 28ff a3bd f3ad 06be
00000080: 5005 c0bd ee05 30be 24b9 713d 1a97 cfbd
00000090: faee 3fb9 584c b7bd ff14 04be 25f8 36bd
000000a0: 05c4 82bb 2c86 61bd 6257 74bd 5477 82bd
000000b0: ef95 06bd f190 77bd 02df 753b c5b9 0cbe
000000c0: a3f2 533c 8608 2d3d fdfa f0bc a7d2 083d
000000d0: ecc4 383e a734 2b3e 2212 ca3c cb34 773c
000000e0: 0eef 073e 4387 c7bc 13e0 1b3c 6073 0a3e
000000f0: c204 11be c13f 84bd 2184 d0bd a0e7 26be
00000100: 8564 17be da4f 03be e7bd 033e b9e3 afbd
00000110: 2bf9 d0bd 9cd0 a03d 0438 223e a051 563e
00000120: 54a0 5a3d 93ba 8d3d c908 86bc f873 e4bc
00000130: 5cce d6bd c538 58bd 3f4b 34bc 878a c13d
00000140: 2d50 f53d 5d64 21bd 5373 933d c4bd d73d
00000150: 722c 8c3d 3069 193c 8dc8 d43d 2872 16bd
00000160: bab2 4ebd ab41 98bc 90b0 343e 9204 033e
00000170: 15a1 4b3e 71c9 3cbe 509b 92bd 8331 d1bd
00000180: 7593 85bd cf2c b4bd 426d 063e 735e c9bb
00000190: 2379 d8bd 7356 f0bd a64f 2f3e c934 56bd
000001a0: 2b26 31be 013d 123d f8e6 cb3d 6278 243e
000001b0: 4a46 043c 8952 103e 6fe5 e53d b90f 203e
000001c0: 2474 fb3d 2701 c13d 700d 65bd 70dd 58bd
000001d0: fdf6 2fbd eca6 eb3d 8da5 2d3e 7b0e fbba
000001e0: 2ba2 a23d 9cdc 793d 3add 0d3e bf45 acbc
000001f0: 8cd0 0e3d 6164 373e f212 54be 9cf0 2e3d
00000200: ffce de3b f9c5 43be bf34 15be e6e9 29bd
00000210: 65f8 3a3d 8ca2 c1bd abc3 213d a47c 083d
00000220: 26aa efbc a48e e73d 5fa7 59bd eabd 5b3e
00000230: 0c8a 623e 8eb5 bd3d b9c1 d93b d09f a5bc
00000240: ea91 30be 5782 d4bd 03ed 97bc ba7a e0bd
00000250: 832b 30bd fb6e 973d b81f 313d ccb0 02bd
00000260: c36b 8abd 2f8a 0b3e 50ab 0dbd 4499 b93b
00000270: da54 ee3b ea48 b73d ce9e 983c 3cb4 d83d
00000280: 42fb f73c eaf1 7cbd 88b3 9c3d 64b9 8a3d
00000290: 8058 26be 3655 163e 34a7 223e 5fc3 0bbd
000002a0: 0f3b a1bd 3316 7f3c 4105 563e b9e5 673d
000002b0: 5b97 4f3d 93c8 9cbb c1f0 08be 4705 043e
000002c0: 4118 f43d 993a 34bd 2348 823d 8364 3dbd
000002d0: 41b9 9b3d 80af 9d3d e237 063e 1d11 87bd
000002e0: abd5 49bd e703 953d 801f 3b3c 7d1a 073e
000002f0: a8e8 dc3c dfbb 8fbd 578e c1bd 6429 893d
00000300: d96e eabd cc36 3bbd 9e05 90bd cbe3 6cbc
00000310: 3994 74bd d58a 25bd a94d 1c3d 80ee e03d
00000320: 851a 98bd 23f1 243e dd1f 403e 4347 ecbc
00000330: cbaa 72bd 5154 643e dc6e a43e a81f 513c
00000340: fd7e 87bd 783f ab3d 5208 2fbc fb8e 1e3e
00000350: bd72 d43d 147c 3d3d f9e7 3e3e e54f 853e
00000360: 88d9 6d3d 0f81 e63b 4149 51bd e8c1 203d
00000370: e407 03be fa1c 23be 2ab0 94bd 2dc1 67be
00000380: 805a 0b3d 8cca 103e b979 c8bc 0b69 f3bc
00000390: f89e 1dbb 07e7 ed3b 2797 dcbd 183f 3d3d
000003a0: e36f 0ebd 2f43 89bd 6269 3fbd b85a e1bd
000003b0: 3fcc 96bd ec4a 4abc bb6e 63bd a209 713d
000003c0: 516d 89bd 59f3 26be 4e72 62bd 5ea6 163e
000003d0: ccf4 6e3d 931d e53d 6f59 f2bd d627 9cbd
000003e0: d07e da3d bf82 0d3e c16b b8bd eb98 843d
000003f0: 8ab0 76bc 5d38 ff3c 95f7 bcbd 4a58 b6bd

weight f4 [16]
0.9519545 1.0360769 1.036496 0.930761 1.0657537 0.9651348 0.89716125 1.0069177
0.95820075 1.0537615 0.9456459 1.0788721 1.0669929 0.99629664 1.0269387 0.9871145
00000000: 4ab3 733f 2b9e 843f e7ab 843f 5a46 6e3f
00000010: 9e6a 883f 1313 773f 5cac 653f aee2 803f
00000020: a54c 753f a8e1 863f da15 723f 7b18 8a3f
00000030: 3993 883f 4c0d 7f3f ba72 833f 89b3 7c3f

bias f4 [16]
-0.10876333 0.007131478 -0.022441791 -0.021296812 0.049346652 0.04372239 0.005100477 0.026570205
0.020245869 0.13088024 -0.077941604 0.037783187 0.02332805 -0.039361652 -0.0070962966 0.06630947
00000000: 4fbf debd 2caf e93b d9d7 b7bc a776 aebc
00000010: b71f 4a3d 4016 333d e721 a73b c2a9 d93c
00000020: aada a53c 7805 063e d99f 9fbd 8bc2 1a3d
00000030: 771a bf3c af39 21bd 0d88 e8bb 42cd 873d

running_mean f4 [16]
-1.118275 1.3702927 2.478399 0.7675422 0.8427286 -1.4690922 -0.7550504 -1.3792671
0.03731502 -1.7483202 0.80547017 -2.1976516 -1.3154773 0.68241364 -2.5274746 -1.6200778
00000000: a323 8fbf c065 af3f 179e 1e40 a57d 443f
00000010: 10bd 573f 370b bcbf fc4a 41bf d38b b0bf
00000020: a2d7 183d f5c8 dfbf 4b33 4e3f 53a6 0cc0
00000030: 8f61 a8bf a9b2 2e3f 25c2 21c0 b65e cfbf

running_var f4 [16]
1.4195684 1.8740957 1.141569 1.260807 1.7087144 1.4934524 1.9564862 2.060533
1.7442198 2.0093584 1.5407077 2.294356 1.8691822 2.2269719 1.9581624 1.8243878
00000000: 6bb4 b53f 5ee2 ef3f ef1e 923f 2062 a13f
00000010: 27b7 da3f 7329 bf3f 246e fa3f c6df 0340
00000020: 9842 df3f 5499 0040 e935 c53f bbd6 1240
00000030: 5d41 ef3f b586 0e40 11a5 fa3f 8a85 e93f

weight f4 [16, 16, 3, 3]
0.05446615 -0.06659844 -0.0637641 0.05911768 0.05011158 -0.084665306 0.12433408 0.018464794
0.024161685 -0.04160808 -0.14179003 -0.008317606 -0.10221858 -0.05113089 -0.06480151 0.0077183177
-0.06896648 -0.06697912 -0.08385199 0.03579521 0.025199616 0.04318262 0.087437496 0.11782577
0.019991279 0.088770315 0.04594953 0.05659738 -0.06630521 -0.07722646 -0.0011356812 0.04851049
0.097523846 -0.04734794 0.011116499 -0.051503763 -0.145446 0.051853035 -0.04586614 -0.08517446
0.13523026 0.17820431 -0.004633392 0.006393882 -0.04889329 -0.16007483 -0.094532296 -0.123224
0.04886096 0.047809552 -0.08761226 0.018412406 -0.06154948 0.016756209 -0.17677869 -0.12875332
0.022056673 -0.025304828 -0.1188011 -0.060371526 0.04317207 -0.04688003 -0.03976889 -0.08123413
-0.13499391 0.0786205 0.012423646 -0.022867206 -0.013739278 0.074318476 0.053162184 -0.007549467
-0.14021735 0.10380593 0.053720303 -0.15186802 0.061675735 0.210745 -0.079111576 -0.055846382
-0.10003464 0.08203665 0.026985824 0.08408561 0.03685376 -0.06792212 -0.0047249557 0.027661907
-0.08185391 0.01592674 0.0712774 -0.017087623 0.047387637 0.08880128 0.01693816 0.08769799
0.000633948 0.117696404 -0.0108853495 0.07717717 0.037838597 -0.032590736 0.00756755 0.07857068
-0.008946633 0.015655655 -0.010515494 0.1395341 0.036795206 -0.11149168 -0.17462865 0.032088242
0.12038474 -0.043879535 -0.0965802 0.0081251 0.2677939 0.0015388728 0.07210686 -0.018023647
0.1173316 0.14134765 0.14641385 -0.10285619 -0.038338933 0.08915383 0.093344025 0.024358772
0.12225071 -0.028633177 0.003450102 -0.011678316 0.046434227 0.037767857 0.0046465076 -0.046942685
0.047012746 -0.09612542 -0.06589168 -0.030448629 -0.04764634 0.045142706 -0.014305753 0.07120218
0.03126156 -0.013926095 -0.010773203 -0.11885368 -0.0636369 -0.11565846 -0.14542906 0.020680325
-0.0029464373 -0.036844913 -0.09397474 -0.12177843 -0.052834872 0.027427796 -0.007909076 -0.08091979
-0.08198152 -0.023334445 -0.07804639 0.06624304 0.13911076 -0.11307264 0.01706318 0.08237015
-0.018160198 -0.041807443 0.035528973 0.079457946 -0.022455255 0.019910319 -0.025731362 -0.035014503
-0.08733752 0.0046146223 0.00018798177 -0.093443796 -0.034201585 0.038317326 0.024549812 -0.056256853
-0.025217295 -0.014161124 -0.035312638 -0.114429064 -0.079905525 -0.042113036 -0.052593466 -0.0457338
0.01280682 0.032130472 -0.056592174 -0.009535737 -0.013588931 -0.014973738 0.14189108 -0.054850433
-0.058770474 0.095668636 0.0422779 0.01908567 -0.061840765 -0.09672034 -0.08548479 -0.023633588
0.0238184 -0.081475995 -0.03885206 0.02529275 -0.030518698 0.036713205 0.08728118 -0.03128363
0.048220348 0.016118614 0.09750328 0.020033224 0.03403996 -0.03774323 -0.030546224 -0.08435985
-0.12784529 -0.14953959 0.0780453 -0.03328485 0.007018392 0.18324158 0.2281235 -0.010879045
0.16148 0.16814193 0.029255562 -0.09766758 -0.023504749 0.08644406 -0.07624823 0.05822632
-0.044660382 -0.061967853 0.050475087 0.05496942 0.077705495 0.019051677 0.1388594 0.1292487
0.08510902 -0.01712143 0.027173381 0.001246606 0.0076502156 0.06404755 -0.052346513 -0.011546839
00000000: e617 5f3d c364 88bd c196 82bd 6125 723d
00000010: cd41 4d3d 0165 adbd dea2 fe3d 7b43 973c
00000020: baee c53c 3c6d 2abd 6831 11be 9146 08bc
00000030: fa57 d1bd a06e 51bd a7b6 84bd f1e9 fc3b
00000040: 4c3e 8dbd 592c 89bd 98ba abbd 009e 123d
00000050: 6d6f ce3c 42e0 303d 6e12 b33d a34e f13d
00000060: c0c4 a33c 36cd b53d 9335 3c3d a8d2 673d
00000070: 07cb 87bd e828 9ebd 23db 94ba f0b2 463d
00000080: 95ba c73d eaef 41bd fa21 363c 9cf5 52bd
00000090: ccef 14be d963 543d 22de 3bbd f36f aebd
000000a0: cd79 0a3e 317b 363e b6d3 97bb c583 d13b
000000b0: 5544 48bd a8ea 23be 269a c1bd dd5c fcbd
000000c0: 6e22 483d f3d3 433d 0e6e b3bd 9dd5 963c
000000d0: 4f1b 7cbd 5144 893c 7905 35be e9d7 03be
000000e0: 32b0 b43c 124c cfbc fe4d f3bd 2248 77bd
000000f0: 32d5 303d 4605 40bd b4e4 22bd 145e a6bd
00000100: d83b 0abe c903 a13d 8c8c 4b3c 0254 bbbc
00000110: b51a 61bc 4934 983d 97c0 593d 8561 f7bb
00000120: 2395 0fbe 3498 d43d d209 5c3d 4a83 1bbe
00000130: b29f 7c3d 8acd 573e 4005 a2bd 2dbf 64bd
00000140: f6de ccbd d502 a83d 6011 dd3c 1435 ac3d
00000150: f8f3 163d c11a 8bbd cdd3 9abb 399b e23c
00000160: 06a3 a7bd cb78 823c e3f9 913d 58fb 8bbc
00000170: 8a19 423d 72dd b53d e5c1 8a3c 019b b33d
00000180: 882f 263a d00a f13d 7758 32bc 100f 9e3d
00000190: a5fc 1a3d dd7d 05bd 36f9 f73b aae9 a03d
000001a0: e694 12bc 4a40 803c 2e49 2cbc 07e2 0e3e
000001b0: 92b6 163d c055 e4bd dad1 32be f66e 033d
000001c0: 468c f63d 07bb 33bd d7cb c5bd 241f 053c
000001d0: 481c 893e 01b4 c93a c3ac 933d 54a6 93bc
000001e0: 8d4b f03d 70bd 103e 83ed 153e 44a6 d2bd
000001f0: 4909 1dbd 4996 b63d 272b bf3d 0c8c c73c
00000200: 955e fa3d 2090 eabc 1b1b 623b 6856 3fbc
00000210: d131 3e3d 78b2 1a3d bb41 983b f946 40bd
00000220: 7090 403d 67dd c4bd 38f2 86bd 676f f9bc
00000230: cf28 43bd 8fe7 383d ad62 6abc 73d2 913d
00000240: 1f0c 003d 472a 64bc 1782 30bc 8f69 f3bd
00000250: 1054 82bd 58de ecbd 5beb 14be c969 a93c
00000260: 0419 41bb b1ea 16bd d475 c0bd f866 f9bd
00000270: 6169 58bd 42b0 e03c 1295 01bc 46b9 a5bd
00000280: ede5 a7bd e127 bfbc c9d6 9fbd 6eaa 873d
00000290: 0d73 0e3e a192 e7bd 15c8 8b3c aeb1 a83d
000002a0: b2c4 94bc 483e 2bbd d486 113d d9ba a23d
000002b0: 15f4 b7bc f71a a33c 94ca d2bc 5e6b 0fbd
000002c0: 04de b2bd 4236 973b f91c 4539 765f bfbd
000002d0: f616 0cbd a1f2 1c3d b01c c93c 966d 66bd
000002e0: 8094 cebc 0f04 68bc fca3 10bd c959 eabd
000002f0: 82a5 a3bd b87e 2cbd 3f6c 57bd 5d53 3bbd
00000300: b2d3 513c 3e9b 033d 32cd 67bd c83b 1cbc
00000310: 1ca4 5ebc 6954 75bc e54b 113e d9aa 60bd
00000320: 4fb9 70bd ebed c33d 972b 2d3d 8d59 9c3c
00000330: be4c 7dbd 5015 c6bd a612 afbd 3a9b c1bc
00000340: ce1e c33c e3dc a6bd 5623 1fbd be32 cf3c
00000350: 5902 fabc 9660 163d 7ac0 b23d 4323 00bd
00000360: b382 453d 2f0b 843c cdaf c73d b71c a43c
00000370: 7c6d 0b3d a598 1abd 133c fabc dbc4 acbd
00000380: e0e9 02be e820 19be 37d6 9f3d b255 08bd
00000390: 8afa e53b aea3 3b3e 3599 693e 063e 32bc
000003a0: 035b 253e 662d 2c3e 5ca9 ef3c f105 c8bd
000003b0: 088d c0bc 9509 b13d 0828 9cbd b97e 6e3d
000003c0: ceed 36bd 01d2 7dbd f7be 4e3d 9d27 613d
000003d0: 0f24 9f3d 4312 9c3c 2931 0e3e c559 043e
000003e0: a34d ae3d 3e42 8cbc b69a de3c 2865 a33a
000003f0: a9ae fa3b 5d2b 833d 4c69 56bd f42e 3dbc

weight f4 [16]
0.9976804 1.0186833 0.97234964 0.99696034 1.1306415 0.98018235 1.075797 1.0302268
0.9893059 1.087408 1.0549488 1.0078532 0.94490933 0.92174697 1.018244 0.96641797
00000000: fc67 7f3f 3764 823f e8eb 783f cb38 7f3f
00000010: dcb8 903f 3bed 7a3f b7b3 893f 79de 833f
00000020: 2743 7d3f 2f30 8b3f 9008 873f 5501 813f
00000030: 94e5 713f 9cf7 6b3f d255 823f 2b67 773f

bias f4 [16]
-0.042525887 0.071346 -0.016140765 -0.046621487 0.05962997 0.12235816 -0.059957568 -0.039261866
0.017948736 0.090314664 0.10604262 0.04928602 0.21036306 0.06235148 0.08010576 0.061609223
00000000: a02f 2ebd da1d 923d a339 84bc 2cf6 3ebd
00000010: 8e3e 743d ea96 fa3d 1196 75bd 0dd1 20bd
00000020: 3a09 933c e5f6 b83d e02c d93d 23e0 493d
00000030: 6a69 573e 4464 7f3d 7d0e a43d f459 7c3d

running_mean f4 [16]
0.12594084 0.05244723 -0.7113821 0.73028165 -0.7134366 0.3165061 -0.01569445 0.15860556
0.25869966 0.3947128 -0.6934261 -0.015074602 -0.3885981 -0.20502906 0.8185125 0.1177349
00000000: a3f6 003e e8d2 563d 231d 36bf bdf3 3a3f
00000010: c8a3 36bf 160d a23e a691 80bc 7f69 223e
00000020: 4874 843e cc17 ca3e 5f84 31bf 77fb 76bc
00000030: 55f6 c6be 23f3 51be 098a 513f ff1e f13d

running_var f4 [16]
0.6208545 0.8216661 0.54858655 0.4976215 1.0424223 0.6831906 0.53609306 0.533262
0.4828487 0.58124316 0.77732116 0.45879763 0.82901776 0.40927202 0.6817229 0.5918766
00000000: 52f0 1e3f b658 523f 2b70 0c3f 3fc8 fe3e
00000010: 186e 853f 94e5 2e3f 653d 093f dc83 083f
00000020: f237 f73e 5acc 143f 85fe 463f 86e7 ea3e
00000030: 823a 543f 1a8c d13e 6485 2e3f 3a85 173f
