archive/test_1/bs32ep300sf8.pth (torch_old, 736740 bytes, 102 tensors)

weight f4 [8, 3, 3, 3]
000000 09 be 30 3d d5 c4 66 bd 3c 6e 89 be ca fd 31 3e
       0.04314998 -0.056340057 -0.26841915 0.17381969
000010 d1 5e c7 3e 8f ce ce ba cb d3 bb 3e 01 59 a6 3e
       0.38939527 -0.0015778112 0.36685023 0.3248978
000020 5f 7b 69 3e a0 22 71 be 83 bd a2 be 09 7c de be
       0.22800969 -0.23548365 -0.3178521 -0.43454006
000030 f3 00 f1 bd 8d 0b aa bd 87 33 cc be b8 b8 47 3e
       -0.11767759 -0.083029844 -0.39883062 0.19504058
000040 23 68 6c 3e fa 94 ef bc bc c2 1e 3e 76 84 87 3d
       0.230866 -0.029245842 0.15503973 0.06617062
000050 db e4 81 3d cb 6a f7 bc 46 b1 b1 3c a1 78 b7 be
       0.06342479 -0.03020229 0.021690976 -0.3583422
000060 ad 70 b8 3d c4 9f 49 3e 77 fa 25 be bc 24 92 be
       0.09005866 0.19689852 -0.16208826 -0.2854365
000070 d5 b2 7c 3e c8 1d 9d bd 09 5d 30 be f2 06 ad 3c
       0.24677594 -0.07671696 -0.1722299 0.021121476
000080 e6 63 6f 3d 97 8d 13 3c dc be 2e bc 46 1d 03 3f
       0.05844488 0.009005926 -0.010665622 0.5121654
000090 77 bb 2d bd 5b 29 c5 3b 8f 8c 91 be 01 93 63 be
       -0.04241511 0.006016893 -0.2842755 -0.22224046
0000a0 b7 25 4a 3e 3a d3 ed bc 11 ba 68 be 9c 7e 24 be
       0.1974095 -0.029031385 -0.22727229 -0.16063923
0000b0 94 f1 e7 bd dd 3c 16 3e a6 17 97 3e 7e 4a 91 bd
       -0.11325374 0.14671655 0.2951023 -0.070942864
0000c0 7d dd a6 3e 8c 0f bf 3e 6e df e6 bc 57 51 85 bc
       0.32590857 0.3731655 -0.028182711 -0.016274137
0000d0 3d d8 14 3e 6d 12 c8 bd 20 8a 4e be 71 5a ef 3d
       0.14535613 -0.097691394 -0.20169878 0.11687172
0000e0 5b 3a c2 3d c5 8b cb be 47 61 06 be f8 82 e1 bd
       0.09483787 -0.39755073 -0.13123046 -0.110113084
0000f0 eb 52 91 be 15 47 ed bc c3 75 d9 bd 2e e3 91 3b
       -0.28383574 -0.028964559 -0.106181644 0.0044521308
000100 14 61 3a 3e 19 00 9f 3d 92 bb 74 3c a7 3b 2c 3e
       0.18201095 0.077636905 0.014937298 0.1681963
000110 02 c0 83 3e ec ef c5 bd 92 8f b8 3e af ac 9f 3e
       0.25732428 -0.09664902 0.36047035 0.31186435
000120 6c 66 c4 bd 99 6e 0a be 8b 15 e4 bd f6 c7 7d be
       -0.09589848 -0.13518752 -0.111369215 -0.2478331
000130 9a 93 3c bd 7f a1 11 3d dd 46 5e be b2 ea f6 3d
       -0.0460392 0.035554405 -0.2170672 0.12056483
000140 21 fa 00 be 08 d7 1f 3e f3 86 0a 3e 62 63 58 3e
       -0.12595417 0.15609372 0.13528042 0.21131662
000150 92 57 3e 3e 57 80 4d 3e 67 28 38 3e f0 67 b6 bd
       0.18588093 0.20068489 0.17984162 -0.08906543
000160 c7 eb b8 be b3 cf b0 be 03 84 2c be bf c4 5f 3e
       -0.36117384 -0.34533462 -0.16847233 0.21852396
000170 20 05 ad 3d 34 0d a0 3d 42 69 82 3e 8c 82 db 3d
       0.08448243 0.07815018 0.2547093 0.10718259
000180 f7 93 7d be 75 a0 47 be 15 1a b2 bd 4a 9e a6 be
       -0.24763475 -0.19494803 -0.08696381 -0.3254264
000190 ac df c1 bc 7e cb ca 3d 50 18 f6 3d 1d fd f6 3c
       -0.023666225 0.09902094 0.12016356 0.03014999
0001a0 23 2d 92 3d a4 96 22 3e fe 65 62 3e 50 51 32 3d
       0.071375154 0.15877777 0.2210922 0.043534577
0001b0 d3 9a 09 3e ba 0b a3 3e f2 33 a3 bc 57 b3 96 3d
       0.13437967 0.31844884 -0.01992223 0.07358425
0001c0 ed d6 02 be 28 24 37 3c 02 76 94 bd 94 e4 15 3d
       -0.127773 0.011178054 -0.07249071 0.036594942
0001d0 b8 1c 80 3d 08 d6 62 be 11 01 88 be 36 ac 3c be
       0.06255478 -0.22151959 -0.26563314 -0.18425068
0001e0 88 b3 86 be f3 2a b9 be b8 d9 f5 bd 5e 3b 67 bd
       -0.26308846 -0.3616558 -0.12004417 -0.0564531
0001f0 9e 31 08 bd 93 d2 00 be 09 10 a0 bd 56 fe 32 3e
       -0.033250444 -0.12580328 -0.078155585 0.17479834
000200 ea 0b 86 3d ba 48 12 be 02 17 51 be 23 3a 77 3d
       0.06545241 -0.14285555 -0.20418933 0.060358178
000210 91 a8 07 3e 34 aa 86 3e 89 f3 98 3e 26 1f 85 be
       0.13247897 0.2630173 0.29873303 -0.26000327
000220 83 53 f7 3d ee aa 50 be ff dc 6f be 52 a5 c0 3d
       0.120764755 -0.20377705 -0.23424147 0.09406532
000230 2a 5f 0d be 1a f2 d6 bd 03 63 9e be 4d a6 b3 bc
       -0.13805833 -0.10495396 -0.30934915 -0.021929884
000240 1e 23 e1 bd 60 b8 43 3d 82 a9 c2 be 9c 8c 33 3e
       -0.10993026 0.047783256 -0.3801995 0.17534107
000250 dc f4 77 3e ee 2b 87 3c 9b 55 85 be 4d 73 db 3d
       0.242145 0.01650044 -0.26041874 0.10715351
000260 1b 65 8d be b6 33 1c 3e f2 f9 77 3e bb 61 cb be
       -0.276162 0.15254101 0.2421644 -0.39723
000270 7d 8f 00 3f fc d2 30 3f 28 94 84 bd 23 4b 30 3e
       0.50218946 0.69071937 -0.06473571 0.17216162
000280 7b ac 79 3e d2 04 31 bd e3 92 3e be a0 dc 12 be
       0.24382202 -0.043217488 -0.1861072 -0.14341974
000290 a3 0e 14 be fb 87 94 be 56 6f 52 bd bf 47 b4 3e
       -0.14458708 -0.29009995 -0.05137571 0.35210988
0002a0 4e 33 cb 3d 12 86 af 3e 9b 6e 30 3e 54 ea c1 3d
       0.09921895 0.34281975 0.17229693 0.09468523
0002b0 0f c8 4d 3e 85 a6 64 3e a4 7e e5 be 7a 62 97 be
       0.20095848 0.22329147 -0.44823182 -0.2956732
0002c0 04 95 98 3e f7 ca ea be 34 51 b6 3d ab 7b 06 3e
       0.2980119 -0.45857975 0.08902207 0.13133113
0002d0 07 17 b8 3e 09 79 8e 3e c1 75 16 be 87 1b 97 be
       0.35955068 0.27826717 -0.14693357 -0.2951319
0002e0 ac 75 40 be 96 a4 e3 3d c2 e1 91 be 5f d5 4b be
       -0.18794888 0.11115377 -0.28492552 -0.19905613
0002f0 ac ed 82 3e fb c2 35 3e ea d4 6b 3e d8 0a ad 3e
       0.25571954 0.1775016 0.23030439 0.33797336
000300 0f 50 8b 3e 13 3e f2 3c dc 23 10 3e 91 8e 60 3d
       0.27209517 0.029570615 0.1407618 0.054823462
000310 f6 fb f0 be 20 90 4f be 16 73 1c 3e 6d 06 85 bd
       -0.4706723 -0.20269823 0.15278277 -0.06495366
000320 26 32 f3 bd bb 7a c0 3d 62 b7 11 be 6d 00 80 be
       -0.118747994 0.09398409 -0.14230111 -0.25000325
000330 04 87 05 3e a0 6d 5d be 9a 97 c3 bd e6 69 1c be
       0.13039786 -0.2162385 -0.095504 -0.15274772
000340 19 09 8d be 61 ce 14 3e 54 0f 7f 3d 45 98 9d be
       -0.27546003 0.14531852 0.062270477 -0.30780235
000350 35 5e 4a be aa e2 c6 3d 2f 25 91 be 9d 12 73 3e
       -0.197625 0.097112015 -0.2834868 0.23737569

weight f4 [8]
000000 dd cf 81 3f cd 85 82 3f bf e8 7f 3f 30 b1 80 3f
       1.014156 1.0197083 0.9996452 1.0054073
000010 95 bb 70 3f 59 d6 86 3f 07 76 98 3f 26 b0 86 3f
       0.9403623 1.0534164 1.1911019 1.0522506

bias f4 [8]
000000 14 b3 39 3e 89 57 77 bc 1c 6c 06 3e 1c 5c 07 bd
       0.18134719 -0.015096554 0.13127178 -0.033046827
000010 64 fd 00 bd ed a8 d1 3e 16 ed d0 bb 76 4b 40 3e
       -0.031491652 0.40949193 -0.006375919 0.18778786

running_mean f4 [8]
000000 5d 51 94 bd e0 a0 c1 bd d5 b0 da 3d 96 71 50 be
       -0.07242081 -0.094545126 0.10678259 -0.2035583
000010 ee f3 5f 3e 7f 72 87 3d 1f 90 06 3d 1f 18 06 3e
       0.21870396 0.06613635 0.03285229 0.13095139

running_var f4 [8]
000000 ae f2 2a 40 2e ce 80 3f f2 84 ad 3f 6d 0a df 3f
       2.671062 1.0062921 1.3556197 1.7425057
000010 43 96 a5 3f db 67 1b 40 4b 96 ec 3f b5 9d 03 40
       1.2936481 2.4282138 1.8483366 2.0565007

weight f4 [8, 8, 3, 3]
000000 32 e4 89 3d 86 a7 b9 3d c5 6a b6 3d 66 7f 42 be
       0.06732978 0.09065156 0.089070834 -0.18993911
000010 ab c7 0a be 74 ba 34 be e8 40 03 be 6e 1b 10 be
       -0.1355273 -0.17649251 -0.12817729 -0.14072964
000020 c6 a0 2d be 2d d4 ed 3b 21 16 af 3d 04 3c c5 3c
       -0.16955861 0.0072579593 0.08549143 0.02407647
000030 f1 97 e0 3c 43 8d 2a 3e a0 7e 87 3e 17 ed f6 bd
       0.027416201 0.1665545 0.26463795 -0.1205694
000040 7a f4 2f be 0b d2 8d 3d a7 ec c2 bd 3c 6b 21 3c
       -0.17183104 0.06924828 -0.09517794 0.009852227
000050 f2 49 c8 bb ce f5 79 3d bc ee 49 3c ba 24 19 3e
       -0.0061123306 0.061025433 0.012324985 0.14955416
000060 94 ae 18 3e f5 3b 34 3e ad 14 1d 3e 61 93 6a 3d
       0.14910346 0.17600997 0.15339918 0.057269458
000070 8b 72 1f 3e b3 7e 5b 3d 86 f6 22 3e 28 2f a4 3d
       0.15571038 0.053587627 0.15914354 0.08016807
000080 9a a5 90 bd c5 d0 d4 bd f7 2c 24 be e1 77 be 3b
       -0.07062836 -0.10391382 -0.16032778 0.0058126305
000090 be 1f 4d 3c 88 77 21 3e 7a 2e dd 3d 4f 54 29 be
       0.012519775 0.15768254 0.1079988 -0.16536067
0000a0 0f 2a 18 be 06 eb a8 bd e0 95 e8 bd 80 43 a5 bd
       -0.14859794 -0.08247952 -0.113567114 -0.08069515
0000b0 16 c7 04 be a3 98 57 bd 1b 54 5e 3e dd bc fb bc
       -0.1296657 -0.0526358 0.21711771 -0.030729705
0000c0 71 93 6b bd 0a 91 2a 3e 71 4a 4d 3e cd 95 a6 bc
       -0.057513658 0.1665689 0.20047928 -0.020335102
0000d0 cf 76 92 bc b2 92 2c bd 20 7f 5a bd 36 89 ba 3c
       -0.017878918 -0.042132087 -0.053343892 0.022770505
0000e0 81 c5 43 be fe 0a 0e bc ff c0 e8 bc c5 8d 10 bd
       -0.1911831 -0.008669613 -0.02841234 -0.035291452
0000f0 64 5a 1a 3d e9 86 9b 3d d1 6e 67 bd 94 4a 07 3e
       0.03768386 0.075940914 -0.056502167 0.13212043
000100 51 15 ec bc c8 95 3e bd ac 91 b4 bd 4d d1 ed bc
       -0.028818758 -0.04652956 -0.08816847 -0.029030466
000110 f8 32 b5 3d 0f 91 95 bd a1 f0 60 be 16 9a 27 bd
       0.08847612 -0.07303058 -0.21966793 -0.040918432
000120 71 1d 44 be 10 2c 9e 3d 59 fb 08 3c 01 22 21 bd
       -0.19151856 0.07723248 0.008360707 -0.03933907
000130 98 bb 9d 3d a0 ac 44 3e 31 f0 d2 3d fe 56 a5 3d
       0.07701796 0.19206476 0.10299719 0.08073233
000140 80 05 a5 bd d3 fa 60 bd 53 b9 28 3d b7 74 94 3d
       -0.0805769 -0.054926705 0.041192364 0.07248824
000150 93 5a dd 3c 9f 5e 94 bd f9 d3 49 3e 81 71 03 bd
       0.027020728 -0.0724461 0.19709767 -0.032090668
000160 b9 7e a6 3d 40 1a 57 3e 1f 1d 8f bd b6 c1 cc bd
       0.08129639 0.21006107 -0.06987976 -0.09997885
000170 53 4e 15 3e cc 91 9f bc ea 0d 3e 3d 12 8b 01 be
       0.1458066 -0.019478701 0.04639999 -0.12650707
000180 7a 6b 35 bd b7 2a bc bb 95 3e 4c be 39 ca ad bd
       -0.04429195 -0.0057423967 -0.19945748 -0.084858365
000190 02 2b 22 3d f8 e8 be bc 81 82 7a 3d ef 7e 3e 3e
       0.039591797 -0.023304448 0.061159614 0.18603109
0001a0 0a c2 40 3b 66 d0 ac 3d 21 02 1d 3e a2 8f c2 3c
       0.0029412531 0.08438186 0.15332843 0.02375013
0001b0 be 36 5d bd 4e eb e3 bd d9 11 0d 3d 56 80 df bc
       -0.054007284 -0.11128865 0.03444085 -0.027282875
0001c0 90 8a a8 3d e7 0e b7 3d 1b b7 2c be e4 d2 2d be
       0.08229554 0.08938389 -0.16866724 -0.1697498
0001d0 6e b2 0c 3d 2a a9 bc bd 53 b7 e7 bc c6 51 19 3e
       0.03434985 -0.09211953 -0.028285658 0.149726
0001e0 25 57 b5 3c 1a 95 22 3d 5e 6d 8c bb 48 9b 8e 3d
       0.02213628 0.039692976 -0.0042854985 0.06963211
0001f0 9e 91 1e bd 53 47 32 3d 15 b7 23 bd 6b 06 34 3d
       -0.03871309 0.04352505 -0.039969523 0.043951433
000200 fa df 4e be 43 b2 67 3d 2b 69 97 3c 93 0c 32 be
       -0.20202628 0.056566488 0.018482765 -0.17387609
000210 2c 18 64 3c 0f 50 a6 bd 3f f2 12 be 0b ac 1e bd
       0.013921779 -0.08120739 -0.14350222 -0.03873829
000220 d8 04 73 3d 8b 76 16 3e 5b e2 af 3d fc 61 e8 bc
       0.05933079 0.14693658 0.08588096 -0.028367035
000230 83 dc 0f bd f8 e9 1f bd 99 e2 d7 bc 1c ce 48 3d
       -0.035122406 -0.03904149 -0.026353167 0.049024686
000240 64 fb 8b 3b a3 0e a0 bc 54 b9 f7 bc 99 18 18 3e
       0.0042719115 -0.01953823 -0.030239739 0.14853133
000250 61 3e 01 bd 90 7f 7b 3d 6c 63 28 3d 62 fc 32 be
       -0.03155363 0.06140095 0.04111044 -0.17479089
000260 f2 75 80 3d b0 26 27 be 99 21 31 be a1 10 9b bd
       0.06272496 -0.16323352 -0.17297973 -0.07571531
000270 56 fc 9e bd 5a a0 c0 bd b7 1f 9e 3d d2 83 bc 3d
       -0.07762973 -0.09405585 0.07720893 0.0920483
000280 17 d2 14 3d d9 ef 39 3d d4 00 92 bc 61 cc 92 bd
       0.03633317 0.045394752 -0.01782266 -0.071678884
000290 58 f9 57 b9 5d 12 1f 3d 4e 4d df bd 37 aa 28 3e
       -0.00020596886 0.038835872 -0.109034166 0.16471182
0002a0 bb 14 42 3e e5 03 14 bd a1 f0 81 3d 30 da e2 bb
       0.1895322 -0.036136527 0.063447244 -0.0069229826
0002b0 1b cd 20 bd fd 03 93 3c b6 62 0c be 6e 46 5b be
       -0.039258104 0.017946238 -0.1370953 -0.21413586
0002c0 4a c8 41 3d 63 0b 82 bd c5 04 ce bb 6d 02 72 3e
       0.04731015 -0.06349828 -0.0062871897 0.23633738
0002d0 34 07 21 3c cb e9 b0 bd 48 c9 9a bd 13 5e 84 be
       0.0098283775 -0.086383425 -0.075579226 -0.25853023
0002e0 d9 48 ee bd ea b7 58 3d 41 4e c1 bd a1 7d ce bc
       -0.11634988 0.05290977 -0.09438754 -0.025206389
0002f0 32 05 3a bd 49 e9 08 3e 93 39 46 be 57 0c 6e b8
       -0.04541511 0.13370241 -0.193579 -5.6755114e-05
000300 5e 41 88 3e e1 88 bb be 5b 23 9b be 97 7f 98 3e
       0.2661237 -0.36627868 -0.30300412 0.29784843
000310 d1 7a 18 be 8b 39 11 3e 85 c9 c7 3a 1c bd 41 be
       -0.148906 0.14182107 0.0015242553 -0.18919796
000320 93 29 be bd 7c cd 79 bd 15 a0 43 bd bc 6b 39 3e
       -0.092852734 -0.06098698 -0.047760088 0.18107504
000330 3c 30 85 3e ae 06 72 3d f9 29 8b bc 14 30 16 be
       0.26013362 0.0590884 -0.016987788 -0.14666778
000340 25 1d 1c 3e e8 9b 14 3e 9b f1 1d bd 3b 74 75 3d
       0.15245493 0.14512599 -0.03856049 0.0599253
000350 44 49 19 3e 74 5d 4a be ed 5f a3 bd ce c7 db 3c
       0.14969355 -0.19762212 -0.07977281 0.026828673
000360 59 b4 23 be 62 9c e6 bd 42 6b 29 3d 09 e9 45 3d
       -0.15986766 -0.112602964 0.041362055 0.048317943
000370 a5 b2 26 3d 11 f8 d8 39 9b 9f 22 bd af a6 00 3d
       0.040697712 0.00041383554 -0.039702993 0.03140896
000380 cb 77 64 bc b1 fe c2 3d ec 9d 9b 3c 33 17 e0 bd
       -0.0139445765 0.09521235 0.018996201 -0.10941925
000390 fa ee bc bc 76 35 1b bd df e2 d6 3c 44 c7 78 bd
       -0.023063172 -0.03789278 0.026231227 -0.06073691
0003a0 4c db c9 3d b4 84 c8 3d 71 bc ec bd 5c 8b 5e 3d
       0.09856281 0.09790936 -0.1155938 0.054332122
0003b0 ff f3 59 3c da ff 78 3d 5d da 45 3e 0a f0 20 3e
       0.013302802 0.060790874 0.1932158 0.15716568
0003c0 e7 36 d3 3d bd 52 03 3e 55 9e 7e bd 28 03 4c bd
       0.10313206 0.12824531 -0.062162716 -0.049807698
0003d0 c9 59 d3 3d 71 d3 ec bd 3a 52 4f 3e 7d e4 e2 3d
       0.103198595 -0.11563767 0.2024621 0.11078737
0003e0 f7 97 c9 3d a2 f0 d0 3d 17 00 0f 3e 0c a1 8c 3c
       0.09843438 0.10202147 0.13964878 0.017166637
0003f0 65 29 17 3e 59 02 08 3d f2 89 64 3d c9 1a 1b 3e
       0.14761885 0.033205364 0.055795617 0.15146936

weight f4 [8]
000000 b0 34 83 3f 23 49 5a 3f 0d 80 74 3f 1a 7e 78 3f
       1.0250454 0.8526785 0.9550789 0.97067416
000010 48 33 88 3f 86 7a 8f 3f fc 7a 8a 3f 06 4e 66 3f
       1.064065 1.1209266 1.0818782 0.89962804

bias f4 [8]
000000 5e 5c e0 bd b7 ee 90 3c 27 d5 9e 3d cc 97 4e be
       -0.10955118 0.017691953 0.07755499 -0.20175093
000010 12 36 1e 3e 3b 73 c4 3b 25 0c 30 be 0f 66 26 be
       0.15450314 0.005995182 -0.17192133 -0.1624987

running_mean f4 [8]
000000 78 ef 4d 3b 7e 3c 4a 3e 3d 9c b3 be 81 04 0f 3f
       0.0031423252 0.19749638 -0.35080138 0.5586625
000010 ab a8 7d bf 20 c5 0e 3e d9 b6 15 be b7 4f d3 3c
       -0.9908549 0.13942385 -0.14620532 0.025794847

running_var f4 [8]
000000 6f e9 73 3f e1 59 2d 3f 40 e5 21 3f 5d bb 3c 3f
       0.95278066 0.6771527 0.6324043 0.73723394
000010 dc 7d 52 3f 91 69 91 3f 5f 9c 66 3f 1f 06 dd 3e
       0.82223296 1.1360341 0.90082353 0.43168733

weight f4 [8, 8, 3, 3]
000000 c1 11 98 3d 23 35 17 be be d6 0b be ac 43 6b 3d
       0.07425261 -0.14766364 -0.13656136 0.057437584
000010 5e a1 ba bc 34 f8 8c bd 4c 27 f4 3d 3e d0 0c 3e
       -0.022782024 -0.068832785 0.11921558 0.13751313
000020 3b e7 59 3e 3f 44 21 3c 8e 01 46 bd 86 cd 2d be
       0.21279614 0.009842931 -0.048341326 -0.16972932
000030 c0 d4 89 3c 2f 5a 8a 3d 11 91 c1 3c 66 aa 37 3e
       0.01682508 0.067554824 0.023628743 0.17936096
000040 c8 e0 72 3c 7e f7 81 bc 64 e5 36 3e 14 8c 0d 3e
       0.0148241 -0.015865084 0.17860943 0.13822967
000050 c5 a4 60 be 8c 18 7e bd e4 03 81 bd 6e 21 17 bd
       -0.21937855 -0.06203513 -0.0629957 -0.036897115
000060 86 82 4a 3d 0d 03 0a be ae d7 5f be ff 3c cf bd
       0.049440883 -0.13477726 -0.21859619 -0.10119056
000070 a9 03 2a bd ee 44 3a bc dc 7b 83 bd 7d ef f1 3c
       -0.041507397 -0.011368973 -0.06420109 0.029533142
000080 9e 43 49 bc a1 65 fa bd 2f 42 bd bd e4 a5 61 3d
       -0.012284188 -0.122264154 -0.09241139 0.055089846
000090 90 75 5e be 68 68 f4 bd 12 f6 03 3e 76 3a d4 bd
       -0.21724534 -0.119339764 0.12886837 -0.10362713
0000a0 8e 43 d3 bd 85 1b 5b 3e a8 a5 09 3e ee 6d 01 be
       -0.103156194 0.21397217 0.13442099 -0.12639591
0000b0 e7 e3 18 3e 53 4a 80 bc da d0 4e 3d 85 05 70 bd
       0.14930688 -0.01566044 0.050492145 -0.058599014
0000c0 fc 20 52 bd 19 9e 9f 3d d0 c0 c8 3d 06 c1 26 be
       -0.051300988 0.077938266 0.09802401 -0.1628457
0000d0 ac e2 54 be 81 34 65 be 2f f8 bf 3d 50 31 73 3e
       -0.20789593 -0.2238331 0.09373509 0.2374928
0000e0 f6 39 98 3d 5c 14 44 be 2b 7b 31 bb 02 d0 c6 3c
       0.0743293 -0.19148391 -0.002708147 0.024269108
0000f0 d6 a7 af be 54 57 c7 bd ac 1d 04 be 6f c1 92 bc
       -0.34307736 -0.097334534 -0.12901944 -0.017914502
000100 45 7b 08 3d 8c 90 b3 bd f0 ce 52 3b b5 98 18 3d
       0.033320684 -0.087678045 0.0032166801 0.037255008
000110 d7 6f cf 3c 81 5d 91 bd 76 83 ca bd 90 aa fa bd
       0.025321884 -0.070979126 -0.098883554 -0.122395635
000120 e6 13 97 bd 71 03 b3 bb 20 d1 9a bd 9a 11 49 bd
       -0.07376842 -0.0054630567 -0.07559419 -0.04908905
000130 6d 59 e1 bd 93 66 9c bd fa 62 c0 bd b6 80 ca bd
       -0.11003385 -0.07636752 -0.09393878 -0.09887831
000140 6f 14 92 bd c5 ef 73 bd ee 68 42 bd ba ed ec bd
       -0.07132804 -0.059554834 -0.04746335 -0.1156878
000150 2a f3 80 bd 34 61 29 be 8c 81 01 bd 66 97 18 bc
       -0.0629638 -0.16540986 -0.031617686 -0.00931344
000160 f4 a1 57 bc 89 fd 80 bd bd 02 9b 3d e6 39 b2 3d
       -0.013161171 -0.06298358 0.07568882 0.087024495
000170 00 ce c6 3d 24 5d 19 3e 49 70 f6 3c 35 54 c3 bd
       0.0970726 0.14976937 0.030082839 -0.095375456
000180 be 2e b4 3d 17 16 98 bd 36 e6 02 bd ec 7d 21 3c
       0.08797978 -0.07426088 -0.031957828 0.009856682
000190 ea 4c c2 3c 03 d9 6c 3d 37 b3 56 be 84 66 39 3d
       0.023718316 0.057824146 -0.20966803 0.045263782
0001a0 72 d4 2b bd f6 69 e9 bb 8f 46 ec 3d a5 f2 33 3d
       -0.04195065 -0.007123227 0.115368955 0.043932576
0001b0 3d 93 f5 bd 5b 69 56 bd 2e 40 d9 3c 48 bb f3 3c
       -0.11990974 -0.05234657 0.026519861 0.029752389
0001c0 7d 71 c9 3d 78 0b 21 be 88 b0 4c 3d 56 86 8c 3e
       0.09836099 -0.15727031 0.04997304 0.2744624
0001d0 bf b0 47 3e 0c c0 a6 3d 1d 7c 50 3e a4 b8 3e 3e
       0.19501017 0.08142099 0.20359845 0.18625122
0001e0 e3 b8 45 bd 35 9e 2d 3e 82 e2 09 bd 20 39 78 3d
       -0.048272025 0.16954882 -0.03366328 0.060601354
0001f0 67 50 85 3d 55 cd 63 be e1 a3 1f bd 7c b9 1d bd
       0.06509476 -0.22246297 -0.038974646 -0.03850697
000200 b2 03 54 bd 2c 17 07 bd ac 4e 85 bd 73 91 cd bd
       -0.051761337 -0.032981083 -0.06509146 -0.10037508
000210 70 10 5b 3d 16 e7 f8 3d 8f 15 a0 3d 46 18 32 3d
       0.053482473 0.12153451 0.07816612 0.04348018
000220 d3 90 ef 3d b7 24 46 ba a5 9a 02 bd fa 4c c6 bd
       0.11697545 -0.00075585715 -0.03188576 -0.09682651
000230 24 ed 93 bd 6d 39 df 3d b1 d4 2b bd c1 de 8b bd
       -0.07222965 0.10899625 -0.041950885 -0.06829596
000240 af 45 b3 bd 50 72 61 be 67 84 a6 bd da cf e2 bd
       -0.087535255 -0.22016263 -0.081307225 -0.11074801
000250 5e 06 23 be 71 8d ef 3d 55 72 61 bd ce dd 31 ba
       -0.15920398 0.116969 -0.055040676 -0.00067850656
000260 e6 2c c4 3d 26 14 09 be f8 2a f8 3c f6 84 f2 bb
       0.09578876 -0.13386592 0.030293927 -0.007401104
000270 04 46 90 bb aa 1a 4a 3b 6e 1f 9f 3d 51 6a dd 3d
       -0.0044028778 0.0030838647 0.077696666 0.10811294
000280 96 90 48 3d 79 16 0e 3e 35 be ca bd 67 e8 67 ba
       0.048966013 0.1387576 -0.0989956 -0.00088465813
000290 da 84 f2 bd b2 19 12 3e 6a 69 e7 bd 36 1a c0 bc
       -0.11841746 0.14267614 -0.11299403 -0.023449998
0002a0 5d f1 fc 3c a1 b1 6d bd 0f e3 01 bc 82 0a 37 3e
       0.03087681 -0.05803073 -0.00792767 0.17875102
0002b0 26 9f b4 bc 68 05 e7 3d 10 92 0b 3e c3 3c bc bd
       -0.022048544 0.11280328 0.13629937 -0.09191277
0002c0 4c 16 14 be 01 d1 5c bb d9 fc 57 bd de c8 79 3d
       -0.1446163 -0.0033693912 -0.05273137 0.060982578
0002d0 e7 0b ad bd 78 49 a9 3d 98 32 42 3d 10 7f 73 3d
       -0.08449536 0.08265966 0.04741153 0.059447348
0002e0 ee d1 6f 3e 4e 12 48 3d f3 5b 03 3e 51 27 7a 3e
       0.23419926 0.04884558 0.12828045 0.2442906
0002f0 1d 4d e0 3d d9 ae 91 3d b6 03 21 be c6 9f ca bd
       0.10952208 0.07113428 -0.15724072 -0.098937556
000300 d4 0c c2 3c d2 f6 2f be 22 70 cf bd 58 e7 3f 3d
       0.023687758 -0.17183998 -0.101288095 0.046851486
000310 54 ba 9e bd 3e fc 9f 3c 5a 8e 7b bd 58 34 19 be
       -0.07750383 0.019529458 -0.061415054 -0.14961374
000320 0e d7 5a be fa dd d7 ba eb f1 90 bd d4 a7 eb bd
       -0.213711 -0.0016469352 -0.07077392 -0.1150662
000330 3e 78 91 bd ae 48 3f be 30 53 4b bd cd 8e 05 be
       -0.071030125 -0.18680069 -0.04963988 -0.13042755
000340 65 95 8f bd 1c 87 4d 3d f9 ff d8 3c 9a d4 83 bd
       -0.070109166 0.05017768 0.026489245 -0.06437035
000350 b0 40 93 3d 04 d5 ee bc 46 26 49 3e 24 0c 20 3e
       0.071900725 -0.029154308 0.19643506 0.15629631
000360 cb d9 1a 3e 4d e3 7e bd 9a b7 2b be 3e cf 57 3e
       0.15122144 -0.06222849 -0.16769257 0.2107515
000370 da 1d 08 bb 23 d0 44 be 6e e3 7e 3e 40 51 15 3e
       -0.0020769746 -0.19220023 0.24891445 0.14581776
000380 44 d7 19 be 39 84 30 3e c9 da 46 3e 01 c5 c4 3d
       -0.15023524 0.17237939 0.19419397 0.09607888
000390 4f be c0 3d 9b c5 dc 3d 47 6e 70 3d 90 7c 0b 3d
       0.094112985 0.10779878 0.05869892 0.03405434
0003a0 b3 75 40 3a 0d 4a 34 be 1a 68 6f bd b6 5f f6 3d
       0.00073417573 -0.17606373 -0.05844889 0.12029974
0003b0 bc 36 60 3d df 05 b4 bd e8 36 9e 3d d3 c7 d7 3d
       0.0547397 -0.08790182 0.07725316 0.1053616
0003c0 6b 9f 3e bd 9b 76 7c bd ee c1 d4 3c 7f 91 a5 3d
       -0.04653875 -0.06163655 0.02597138 0.08084392
0003d0 87 95 23 3d 63 8f 45 bd 9a 92 0a bd 77 ee ed 3d
       0.039937522 -0.048232447 -0.033831216 0.11617749
0003e0 3c e5 8e bd 13 86 b9 3d ee 49 37 3e 7c 7d 0b be
       -0.06977317 0.09058776 0.17899296 -0.13622087
0003f0 73 20 f0 3c 91 c1 96 bd 3e 59 d0 3c 9a 94 26 3d
       0.029312348 -0.073611386 0.025433179 0.04066906

weight f4 [8]
000000 a9 8a 61 3f 25 89 7b 3f 18 49 6d 3f 6c e3 55 3f
       0.88102204 0.9825614 0.9268966 0.83550143
000010 c6 82 82 3f 84 89 6a 3f 96 f3 8b 3f b7 fb 7d 3f
       1.0196159 0.9161608 1.0933712 0.9921221

bias f4 [8]
000000 41 a4 15 3c d8 85 e9 3d e0 d5 82 3c 84 0c fb 3b
       0.009133399 0.11402482 0.015971124 0.007661404
000010 7d 67 e6 bc 94 3f 75 bd 61 77 bb 3d f6 3c aa 3d
       -0.028125519 -0.059875086 0.09153629 0.083124086

running_mean f4 [8]
000000 33 39 ef be c5 95 e5 3b d7 2b c7 bd e0 50 c3 3e
       -0.46723327 0.0070063793 -0.09725159 0.3814764
000010 a6 59 67 be f8 df fe be 3b a9 32 3e fc aa aa 3b
       -0.22592792 -0.4978025 0.17447369 0.005208371

running_var f4 [8]
000000 a4 2f 05 3f dd 4a 0c 3f 65 19 38 3f d5 91 14 3f
       0.5202582 0.5480173 0.7191375 0.5803502
000010 a4 11 04 3f 49 49 06 3f 77 26 31 3f 09 ae 33 3f
       0.5158942 0.52455574 0.6919932 0.7018743

weight f4 [8, 8, 3, 3]
000000 3f 30 ab bd be bd f5 3c 53 3c 61 3e cb ca 00 bd
       -0.083588116 0.029997703 0.21995668 -0.0314434
000010 de d5 a8 3c 55 62 4d 3d ce bd 8f 3d 77 bb d8 bd
       0.020609792 0.050142605 0.07018624 -0.10582631
000020 a7 56 3a bd ac ba 92 bd c3 b8 cc bd ee ff cd bc
       -0.045492794 -0.07164511 -0.09996178 -0.02514645
000030 01 8a f9 bc 34 72 be bd be 53 34 bd 60 e7 a8 bc
       -0.030461313 -0.09299126 -0.044025175 -0.02061814
000040 00 4f 5d bd 84 cd de 3d 5d 35 72 3e ee 3b 94 3e
       -0.05403042 0.10879043 0.23653169 0.28951973
000050 cc ec 5d bd f8 ef a5 3d 41 1b 1d 3e cd 9f 29 be
       -0.054180905 0.08102411 0.15342428 -0.16564865
000060 55 50 09 bd 68 5e 83 be 7d 63 92 be 29 34 c1 bd
       -0.033523876 -0.25657964 -0.2859153 -0.09433777
000070 f7 d4 84 bd 0b d3 06 bd e4 d6 ee bd c3 07 31 be
       -0.06485932 -0.03291611 -0.11662081 -0.17288117
000080 3f 4d e5 3c 4a ad c5 bd 26 91 2e be cb 5f a1 3d
       0.027990935 -0.09652193 -0.17047557 0.07879599
000090 42 a9 07 bd 56 8b 18 3e b0 49 28 bd 09 cb c5 3d
       -0.0331204 0.14896902 -0.0410859 0.096578665
0000a0 83 e7 71 bd 2a 12 0a be fa c2 22 be 68 c5 8d bd
       -0.059058677 -0.13483492 -0.1589469 -0.06922418
0000b0 dc 24 80 bd 5d 78 5f be 22 c6 2b be 05 70 3c bd
       -0.0625703 -0.21823259 -0.167748 -0.046005268
0000c0 6b 09 8e bd b0 ac b0 3c 51 f9 50 3d 14 84 45 3d
       -0.0693539 0.021566719 0.051019017 0.048221663
0000d0 2a dc 96 b9 42 e9 37 3e a4 a3 8c be 1f aa bc 3d
       -0.00028774265 0.17960075 -0.27468598 0.092121355
0000e0 6a 8a 5d be df c5 0c 3e bf d9 db 3d 60 39 36 be
       -0.21634832 0.13747357 0.10734891 -0.17795324
0000f0 5b e1 9e 3d b5 34 70 bd 1e fb 3d be 6d 84 d0 3d
       0.07757827 -0.058644015 -0.18552825 0.10181508
000100 3d 88 2e 3d 8a 5e 60 bd fe 3a 53 be 40 e8 a7 bc
       0.042610396 -0.05477766 -0.20627972 -0.020496488
000110 54 19 ee bd cb fd 36 be 31 8a 6f 3d b8 41 c1 bd
       -0.11625925 -0.17870252 0.0584814 -0.09436363
000120 35 36 09 be ba e0 c1 3c 1c be 99 3d c7 de e9 3d
       -0.13399585 0.023666728 0.075069636 0.114194445
000130 39 41 ca 3c 5a b7 28 3d aa 07 30 3d 83 f1 23 be
       0.024689304 0.041190483 0.04297606 -0.16010098
000140 4f 1a e0 bd ba 48 13 be d7 e1 6e be 3f 61 6c be
       -0.10942518 -0.14383212 -0.23328339 -0.23083971
000150 08 8c 08 3d 72 c7 d6 3d 28 26 d6 bd 6e 88 a5 3c
       0.03333667 0.1048726 -0.104564965 0.020206656
000160 44 61 18 3e 4e e0 40 3e 5b 5e ac 3d 6d 20 53 3e
       0.14880854 0.18835565 0.084164344 0.20617838
000170 14 cc 04 3d 9d fe 94 3d e0 3d 21 bd 8a 19 0f bc
       0.032421187 0.07275126 -0.03936565 -0.008734116
000180 8e 79 58 be 8d 2e b6 bc 4e cf a7 bc 92 fb bc 3d
       -0.2114012 -0.022238994 -0.020484593 0.09227671
000190 bd 24 53 3e c9 04 8e 3b 17 c9 30 bd 5a 8c 3f 3d
       0.20619483 0.0043340665 -0.043160524 0.04676471
0001a0 d5 c2 22 3d e2 ab e9 bd e7 f4 d3 bd 54 1e 5b bd
       0.039736588 -0.11409737 -0.10349446 -0.05349572
0001b0 9a 4d bb 3d 52 a0 2d 3e 74 7b 44 3e 6d 05 5e bd
       0.09145661 0.16955689 0.19187719 -0.054204393
0001c0 7c e7 5f be 41 42 3c bd 18 01 41 bd 08 99 a1 bd
       -0.21865648 -0.045961622 -0.047120184 -0.078905165
0001d0 12 cd 00 bd 80 20 2b bc 9f b4 b1 bd b3 b1 85 be
       -0.03144557 -0.01044476 -0.08677029 -0.26112136
0001e0 c4 87 48 3e f6 68 55 3e 84 6f 0b bd 53 53 06 bd
       0.1958304 0.2084082 -0.034041896 -0.032794308
0001f0 a3 d2 46 3d 27 b7 7a 3c d1 e1 77 bd d0 80 04 be
       0.048540723 0.015302456 -0.06051809 -0.12939763
000200 f1 29 b1 3d 2c a9 4c be a4 58 92 bc 06 86 76 be
       0.08650578 -0.19986409 -0.017864533 -0.24074563
000210 68 58 d1 3d 4f 85 87 3e 0e fc 93 3d b1 78 7e 3e
       0.1022194 0.26468894 0.0722581 0.24850728
000220 ed 90 89 3e 39 d8 fc 3d fc 3b 12 bb 97 1f 00 3c
       0.26868382 0.12345929 -0.0022313586 0.007820032
000230 81 0e d5 3d 8c 8b 6e be cf 14 7f be f2 b6 47 be
       0.10403157 -0.2329542 -0.24910282 -0.19503382
000240 0b 8f 25 3e 66 23 50 3d 1e e9 46 be 0b da 83 3e
       0.16167848 0.05081501 -0.19424865 0.2575229
000250 87 50 dd 3d ec 3d 13 be 0b 2e ae 3d 9a ab fe 3d
       0.10806375 -0.1437909 0.08504876 0.12435074
000260 eb 92 a0 bd c9 49 84 bc 09 cc 95 3d d9 94 db 3d
       -0.078405224 -0.016148465 0.07314307 0.1072175
000270 2a 1f f4 bc 0a 61 34 3e 7b ee 03 3e d2 e0 be 3b
       -0.029800016 0.17615142 0.12883942 0.0058251405
000280 cd 48 ea 3d b6 fb 63 3d eb eb 04 be a2 19 f1 3d
       0.11439667 0.055659972 -0.1298062 0.11772467
000290 9d ce 0d 3e c3 87 0b be bf 2f f2 3d 77 48 ce 3d
       0.13848348 -0.13626008 0.11825513 0.10072415
0002a0 03 14 0c be df b1 36 3d 0e 11 99 3d 75 52 c1 b9
       -0.13679509 0.044603225 0.07473956 -0.00036873264
0002b0 2f e6 00 bd 04 c9 82 bd e0 4c 00 3d cf 3b ef 3d
       -0.03146952 -0.06385997 0.031323314 0.116813295
0002c0 4a d1 a7 3c c9 ca 0c 3e 60 89 91 3d 24 93 78 bd
       0.020485539 0.13749231 0.0710628 -0.0606872
0002d0 13 c4 97 bd 79 57 16 3e 45 d7 6c be 49 36 81 3c
       -0.07410445 0.14681806 -0.23128994 0.015772955
0002e0 1b 1a 1f 3e 6c 44 55 be ef 50 21 bc 6e 86 95 3d
       0.15537302 -0.20826882 -0.009845956 0.07301031
0002f0 f9 4e 9f bd 31 09 26 3e f5 42 8d bd 24 a2 76 3d
       -0.07778735 0.16214444 -0.06897537 0.060213223
000300 91 49 52 3e 6d ab 8b bc e4 11 2b bd 2d 89 01 be
       0.20535876 -0.017049516 -0.04176511 -0.12649985
000310 ee 88 5d 3d fe f1 a7 3c b7 ae db bd a8 2c 51 bd
       0.054085664 0.020501133 -0.107266836 -0.05106798
000320 7d 1f 96 bd 4b d6 d2 bd f9 9c c0 3c b8 5c 20 3d
       -0.07330225 -0.102947794 0.02351235 0.039150923
000330 72 40 2c be 95 60 bd bc 44 26 30 3c 4c a5 6e bb
       -0.16821459 -0.023117343 0.010751311 -0.0036414443
000340 02 4c 7d 3d b9 c0 b1 3b 6f e4 3b be e0 09 77 3e
       0.061840065 0.0054245857 -0.18348859 0.24124861
000350 a9 b8 88 bd 5b 3f de bd 11 15 50 3e ce b0 e3 ba
       -0.06675846 -0.10851928 0.20320536 -0.0017371417
000360 54 bb 87 bd f2 b7 4e be fc be 4f bd 97 c3 8a bd
       -0.06627527 -0.20187357 -0.050719246 -0.06775587
000370 7c 54 23 be a5 bc b4 bd d2 38 5d be 7c 46 45 bd
       -0.15950197 -0.088250436 -0.21603706 -0.048162922
000380 43 bc 55 bd d6 4a 7b bd d2 3d ca bb 7f 83 21 3e
       -0.052181493 -0.061350666 -0.0061719203 0.15772818
000390 0a 9f c8 bd 3b 2c c3 3d 67 42 90 3b 74 c8 ff bd
       -0.09795959 0.09529921 0.004402447 -0.12489405
0003a0 47 c0 81 bc 68 50 92 3d 7f 59 70 3d a4 9d e1 bd
       -0.015838755 0.071442425 0.0586791 -0.11016396
0003b0 6a cf 99 bd ac 22 7f 3d 33 99 01 be a4 e7 e0 bd
       -0.07510264 0.062288925 -0.12656097 -0.10981682
0003c0 b2 f8 c4 3b 06 b3 4f bd b2 6c 07 be 68 cc 02 bd
       0.006011092 -0.05070784 -0.13225058 -0.03193322
0003d0 79 ce cd 3b 88 6b 0c 3e d3 71 3b bd fc 6a aa 3c
       0.006280717 0.13712895 -0.045762848 0.020802967
0003e0 53 f6 cb bd ae b9 56 bb 22 ea 17 3e f2 db 05 3d
       -0.09959092 -0.0032764482 0.14835408 0.03268046
0003f0 b4 da 12 3e ba 74 13 3e af ae 18 3d 63 5e c7 3d
       0.14341241 0.14399996 0.037275966 0.097348

weight f4 [8]
000000 8a a2 82 3f 40 38 81 3f b2 4a 81 3f 0d f9 79 3f
       1.0205853 1.0095291 1.010092 0.97645646
000010 f5 19 84 3f e5 a6 71 3f 8d 76 82 3f 08 5f 7d 3f
       1.0320421 0.94395286 1.0192429 0.9897313

bias f4 [8]
000000 44 c2 77 3c 9e 8c 74 be 94 3a 0d bd b4 a9 3d 3d
       0.015122 -0.23881766 -0.034479693 0.04630442
000010 53 60 3b bd ea 44 fd bd ff 14 b3 bc 23 67 af bc
       -0.04574616 -0.1236666 -0.021860598 -0.021411484

running_mean f4 [8]
000000 d0 6f c2 bf 0f b8 76 bd 6a 27 5a 3f 7a 45 f8 bf
       -1.5190372 -0.060234126 0.8521639 -1.9396203
000010 66 4f 93 be e7 f5 ad 3f 91 50 42 3f 30 d9 ba be
       -0.28771514 1.3590668 0.75904185 -0.36493826

running_var f4 [8]
000000 9d 2e c9 3f 9e b7 3d 3f 98 78 82 3f 71 53 fe 3f
       1.571735 0.741083 1.0193052 1.9869214
000010 d3 9b 86 3f 52 d9 49 3f c4 76 b8 3f 7d 95 85 3f
       1.0516304 0.7884723 1.4411244 1.0436245

weight f4 [8, 8, 3, 3]
000000 bb 1c 3e bd 0f a7 30 bd 3d 11 8b bd 90 21 42 3b
       -0.04641412 -0.04312807 -0.06790397 0.0029622056
000010 56 de 39 bc f3 11 a1 bd 61 96 23 be 33 33 73 bc
       -0.011344513 -0.07864752 -0.15975334 -0.01484375
000020 af 8d ab bd c6 b9 9e bd 67 a0 8d bd 80 d0 30 bd
       -0.083766334 -0.07750277 -0.0691536 -0.04316759
000030 5c 10 fe bd 85 99 52 3d 7f e4 9e 3d bf b6 13 be
       -0.12405464 0.05141594 0.07758426 -0.14425181
000040 67 b9 66 bd 3f 7c be 3d 71 52 18 3d 4a 5b 55 3d
       -0.056329157 0.09301042 0.037187997 0.052089013
000050 8f 5b 31 bc ca cb f9 bd 33 c0 b8 3b 95 97 26 3d
       -0.010825052 -0.12197073 0.0056381463 0.040671904
000060 dd 6e 74 3d 29 c4 2e bd 08 96 30 bb da 27 f8 bd
       0.05967604 -0.04266754 -0.0026944894 -0.12116976
000070 6a fb c6 bb 80 8d bd 3d 83 b4 05 3c 37 f9 72 3d
       -0.0060724514 0.092555046 0.008160713 0.0593197
000080 13 a4 1a 3d 7f b2 21 3e a8 43 0a 3d 13 3e 7b 3c
       0.03775413 0.15790747 0.03375593 0.015334624
000090 84 3e 1e 3c ef bb 28 bb 58 59 e9 bc 9c a7 53 bd
       0.00965846 -0.0025746783 -0.028484985 -0.051673517
0000a0 c3 ad e6 3c df ba f6 3d 06 fe 88 bd 6e 29 aa bc
       0.028159028 0.120473616 -0.06689076 -0.020771708
0000b0 a7 03 ed bc f6 f2 51 bd 88 06 97 3d 3e 42 cf 3d
       -0.028932406 -0.051257096 0.073742926 0.101200566
0000c0 13 75 de bd 51 68 87 bd aa ab 6d 3a 00 72 d7 bc
       -0.10862174 -0.06611694 0.00090664125 -0.026299477
0000d0 3d 46 19 bd 77 4e 62 bd 7a b7 4f bd 5f ff 38 3d
       -0.0374205 -0.05525061 -0.050712086 0.045165416
0000e0 c4 a2 e7 3c c5 fe ea bd bc 39 41 bd a7 1e 97 3d
       0.028275855 -0.11474375 -0.0471742 0.07378893
0000f0 93 02 60 bc 1d 3e b9 bd 57 ee 92 bd 9c e9 69 be
       -0.013672489 -0.0904505 -0.07174366 -0.22843021
000100 bd 90 c5 bd 60 8b 6e be 8f 09 66 be af d4 6f be
       -0.09646747 -0.23295355 -0.22464584 -0.23420976
000110 26 f7 00 be 67 6f aa bd b0 d2 3b bc 30 bd 0f be
       -0.1259428 -0.083220296 -0.011463806 -0.14037013
000120 3b 94 cf bd 6e 10 c5 bc 27 81 a2 bd 43 45 37 3b
       -0.101356946 -0.024055686 -0.0793479 0.0027964867
000130 36 65 49 3d 11 e5 02 3e 26 3d 1c bc ab ad 9c 3c
       0.049168788 0.12782694 -0.009536063 0.01912578
000140 b2 52 1b 3e 70 5b 35 bd 68 60 5c bd f1 63 14 3c
       0.15168265 -0.044276655 -0.053802878 0.009057031
000150 4b be 3f bd de b8 7f 3d 2c e2 20 bd 89 15 01 bd
       -0.046812337 0.062432162 -0.039278194 -0.03151468
000160 4d ca 36 bd 5b 03 d5 ba c1 4a db bd 34 5c 46 bd
       -0.044626523 -0.001625161 -0.107076176 -0.048427776
000170 b7 ee 9d bd cc 45 dd bd 62 48 12 be b4 2d 01 be
       -0.07711547 -0.10804328 -0.14285424 -0.1261509
000180 af 2e 80 bd 75 93 bd bc d8 8c 01 bc 68 cd b3 3d
       -0.06258904 -0.023141602 -0.007907115 0.087794125
000190 fd 3c ce 3d ac 28 42 3e fd 6e 9e bd 2b 2e 03 bc
       0.10070226 0.18960828 -0.07736013 -0.008006613
0001a0 30 f7 bb 3d 88 7b e3 bd 65 3f c2 bd 78 9c e7 bc
       0.09178007 -0.11107546 -0.09484748 -0.028272852
0001b0 f6 75 43 be df 80 01 be da d6 0d be f2 91 4f be
       -0.19087967 -0.12646817 -0.1385149 -0.20270517
0001c0 86 7f d7 bd 0a 12 dd bd e6 01 d4 bd fe 52 13 be
       -0.1052237 -0.10794456 -0.103519246 -0.14387128
0001d0 ab a9 ff bb 76 5a 9e 3d fb 45 52 3d 2c d0 77 bc
       -0.0078022084 0.07732098 0.05133627 -0.015125316
0001e0 c7 cf 43 3d 21 6e fd bc 02 72 60 bd d6 3c f1 3d
       0.047805574 -0.030936303 -0.054796226 0.11779182
0001f0 e1 26 80 bd 89 fc f4 bd 69 0b fd 3c 1c 2a 1b 3d
       -0.062574156 -0.1196223 0.03088923 0.037881956
000200 86 0f cb ba 53 aa 0c 3e 11 56 e5 3d 3c 15 d2 3d
       -0.0015492297 0.13736849 0.111980565 0.102579564
000210 a4 23 3b bc 19 c4 44 bb 7c ff ac bc 57 ef 0f 3d
       -0.011422072 -0.003002411 -0.021117918 0.03514036
000220 6c 32 a3 3d e5 82 e0 3a 6c 17 10 3d 93 e9 ae 3c
       0.079686016 0.0017128853 0.035178587 0.021351611
000230 a7 df ea 3d 1f 7a ec 3d fa 41 0e 3e ee 44 f3 3d
       0.114684395 0.1154673 0.13892356 0.11878382
000240 a6 51 51 3d a4 ac 9e 3d 2d 6d 2d 3e 64 57 06 3a
       0.051103257 0.07747772 0.16936179 0.00051247166
000250 f0 f9 25 bd 75 e6 4b 39 84 1c 56 3d b9 13 85 3d
       -0.040521562 0.0001944544 0.05227329 0.064979024
000260 f3 b4 6f 3d 18 a9 49 bd 2c 64 fe bd 1c 4f 0e 3d
       0.058522176 -0.049233526 -0.1242145 0.034743413
000270 ba 05 ad bd 41 e7 c3 bd 2c e1 cb bd 25 f4 26 bd
       -0.08448358 -0.095655926 -0.099550575 -0.040760178
000280 17 8a ce bd c2 d5 c7 3b 64 4e 31 be 4d 2d 11 be
       -0.10084932 0.00609848 -0.1731506 -0.14177437
000290 d9 13 a8 bd 6c 3f bb bd 59 3c 31 be 56 08 f7 bd
       -0.08206911 -0.09142956 -0.17308177 -0.12062137
0002a0 b2 85 1d be 5b b5 9a 3b bc b8 b8 bd d9 cd cc 3d
       -0.15383032 0.0047213263 -0.0901961 0.100002
0002b0 5d b8 2d 3e 79 8a 95 3c d0 68 72 3d a3 2b 19 3e
       0.1696486 0.018254505 0.05918199 0.14958052
0002c0 bd be 9c 3d 9f e9 61 be c0 ac ad 3b 67 60 fa 3d
       0.07653568 -0.22061776 0.0053001344 0.122254185
0002d0 6b e1 2e be dc 6b f6 3c 97 a6 d4 3c 7d 13 05 be
       -0.17078178 0.030080728 0.025958342 -0.12995715
0002e0 fd 81 02 be ef cd 00 be 94 f4 c3 bd 6e 87 b3 bd
       -0.12744899 -0.12578557 -0.09568134 -0.087660655
0002f0 c0 b8 37 be 56 1d d0 3d f8 d9 b6 3d 87 c8 79 3d
       -0.1794157 0.101618454 0.08928293 0.060982253
000300 01 20 6a bd 9e ef 85 bc 82 8b eb ba c3 91 65 3d
       -0.057159428 -0.01634961 -0.0017970654 0.056047212
000310 51 c7 f9 39 0e b6 44 3c 5b 0b d3 bd 74 68 4e be
       0.00047641483 0.012006296 -0.103049 -0.20157033
000320 dc c7 0a be 1c 9c fb bc f8 c7 18 bd 79 39 05 be
       -0.13552803 -0.030714087 -0.03730008 -0.13010205
000330 77 a5 f9 bd a5 fb 15 bd ad 32 c2 bd 0f 7c ca 3c
       -0.12189763 -0.03661694 -0.09482322 0.024717359
000340 58 89 d3 bd 11 25 09 3d 24 3b f9 3d 9f 2e e4 bb
       -0.103289306 0.033482615 0.12169483 -0.0069635655
000350 a3 bb 36 3d b6 04 aa bd 9e a6 40 bd be 48 3e 3d
       0.044612538 -0.0830168 -0.0470339 0.04645609
000360 ec d0 9d 3c 57 0c d8 3c 8e 03 5b bd cb 51 12 be
       0.01926466 0.026373072 -0.053470187 -0.14289014
000370 85 d3 0f bc 8b d0 ca 3d 15 da 33 3d 10 ab b6 bd
       -0.0087784575 0.09903058 0.04390915 -0.08919346
000380 96 e2 f5 3d ec 84 1e bd cd 00 90 bd d7 e1 28 3c
       0.120061085 -0.038700983 -0.07031403 0.010307751
000390 c1 d8 c2 bd c6 d6 0d be f5 67 85 3d a1 41 87 bd
       -0.09513999 -0.13851461 0.06513969 -0.066043146
0003a0 cc e6 b2 3c 1a f5 8e bc be 33 45 3b ee 93 aa 3d
       0.021838568 -0.017450858 0.0030090655 0.083289966
0003b0 b7 16 4e 3e 39 f1 6c bd 00 90 3a 3d e9 f7 84 3d
       0.20125853 -0.057847235 0.045547485 0.064925976
0003c0 1c a0 2d be 4d e8 64 bd 08 30 61 3d af 9b 12 3e
       -0.16955608 -0.0558856 0.054977447 0.14317201
0003d0 5e 5e 0c 3e ba b8 45 3d a3 24 1f 3e c9 fc 46 3e
       0.13707873 0.048271872 0.1554132 0.19432367
0003e0 06 86 48 3e cb 13 5a 3d 53 ca 34 3e 72 9a 06 3d
       0.19582376 0.053241532 0.17655306 0.032862134
0003f0 93 24 59 bd a9 fd c6 bd c9 3d d0 bd 39 68 ac bd
       -0.053013396 -0.097163506 -0.101680346 -0.084183164

weight f4 [8]
000000 cb b5 7e 3f 26 5f 8b 3f de 02 8f 3f df 59 80 3f
       0.99496144 1.0888412 1.117275 1.0027426
000010 33 d1 84 3f 2f 79 72 3f 51 e6 77 3f 30 8e 63 3f
       1.0376343 0.9471616 0.9683581 0.88888836

bias f4 [8]
000000 90 79 78 3d d1 12 89 bd 29 d9 0c 3e cc 90 84 3d
       0.060662806 -0.06693042 0.13754715 0.0647293
000010 d0 98 84 3d 38 df 88 3d 8a 86 a5 3d 32 7d b7 3c
       0.06474459 0.066832006 0.08082302 0.022398565

running_mean f4 [8]
000000 d7 fe 42 bf 90 99 1e be fd e1 1e bf 89 98 29 3e
       -0.76170105 -0.15488267 -0.6206358 0.16562094
000010 8e b1 cb be 30 f8 fb 3e f0 5e 11 3f d0 22 b9 be
       -0.397839 0.4921279 0.5678549 -0.36159372

running_var f4 [8]
000000 66 0c 10 3f 53 30 db 3e 9e 9e 57 3f af 06 13 3f
       0.5626892 0.42810306 0.84226406 0.57432073
000010 be 31 12 3f ab 3d 05 3f 8f e3 f1 3e 3a 73 e1 3e
       0.5710715 0.5204722 0.47243926 0.44033223

weight f4 [16, 8, 3, 3]
000000 af 2e 24 3e 2b 5a af 3d 18 36 17 3e 73 4f 0a 3e
       0.16033433 0.0856212 0.14766729 0.1350687
000010 f0 02 d7 3d 9c 7e a0 3d a8 60 30 3d 27 a3 f4 3d
       0.10498607 0.07836649 0.04306093 0.11945181
000020 cb 52 a6 3d fd 70 c5 bd 32 71 ff 3c 6d eb 3b 3d
       0.0812126 -0.096406914 0.031181905 0.045878816
000030 b2 f9 53 bd 64 b7 2e bd 08 4d a2 3d c3 af 88 3d
       -0.0517518 -0.042655364 0.07924849 0.06674149
000040 8f 52 12 3e e9 44 12 3e 71 9f 1b 3e f5 80 5b bd
       0.14289306 0.142841 0.15197541 -0.05358978
000050 9c 40 04 bd 0e 07 a3 3c 50 ab c6 3a b1 97 d8 3d
       -0.03228818 0.019900825 0.0015157256 0.10575808
000060 c2 9f 48 bd 75 60 e3 3c 0a d0 38 3e 60 55 3e be
       -0.048980482 0.027755955 0.1804811 -0.18587255
000070 49 d1 ae bd e0 86 29 3d 8f e4 a0 bd 97 71 5f bd
       -0.08536012 0.041388392 -0.07856094 -0.054551687
000080 6e 80 02 bd 83 97 f6 bd a6 fd dd bd 28 7b f1 3c
       -0.03186076 -0.12040617 -0.10839395 0.02947767
000090 0f 88 ec 3c b9 b9 00 3d 7f e5 2c bc e1 b5 4e 3c
       0.028873472 0.03142712 -0.010552763 0.0126166055
0000a0 b8 19 63 bd 76 2f 0f be 17 39 b6 3c c5 d5 d2 3d
       -0.05544445 -0.13982949 0.02224402 0.102946796
0000b0 cc ce 11 bd a8 57 c5 3d 04 44 c8 3c 14 60 a9 3d
       -0.035597607 0.0963586 0.024446495 0.082702786
0000c0 ec 5a 9b 3d 27 e6 d3 bc 12 1e a8 3c 35 04 72 bd
       0.07585701 -0.025866581 0.020522151 -0.059086043
0000d0 aa c1 e5 3b 13 62 b3 3d c9 27 1a 3e 7c 9a 2f 3e
       0.007011612 0.087589405 0.1505424 0.17148775
0000e0 61 8d 42 3d 7b 62 8f 3d e4 fd b8 3d 2c 67 bd 3d
       0.04749811 0.070012055 0.09032801 0.09248194
0000f0 1d 2a 3a 3d 31 f3 06 be c3 37 9e bd 56 b3 20 3e
       0.04545032 -0.13178708 -0.077254795 0.15693411
000100 da 93 17 bd 6c 27 1c 3d 2a ce 0a 3e fc f2 52 bd
       -0.037006237 0.038123533 0.13555208 -0.05150126
000110 40 84 b5 bd fd 04 9c 3d ff b7 a3 bc e8 3b c3 bc
       -0.08863115 0.07618139 -0.019985197 -0.023832276
000120 e7 55 ac 3d b4 65 98 3c 2c 73 b8 bd f5 b7 b4 bc
       0.08414822 0.018603183 -0.09006342 -0.022060374
000130 78 55 24 bd 52 fa bc bc 7f d7 b5 3d c4 68 b1 3c
       -0.04012057 -0.02306858 0.08878993 0.021656401
000140 de 86 f3 bd 40 3d 73 3d f3 82 6d 3d 76 e0 84 bd
       -0.11890958 0.059384584 0.05798621 -0.06488125
000150 39 2a cc 3d b2 da cb 3d 99 b5 84 bd 92 90 00 bc
       0.09968991 0.09953822 -0.064799495 -0.007846968
000160 a5 19 49 bd f4 f2 a9 3c 1e 7d 9b 3d 7d 14 fb bd
       -0.049096722 0.020745732 0.075922236 -0.12259767
000170 b8 df f4 bd ee 6a d9 3d 8a 61 14 bd bd 27 05 bd
       -0.119567335 0.10616098 -0.036225833 -0.0325086
000180 da b3 5a 3d da 12 28 3d d8 97 00 3c 19 35 34 bd
       0.053394176 0.041033603 0.007848702 -0.04399595
000190 a7 18 d3 bd be 7b 04 be 15 18 fa bc 85 c4 dd bd
       -0.103074364 -0.12937829 -0.030529061 -0.10828499
0001a0 6c 2f 96 bc 69 08 72 bd ba 70 76 3b ef 5b 45 be
       -0.01833316 -0.05909005 0.0037603811 -0.19273351
0001b0 3c 72 b6 bd b3 f4 d3 3d ec 04 a5 3d a3 73 20 bd
       -0.08908507 0.10349407 0.080575794 -0.03917278
0001c0 52 81 ad 3d 9c 39 5b 3d 8f dc 04 bd 46 3e 13 bc
       0.084719315 0.053521737 -0.032436904 -0.008987015
0001d0 61 06 9b 3d 42 03 e7 bd 0b bd 59 bd a1 f0 f5 bc
       0.07569576 -0.11279918 -0.0531588 -0.030021967
0001e0 69 b1 52 bd 3d 98 91 3d 7e 62 2e bc 19 7b 6f bd
       -0.051438723 0.07109115 -0.0106436 -0.058467004
0001f0 f2 bc 11 be 90 0b 2d be eb 8c a1 bd e7 d7 ea bd
       -0.14232233 -0.16898942 -0.07888206 -0.11466961
000200 5a 8d 9c bc c0 76 19 be ba 3b 73 3c e3 d2 fd bb
       -0.01911037 -0.14986706 0.014845783 -0.007746087
000210 1d 8c 1a be 0d 47 49 bd fc 12 a1 3d 70 14 6f bd
       -0.15092511 -0.049140025 0.07864949 -0.0583691
000220 59 60 b1 bd 37 26 e8 3d 5c b0 88 bd 1d 4d d2 bd
       -0.08660955 0.11335414 -0.06674263 -0.102686144
000230 80 19 11 be 0f e5 4e be 01 52 28 be 26 3b 32 be
       -0.14169884 -0.20204566 -0.16437532 -0.17405376
000240 f0 69 b3 3d 47 c5 83 3d 5d c0 62 bd 38 b4 8a bd
       0.0876044 0.06434112 -0.055359233 -0.06772655
000250 0d 0e 2c be 3e e1 6a 3d c9 08 96 3d e7 e1 9d bd
       -0.16802235 0.057343714 0.073258944 -0.07709103
000260 75 62 0c bd de 1f 1c be 61 eb 54 3d ad a0 dd bd
       -0.034273583 -0.15246531 0.051982287 -0.10821662
000270 c5 9e a5 3c b2 fc 42 bb df 3d 54 bb 7b 48 17 bd
       0.020217309 -0.002975267 -0.003238551 -0.036934357
000280 33 e9 b3 3d c7 be 86 3d 19 7a 96 bd f3 d2 90 3d
       0.087847136 0.06579357 -0.07347507 0.07071485
000290 77 ad 9b 3b 29 d0 25 3e 25 21 a2 3c 88 30 01 3e
       0.004750903 0.16192688 0.019791195 0.1261617
0002a0 b2 ff 07 3e 42 f4 2a 3e 11 3c 8a 3e bf d2 35 bd
       0.13281134 0.1669474 0.26998952 -0.044390436
0002b0 ec 0d e3 3d ea 0a 16 3e 65 f1 26 3b 49 54 da 3c
       0.1108664 0.14652601 0.0025473472 0.026651518
0002c0 93 0d ae bd d3 f9 56 3d 04 82 a8 bd 65 f9 0d 3d
       -0.08498683 0.052484345 -0.082279235 0.03466167
0002d0 51 2f 61 bd d6 fa 16 3d 34 5b 7d bb 22 d1 33 bd
       -0.054976765 0.03686031 -0.0038659098 -0.043900616
0002e0 b1 b4 37 bd 4f 5f fc 3c dd 08 8a 3c 33 ef 14 3d
       -0.044850055 0.030807165 0.01684993 0.03636093
0002f0 49 18 99 bd a3 d3 a8 bd f6 94 0b be d0 f0 1e be
       -0.07475335 -0.082434915 -0.13631043 -0.1552155
000300 73 fe b7 bc cf 38 f8 bd d2 92 e5 bd 56 96 86 bd
       -0.022460198 -0.121202104 -0.112096444 -0.06571643
000310 d8 d8 a4 bd 8e ed b3 bd 07 77 07 be cb 23 4c bd
       -0.08049172 -0.08785544 -0.13228999 -0.049838822
000320 c5 5b 59 bc 0d f9 ba bd 51 35 81 bd 92 86 a5 bd
       -0.0132665085 -0.09129534 -0.063089974 -0.08082308
000330 21 ab f3 bd 91 47 a8 bd 3e b8 b5 bd 98 c6 29 bd
       -0.118978746 -0.08216775 -0.08873032 -0.04144916
000340 36 40 1a bd 11 ac 6b bd a4 ed 4d bc 72 99 41 3d
       -0.037658893 -0.057537142 -0.012568865 0.047265477
000350 df 53 cf 3c 2c ae cb 3c 33 4f a0 bd 6a 34 c5 bd
       0.025308548 0.024863325 -0.07827606 -0.09629138
000360 40 16 d5 bc b9 c8 72 3d 82 91 73 bc cb 35 84 bd
       -0.026011586 0.059273455 -0.014866235 -0.06455573
000370 94 5a 18 3d 01 62 86 bd 72 8c 11 bd fc 6c 7d bd
       0.037195757 -0.065616615 -0.03553433 -0.061871514
000380 29 14 ba bb 04 fd a0 3c fb a2 c0 bc f1 66 93 bc
       -0.005678673 0.019651897 -0.023515215 -0.017993422
000390 e4 0d 87 3c 29 e4 2b 3c 54 de 16 bd 7e 5c 58 3d
       0.016486116 0.010491409 -0.036833122 0.052822582
0003a0 21 a4 8e 3c 25 bb ca bc fd 6c ee bb a7 64 af bd
       0.017412247 -0.02474744 -0.007276176 -0.0856412
0003b0 a6 cf 08 be f6 b4 14 3e 4d 02 0a 3d 91 f3 b5 3d
       -0.13360462 0.14522156 0.0336936 0.08884347
0003c0 ac b2 21 3e 71 2a 3e 3e 16 3b 00 3e a1 0d cc 3b
       0.15790814 0.18570878 0.1252254 0.0062272106
0003d0 d3 ae 47 3d 04 79 4f bd b1 30 18 ba a9 64 4f bd
       0.04875071 -0.05065252 -0.00058055954 -0.050633106
0003e0 18 e9 99 bd a7 02 2e be d2 ea 13 bd 40 85 e7 bd
       -0.07515162 -0.169932 -0.036112614 -0.11304712
0003f0 68 09 5b be ab 16 7d be b4 c0 67 be e1 19 c8 bc
       -0.21390307 -0.24715678 -0.22632104 -0.024426403

weight f4 [16]
000000 78 19 77 3f c5 71 73 3f 7f 62 82 3f 78 ae 84 3f
       0.9652324 0.95095474 1.0186309 1.0365744
000010 7a 26 79 3f ab 29 81 3f 93 db 7f 3f 98 ea 68 3f
       0.97324336 1.0090841 0.9994442 0.9098296
000020 34 cd 85 3f bc 39 7a 3f 90 f3 7b 3f c9 73 7e 3f
       1.0453248 0.97744346 0.9841852 0.99395424
000030 e8 b8 8d 3f 8e ed 80 3f 53 02 86 3f bc a4 77 3f
       1.1072054 1.0072496 1.0469459 0.9673574

bias f4 [16]
000000 15 1f 3b 3c dc bd f9 b8 da 8f a6 3d 96 f4 87 3d
       0.011420985 -0.00011908609 0.08132906 0.06638448
000010 b3 e8 91 bd e6 01 9f bc 07 6e 03 bd b5 85 b8 bd
       -0.07124462 -0.019410085 -0.032087352 -0.090098776
000020 eb 89 99 3d 16 1a 4f 3a 4a d9 8a bd 17 c4 09 bc
       0.07497009 0.00079003104 -0.06779726 -0.008408568
000030 b3 3d 5a bd 18 16 27 3d 61 71 b7 3d 6a f9 70 bc
       -0.053281497 0.040792555 0.08957172 -0.014707902

running_mean f4 [16]
000000 ac b5 dc 3f 36 fb 0d c0 6f 4d 69 bf 87 ef 63 bf
       1.7242942 -2.2184577 -0.9113378 -0.89037365
000010 78 b0 8e be ca c3 9e bd ad 97 b9 3f c8 4b 7f 3e
       -0.2786901 -0.077521876 1.4499413 0.24931252
000020 69 f6 0b be 6c 76 91 3d 43 97 2c c0 50 5a a7 3f
       -0.13668217 0.07102665 -2.6967323 1.3074436
000030 1a 60 80 bf 84 1c c8 bf af b9 1a 3f 37 fc 31 3f
       -1.0029328 -1.5633702 0.6043958 0.69525474

running_var f4 [16]
000000 4d 69 ae 3f ba e3 d2 3f 20 10 d5 3f 26 da 96 3f
       1.3625885 1.6475747 1.6645546 1.1785324
000010 7a 63 88 3f 5d fc b2 3f f0 84 b1 3f 36 80 67 3f
       1.0655358 1.3983265 1.3868694 0.9043001
000020 28 5c 8c 3f 3b 7b cc 3f 8c 33 67 3f de ed ac 3f
       1.0965624 1.5975107 0.9031303 1.3510091
000030 b6 1a 86 3f 6f 18 7c 3f 90 f6 f7 3f 56 a6 69 3f
       1.0476902 0.9847478 1.937212 0.91269433
