save/bs32ep30sf8.pth (torch_old, 736740 bytes, 102 tensors)

weight f4 [8, 3, 3, 3]
000000 57 1d 87 3e 4a fa a3 3e 30 30 1b 3e 88 04 57 3d
       0.26389572 0.32026893 0.15155101 0.052494556
000010 05 40 2c 3e 7f eb b6 bd 96 27 4f be 92 02 8b be
       0.16821297 -0.08931636 -0.20229945 -0.27150398
000020 17 1a 8d 3d 95 fe 15 3d 92 cb 87 bd e9 ac 46 be
       0.06889742 0.03661974 -0.06630625 -0.19401897
000030 0d cf 65 3d 7f 0e 31 be 84 59 96 3d 5d c9 cd 3c
       0.056105662 -0.17290686 0.073412925 0.025120432
000040 13 43 01 be 20 e2 a4 bb 7b 99 32 3d 57 59 58 be
       -0.12623243 -0.005031839 0.0436034 -0.2112783
000050 0a a8 35 be e0 59 0f 3e 72 34 60 3d 69 30 bb 3d
       -0.17739883 0.13999128 0.054737516 0.09140093
000060 73 53 12 3e 6e 2e 1f 3e 56 88 dc 3d 45 59 27 3d
       0.14289646 0.15545055 0.107681915 0.04085662
000070 53 cc 05 be e9 df 85 3d 0a c5 0a 3e c4 c7 4f 3d
       -0.13066225 0.06536848 0.13551727 0.05072762
000080 4d 9f 73 bd 0e ac 11 3e cd c3 07 3e 1d a6 b8 bd
       -0.059478093 0.1422579 0.13258286 -0.090160586
000090 60 13 2e be 02 68 00 3d 6c 0a 48 3d 70 95 18 be
       -0.16999578 0.03134919 0.048838064 -0.14900756
0000a0 30 16 03 3e d7 ba be bd e7 60 fb bd 38 e3 42 3e
       0.12801433 -0.093129806 -0.12274342 0.1903199
0000b0 86 f2 f1 bd f8 3e 6d 3d 7d f0 c9 3d 4c f3 bb bd
       -0.11813836 0.05792138 0.098603226 -0.091772646
0000c0 48 0d 7c 3d ab 7b 49 3e ea f7 d6 3d 47 50 39 bd
       0.061536103 0.19676082 0.104965046 -0.045242574
0000d0 8b 93 04 3e 33 55 b8 3d ae 24 4c be a5 ef 83 3d
       0.12946908 0.090006255 -0.19935867 0.06442193
0000e0 fe 04 3f 3e 0d 4e 95 3d 9b e0 80 bc fe 69 a8 3c
       0.18654248 0.07290278 -0.0157321 0.020558354
0000f0 0a 95 2d be 71 95 02 3d 32 d4 98 3c 49 35 89 bd
       -0.16951385 0.0318808 0.01865587 -0.066996165
000100 6d db 64 3d 28 b8 bf 3d 6a be 2e 3e 9a af 63 3d
       0.055873323 0.09361297 0.17064825 0.05558739
000110 40 f4 28 bc 9b 04 c9 3d 87 01 d2 3d 39 34 01 be
       -0.01031214 0.098153315 0.102541976 -0.12617578
000120 72 6e 91 3d fa 17 e4 3d ce 69 a9 3d 9b 53 f1 3d
       0.07101144 0.11137386 0.08272134 0.117835246
000130 b1 ea 55 3e 06 e6 b4 3c e3 6e 5b 3d c8 43 b5 bd
       0.20890309 0.02208234 0.053572547 -0.08850819
000140 58 20 b4 bb 4f 68 bd b9 c0 ce c6 bc a7 bd 0e 3d
       -0.0054970197 -0.00036126605 -0.024268508 0.034848835
000150 82 4f 84 bd 22 30 09 3e 8d a7 4f 3d 11 58 df bd
       -0.064604774 0.13397267 0.0506969 -0.10905469
000160 7c 7f 55 bd 17 35 39 be 59 aa 0c 3e f4 a6 01 bd
       -0.05212353 -0.18086658 0.13736857 -0.03165336
000170 74 30 5a bc af ef dd bd 94 8b 2a 3e b6 5b df 3c
       -0.013317216 -0.10836732 0.16654807 0.02726541
000180 3a 47 41 be 36 b2 b8 bd f4 c4 0f 3e 3e e4 60 3e
       -0.18874827 -0.09018366 0.14039975 0.21962067
000190 45 97 ee 3d 5a 47 e2 3d de 04 75 3d f9 c0 c6 3d
       0.11649946 0.110487655 0.059819095 0.09704775
0001a0 39 8b 1c 3e 14 c6 20 3d ca 7c 78 bd 8d d0 9d bd
       0.15287484 0.039251402 -0.060665883 -0.077057935
0001b0 3c c2 a1 bd cd 8d 87 be d2 3f 0a be be 62 48 be
       -0.078983754 -0.26475373 -0.13500908 -0.19568917
0001c0 9a 0f 9a be e5 95 83 3d 98 7a 3b 3e 82 28 9c bd
       -0.30090028 0.064250745 0.18308485 -0.07624914
0001d0 fd d3 8a 3e d6 2a ed bc bb 43 a9 bd 82 6f ff 3d
       0.2711486 -0.02895109 -0.08264872 0.1247244
0001e0 c2 88 8c 3d 7b 9e 89 be f5 06 80 bc 22 04 7f bd
       0.06862022 -0.26878724 -0.015628317 -0.0622598
0001f0 64 57 d9 bc 2a d0 c5 3d 90 5e f8 3d 3a a6 ea 3c
       -0.026530929 0.09658845 0.12127411 0.028643716
000200 70 da e6 3d 38 9d 8a 3d 5b 7f 9b 3d dc cb 83 bd
       0.112721324 0.06768268 0.075926505 -0.064353675
000210 ac e9 0c 3d 5f 16 21 3e b6 33 c2 3d 37 a7 98 3c
       0.034402534 0.1573119 0.09482519 0.018634422
000220 7f 70 08 bd d2 58 d0 bd 62 10 84 3d ca df c9 bd
       -0.03331041 -0.10173191 0.06448437 -0.098571375
000230 a1 d2 2c be 0b 43 d5 3d e6 d1 aa 3d 07 f8 2d be
       -0.16877224 0.10413178 0.08340816 -0.16989146
000240 da 5f d3 3d db 10 f2 bd e8 9d 10 be e0 8f 12 be
       0.103210166 -0.11819621 -0.14122736 -0.14312696
000250 52 fe d2 bc 43 40 a3 3d ec d0 74 3e f9 36 20 3e
       -0.025756035 0.07971241 0.23907822 0.1564597
000260 2a 97 b6 bc 70 42 22 be 94 3e 7d bd 99 fa a2 bc
       -0.022288878 -0.15845656 -0.061827257 -0.019894885
000270 90 5a 0d be 7b c7 13 bd 3a 01 05 3d d0 95 0f be
       -0.13804078 -0.03607891 0.032471873 -0.14021993
000280 35 a9 60 be b0 37 40 3d 82 fa e0 bc 31 84 12 3e
       -0.21939547 0.046928108 -0.027463201 0.1430824
000290 af 48 af bd 5b 3b ee 3d 08 18 7f bd 58 3e 0e be
       -0.08558785 0.11632415 -0.062278777 -0.1389097
0002a0 c9 44 f2 bd 92 be 24 3e 96 97 3d 3d 60 df 5c 3d
       -0.11829526 0.16088322 0.04628714 0.053923965
0002b0 85 44 de bd dd 01 1c be 6a 0e d7 bd 02 51 1f be
       -0.10852913 -0.15235086 -0.10500796 -0.15558246
0002c0 d8 8a c4 3d d7 bf d0 bd af 13 85 bd 3a ca 68 3d
       0.09596795 -0.101928405 -0.06497895 0.056833483
0002d0 d0 ee 03 be b7 23 1b bc fe 88 5d be 74 01 5d 3e
       -0.12884068 -0.009468964 -0.2163429 0.21582586
0002e0 ce 16 67 bb 53 a9 bc bd 08 6a 29 3d de 0d 4a 3c
       -0.0035261395 -0.092119835 0.041360885 0.012332408
0002f0 c6 2f 2e be 60 1f a4 3c 4f 7d d4 bd 6a 42 ae bb
       -0.17010412 0.020034492 -0.10375463 -0.0053179758
000300 8c 1d 7a 3e f0 e1 e1 bd 04 49 29 3e f9 76 47 3e
       0.24425334 -0.11029422 0.1653176 0.19478978
000310 d9 ad 1e bd f0 30 59 3d 27 fc 98 bd 63 7b 5d be
       -0.038740013 0.053025186 -0.07469969 -0.216291
000320 5c b0 e0 3d 2e 82 5c be 2d 1c 65 be ee 59 18 be
       0.10971138 -0.21534035 -0.2237403 -0.14878055
000330 cb 33 02 3e 0d 07 37 bd e7 d5 60 be 29 4c a1 bd
       0.1271507 -0.04468446 -0.21956597 -0.078758545
000340 8a 3f 59 bd 17 1c b4 3c f7 a8 91 3b 58 62 dc 3d
       -0.05303911 0.02198605 0.004445191 0.10760945
000350 7c 67 ee bd 7b 9d 63 3e c4 7b 6c 3b 93 37 18 be
       -0.11640832 0.22228043 0.0036084512 -0.1486495

weight f4 [8]
000000 29 15 81 3f 26 ee 77 3f 29 86 7d 3f 52 c5 82 3f
       1.0084583 0.9684776 0.9903284 1.0216467
000010 0d c8 80 3f 73 81 87 3f 55 8d 7f 3f 7e 0f 8f 3f
       1.0061051 1.058638 0.9982503 1.1176603

bias f4 [8]
000000 b2 9d a7 3d 24 21 bb 3c 12 07 9a 3c 4a 86 aa 3c
       0.08184375 0.022842951 0.0188022 0.020815987
000010 c9 d8 0c 3e 49 76 e9 bb 90 25 8a 3b 4b 66 3c 3d
       0.13754572 -0.0071246964 0.0042159036 0.04599599

running_mean f4 [8]
000000 51 71 a9 bd 73 7f 29 be e4 ff 68 be 97 1c b4 bd
       -0.082735665 -0.16552524 -0.22753865 -0.087945156
000010 4e 5e ee 3d 0d b7 43 3e f2 ce 31 3e 08 96 1a 3e
       0.11639081 0.19112797 0.173641 0.15096295

running_var f4 [8]
000000 6f 0e bd 3e e9 2a 60 3f e9 7d c4 3f 6b bb 52 3f
       0.36925074 0.87565476 1.5350925 0.8231723
000010 e3 63 29 3f bb 3c 9d 3f c9 58 76 3f 07 d8 50 3f
       0.6616804 1.2284158 0.96229225 0.8157963

weight f4 [8, 8, 3, 3]
000000 3c 28 fe 3d 34 f2 28 bd cd 6b 54 3d a5 ff f8 3a
       0.12410018 -0.041246608 0.05186062 0.0018997086
000010 bc ce 95 3d a8 5a a0 bd 2d c7 bf 3d f8 58 56 3d
       0.07314822 -0.07829791 0.09364162 0.05233094
000020 e5 51 98 3d bf 87 93 3c e5 a8 86 3d c0 fa 65 bc
       0.07437495 0.018009065 0.06575183 -0.014036834
000030 db a8 61 3c 8a c1 11 3e 35 56 71 ba 36 12 7e bd
       0.013773168 0.14233986 -0.0009206266 -0.062029086
000040 86 76 b4 bd a8 d0 79 3d c6 9f 2a bd 61 21 49 3d
       -0.08811669 0.060990006 -0.041656278 0.0491041
000050 9b fe 15 bd f5 54 ba 3d 5d dd d6 3c 27 be e7 3d
       -0.036619764 0.090982355 0.026228601 0.113155656
000060 d0 40 43 bb d1 67 54 bb ae fa 57 bc 9e 7a c2 3d
       -0.002979327 -0.0032410512 -0.013182325 0.094960436
000070 aa 3e 34 bd 83 2b d0 3d 20 ed 16 3e c4 ac 03 3d
       -0.044005074 0.10164549 0.14738894 0.032147184
000080 23 10 74 3d 0c 98 86 3d f4 e1 d1 ba 69 ce e4 3d
       0.0595857 0.065719694 -0.0016012774 0.11172182
000090 35 5c cb 3d 66 ae a0 3a 40 f0 29 bd 40 98 dc bc
       0.099296965 0.0012259006 -0.041488886 -0.026928067
0000a0 41 c5 8a 3d 90 28 a9 3d 1f d8 f8 3d e5 f1 0e 3e
       0.067759044 0.0825969 0.12150597 0.13959463
0000b0 d7 c2 0c 3c 9f 1c 22 3d 74 d7 eb 3c 16 44 46 3d
       0.008591375 0.039578076 0.02878926 0.048404776
0000c0 23 19 fe 3d 91 12 82 bd fc 2b b1 3d 2b 97 90 3b
       0.12407138 -0.063511975 0.086509675 0.004412552
0000d0 e5 c0 b8 3c e1 60 56 3d 04 34 e8 3d e7 ce c5 3d
       0.022552917 0.052338485 0.11338046 0.09658604
0000e0 a0 40 0c 3e 33 8a 06 bd f3 64 4b bd 98 08 b6 3d
       0.13696527 -0.03284664 -0.04965682 0.08888358
0000f0 2a c3 6e bd 87 7c 25 bd 57 e2 2f bd 4e 07 d1 3c
       -0.05829159 -0.04040196 -0.042940464 0.025516178
000100 87 29 79 3c 5a 02 1a 3d 44 d9 92 bd 0b 2d c8 3c
       0.015207655 0.0375999 -0.071703464 0.02443554
000110 a3 5a 55 3c ba b5 0a bd 0b 83 fa bc 14 ce e0 3d
       0.013022098 -0.033864714 -0.030580064 0.10976806
000120 44 cf dc bc 9b b4 3f 3d 64 9e cf 3c b8 bf 6c 3d
       -0.0269543 0.0468031 0.025344081 0.057800025
000130 c8 b9 3b 3d b4 87 6d bd bd e0 ef 3b a3 74 18 3e
       0.04583147 -0.057990745 0.007320492 0.14888243
000140 71 c8 87 bb 7b 00 d1 3d 8c f3 dc bd bf c6 f2 bb
       -0.0041437675 0.1020517 -0.107886404 -0.0074089463
000150 ba b8 d3 3c 7d 59 86 bc 15 f3 dd bc f2 6f 69 3d
       0.02584492 -0.016400093 -0.02709345 0.056991525
000160 6b 00 22 3d ca 32 11 bd 33 10 07 3e d8 c3 d1 bc
       0.03955118 -0.035448827 0.13189773 -0.02560608
000170 76 44 8f bc 67 ce cf 3d 11 ac e2 3d 2e e0 f4 bd
       -0.0174887 0.1014679 0.11067975 -0.119568214
000180 92 57 f2 3d e3 5d 99 bc fa 08 46 bc a3 85 94 3d
       0.11833109 -0.018721526 -0.012087101 0.07252052
000190 cb 23 9d bd 68 34 37 bd c0 34 c9 bc ed 31 d3 bd
       -0.076728426 -0.044727713 -0.024561286 -0.10312257
0001a0 66 ab 5e bb ee d6 dd 3d 9e d4 9e 3d 01 10 1d 3d
       -0.0033976673 0.1083201 0.07755397 0.03834534
0001b0 b4 b3 e9 bd 80 57 44 be 6f ea b6 bb 7a c9 6d 3c
       -0.11411229 -0.19174004 -0.005582146 0.014513368
0001c0 4b 4b 8e bc 10 65 16 bb 7c 57 ad bd 39 80 c3 bd
       -0.017369887 -0.0022948422 -0.08463952 -0.09545941
0001d0 77 bb 17 bd 7d 73 44 3d 76 6d a9 bd 68 90 f3 bc
       -0.037044015 0.0479617 -0.08272831 -0.029731944
0001e0 12 a6 ba 3b 80 da 86 bd e0 27 ce bc 26 f0 96 bd
       0.0056960667 -0.06584644 -0.025165498 -0.073700234
0001f0 00 4b e3 3d fa e1 09 3e 2e 0e 24 3c 6a 60 42 bc
       0.110982895 0.1346511 0.010013146 -0.011863807
000200 f7 82 c5 3d 88 39 dc bd 7e 3d fe bd 50 b4 02 bd
       0.0964412 -0.10753161 -0.124140725 -0.03191024
000210 19 c5 06 be bb ac ac bd 13 fd 8b 3d 18 b7 a9 bc
       -0.13161124 -0.08431383 0.068353795 -0.020717189
000220 ba 8b 3d 3d 88 e1 60 3d 2e 15 9f 3d 30 37 b0 3d
       0.04627583 0.054902583 0.077677116 0.08604276
000230 18 eb ad 3c d3 e8 70 3c fb 0e 28 3c 94 03 11 bd
       0.021230265 0.014703947 0.010257478 -0.035403803
000240 d7 26 46 3d 01 88 ba bd ce 0c 94 3d 75 8c fd 3c
       0.048376884 -0.09107972 0.07229005 0.030950764
000250 f7 96 8d bc 24 f2 4f 3d 3f 29 7a 3d fe 6f c0 bc
       -0.0172839 0.050768033 0.06107449 -0.023490902
000260 60 4f ba 3c 9c ec 00 3e 03 fd f7 3c 9d 01 8f 3c
       0.022742927 0.1259026 0.030272013 0.017456824
000270 39 46 08 3e 49 31 ae 3d 3c b4 5c bd 69 06 15 3d
       0.13308038 0.08505494 -0.053882822 0.036383066
000280 b7 77 69 bd f8 b4 b8 3d c6 b5 d2 bc 78 60 0a 3e
       -0.056998935 0.09018892 -0.025721442 0.13513362
000290 3f 42 41 bd 57 8f 55 bd be ea d3 3b 08 1e 9f bd
       -0.047182318 -0.052138653 0.0064671924 -0.077694
0002a0 22 53 07 bd e1 7c 9e bd 41 29 f9 bd 39 06 83 3d
       -0.033038266 -0.077386625 -0.12166072 0.06397671
0002b0 65 b3 7f 3d 97 a6 82 3d 89 e4 88 3d 27 ac 00 3e
       0.062426943 0.06379431 0.066842146 0.12565671
0002c0 9b 94 f3 3d 57 ab 39 bd 24 47 c7 3a a2 3b 4f 3d
       0.118935786 -0.045329418 0.0015203697 0.05059398
0002d0 0f 43 57 3d 80 be 95 bd 27 e7 1e bd 90 ea 39 bc
       0.052554186 -0.073117256 -0.038794663 -0.011347428
0002e0 ce 11 83 bc d2 93 19 3e c2 de 28 3c c0 0c 30 3e
       -0.0159997 0.14997795 0.010307016 0.17192364
0002f0 bc 33 ec 3d 31 51 a4 bd 57 cb 8c bc fc e7 c5 3d
       0.11533305 -0.080232985 -0.017186804 0.09663388
000300 c9 8c a7 bd 50 bd 42 3c 6b d0 dc bd 88 0c de bd
       -0.081811495 0.011885956 -0.1078194 -0.10842234
000310 5c 8e ba 3d 07 fa 9b 3c a6 ce 85 bd d1 0e 02 3c
       0.09109184 0.01904012 -0.06533556 0.007938103
000320 69 73 f3 bc 2a c9 a6 bd a9 9f 9d bd bc 9c cd 3c
       -0.029718118 -0.08143838 -0.076964684 0.02509915
000330 e1 9a 74 3c 18 43 e3 bc bd 04 ba bd e7 c9 a2 bc
       0.014929504 -0.027741954 -0.09082935 -0.019871665
000340 b9 dd e6 bc 51 8c 8b 3d ef 67 88 3c a1 71 08 bd
       -0.028181897 0.068138726 0.016651122 -0.03331149
000350 c1 ce be 3a 0c 77 ab 3d 3a 8a ca 3d 1d 80 5b 3d
       0.0014557467 0.08372316 0.09889646 0.053588975
000360 5e cf 96 3d a9 8f a0 3d d1 9a 21 bc 1d 4c 1c 3e
       0.07363771 0.07839901 -0.009863571 0.1526341
000370 ef 55 06 bd a4 67 5f bd 54 e7 62 bd a6 96 34 bd
       -0.032796796 -0.0545422 -0.055396393 -0.044088982
000380 4d 7e 06 be 78 12 a7 bd 16 46 97 bd 36 1a 60 bc
       -0.13134117 -0.081578195 -0.07386415 -0.013678124
000390 61 fd c0 3d 24 19 9b bd e6 f4 b9 bc ba 46 d3 bd
       0.09423328 -0.075731546 -0.022699784 -0.103162244
0003a0 be ff cf 3d 45 12 ca 3d 8f 9d 8e 3d b4 56 5a bd
       0.10156201 0.09866766 0.06963646 -0.053305343
0003b0 d3 04 91 bd 3b 5c ae 3d 97 5f 49 bc 09 84 79 3d
       -0.07080998 0.08513685 -0.012290857 0.060916934
0003c0 40 0e f7 3d 87 c5 e5 3d f5 2c 75 3c 6d 0c b4 bd
       0.12063265 0.11219316 0.014964332 -0.087914325
0003d0 94 9d 07 bd de 22 a7 bd 02 2e 26 bd 55 11 50 bd
       -0.033109263 -0.08160947 -0.04057122 -0.05079778
0003e0 48 ef 92 bd 0e ca 29 39 a8 cf c3 3d 90 ea 00 bc
       -0.071745455 0.00016192367 0.09561092 -0.007868424
0003f0 34 f3 95 3b 9a a9 96 bd 42 c2 93 3d 85 7f 0a 3e
       0.004576111 -0.07356568 0.07214786 0.13525207

weight f4 [8]
000000 84 14 77 3f 6d 46 7d 3f 7d 28 7b 3f c7 66 83 3f
       0.9651568 0.98935586 0.98108655 1.026574
000010 0d 6d 84 3f d1 e0 80 3f 31 0c 83 3f 6c c8 77 3f
       1.034578 1.0068609 1.0238096 0.96790195

bias f4 [8]
000000 20 47 95 bd 08 df fd bb b0 34 54 bd 75 82 8f 3c
       -0.07288957 -0.0077475347 -0.05180806 0.017518261
000010 b2 88 48 3b 7a 22 9c bc 45 24 82 3d 8e bf 1d 3b
       0.0030599055 -0.019059408 0.06354574 0.0024070474

running_mean f4 [8]
000000 e5 b7 71 3f 95 03 0f 3d 11 e5 b4 3e 95 d8 8f 3e
       0.94421226 0.034915525 0.35331014 0.28094926
000010 3a bc 93 be 38 f4 da 3d 0f e1 f4 be eb a6 a8 be
       -0.28854543 0.10691112 -0.47827956 -0.32939848

running_var f4 [8]
000000 ed b9 aa 3e 09 4f 85 3e 7a 5f 89 3e 5b ae 53 3e
       0.33344975 0.26036862 0.26830655 0.2067198
000010 7f e5 49 3e 17 ba 21 3e f3 b2 2c 3e 56 a0 36 3f
       0.19716452 0.15793644 0.16865139 0.71338403

weight f4 [8, 8, 3, 3]
000000 05 23 de bd 98 c1 d7 bd f8 d7 59 3d a4 de e5 3c
       -0.10846523 -0.10534972 0.05318448 0.028060265
000010 4f 41 d2 bd 3a 41 b3 3d b0 af 97 3c f6 f2 fa bd
       -0.10266363 0.08752675 0.018516392 -0.12253372
000020 7c 0e 56 bd ed e5 bd 3c aa 57 8f 3d b8 90 e2 bd
       -0.052259907 0.023180926 0.069991425 -0.11062759
000030 d6 c1 ce bd 38 46 4b 3d 24 0d 55 3c 38 ad 19 3d
       -0.10095565 0.049627513 0.013003621 0.03751871
000040 62 7f e8 bc 7b 22 94 bc 7a 75 b3 bd 73 ff f5 bd
       -0.028381053 -0.018082848 -0.08762641 -0.12011614
000050 b1 2a b3 3d 96 0d fd 3d a4 5b 06 3d ff 3a 87 3b
       0.08748377 0.12356107 0.03280224 0.004126906
000060 4a 2d ad 3d 40 98 04 3e b1 2e 7e bd b0 fb 71 bd
       0.08455904 0.12948704 -0.062056247 -0.05907792
000070 80 0d 0f 3d 24 1d 58 3d 39 4f 8c bd 3d b7 85 bd
       0.034924984 0.052762166 -0.06851048 -0.065290906
000080 38 3d db ba 85 58 f7 bd 6c dd d7 bd 19 57 df bd
       -0.0016726619 -0.12077431 -0.1054028 -0.109052844
000090 07 ec 41 be 8d 55 38 be 02 ca 42 be 5c 5c b5 3d
       -0.18937694 -0.18001385 -0.19022372 0.08855507
0000a0 3b 28 ec bd ed 9d c3 bc a3 0e 85 3b ed e2 d3 3d
       -0.11531111 -0.023879016 0.0040605827 0.10346017
0000b0 54 af 6f 3d 04 ad ad 3d 78 e1 f6 3c 12 2e b8 3d
       0.058516815 0.08480266 0.030136809 0.08993162
0000c0 33 76 dc bc 09 07 8a 3d d3 ff 26 be f5 6e 79 bc
       -0.02691183 0.06739623 -0.16308527 -0.015224208
0000d0 5d 1a ff bd 2b fa 08 bd 29 de 0f 3e bc be 9a bc
       -0.124562 -0.033441704 0.14049591 -0.018889777
0000e0 cc 8f 8d 3d db f5 3b 3d 06 9c 8c 3c b7 5a 40 bb
       0.06912193 0.045888763 0.017164242 -0.0029350945
0000f0 21 23 2b be e8 79 ea bd 3e 49 10 3d fd e3 62 bc
       -0.1671262 -0.11449033 0.0352261 -0.013848302
000100 a3 47 a9 3d 9d f0 5b bd 81 1a 23 3d 4f 52 c7 bd
       0.08265617 -0.053696264 0.039820198 -0.09732496
000110 d5 06 0a 3d 8d 3f f8 bc 4f 61 46 bc 86 e2 fa bd
       0.03369792 -0.03030374 -0.012108161 -0.12250237
000120 29 3b 38 bc 9e 32 a9 3c 74 63 54 bd f2 ae b2 3b
       -0.011244574 0.020654019 -0.05185266 0.005452984
000130 25 38 27 3c 72 7c f5 3d fe 2f 49 bd 4e a7 bd 3d
       0.010206257 0.11986627 -0.049118035 0.092604265
000140 f5 a4 2f bc b2 a3 51 3d 07 15 67 bd 5a e7 85 3c
       -0.010720481 0.051181503 -0.056416538 0.016345669
000150 1a 38 e5 bd 60 7a 6f 3d 97 25 60 3d 75 92 0e be
       -0.11192341 0.058466315 0.05472335 -0.13923056
000160 3f 98 ef 3c 63 28 dd 3d fa f9 e5 bd 42 d4 86 3d
       0.029247401 0.10798719 -0.1122932 0.06583454
000170 02 7c bc bd 3a 53 09 3c 07 64 c1 bc bf 87 ab 3d
       -0.0920334 0.008381659 -0.023607267 0.08375501
000180 d1 5b a6 3d ef ed 90 3d 3e ba 6f 3d a1 a9 70 bd
       0.08122981 0.07076632 0.058527224 -0.05875552
000190 0e a5 19 3d 25 5a 31 3d 90 32 f7 3d 95 b6 87 bd
       0.037510924 0.04329886 0.12070191 -0.06626622
0001a0 e6 c6 35 3d 3d 09 f8 bd 08 e8 b7 bd 3f 4c 5a 3d
       0.044379137 -0.12111137 -0.08979803 0.05329537
0001b0 70 20 9d 3d da 9b c0 3c f4 4b 18 3d ae 41 97 3c
       0.076722026 0.023511816 0.03718181 0.018463936
0001c0 97 07 c1 bd ba 44 16 3d 54 68 db bc 19 86 68 bd
       -0.09425276 0.036686637 -0.026783146 -0.05676851
0001d0 c6 ba 13 3d 67 df d5 bd 41 60 f7 bd 77 d8 02 3d
       0.036066793 -0.10443001 -0.12078906 0.03194472
0001e0 c7 87 91 3d 70 1e ea bd 40 d0 a5 bc 94 67 cf bb
       0.071059756 -0.11431587 -0.020240903 -0.006329486
0001f0 e6 26 bf bd 4c dc 2a bd cd e1 02 3d 1c 04 c1 bb
       -0.09333591 -0.041713998 0.03195362 -0.0058903825
000200 2d 0d a3 bd e2 d8 85 bd 00 04 1d 3d d9 9d 27 3e
       -0.079614975 -0.06535508 0.038333893 0.16368808
000210 f2 55 99 3d ed 22 cd bd f1 2e 88 3d 1d e2 92 3c
       0.07487096 -0.10016427 0.06649578 0.017930085
000220 18 95 20 3d 79 d4 4c 3c 44 2a b4 bd 1c 62 db 3d
       0.039204687 0.012501829 -0.08797124 0.10712072
000230 c6 a8 2a bd eb 1c cd 3d 36 d9 1e bd 8d a9 36 bb
       -0.04166486 0.10015281 -0.038781367 -0.0027872056
000240 e2 d1 e6 bd 53 8e 6f bd 93 2d e1 bd 18 1e 99 b9
       -0.11270501 -0.05848534 -0.10995021 -0.00029204856
000250 05 14 5a 3d 5f 42 96 3d 8c ef 0d 3d 73 5f 81 3d
       0.05324175 0.07336878 0.034652278 0.063170336
000260 09 1b b7 bc a9 5a bf bd 34 6f 87 bb 76 62 09 3e
       -0.022351759 -0.09343464 -0.0041331295 0.13416466
000270 89 5f d4 3c 9c 07 b8 bd 76 ff d0 3d ea 85 c2 bd
       0.025924461 -0.089858264 0.10204975 -0.09498198
000280 80 26 e9 bd 84 44 a6 3d e0 e8 46 3d 44 6c 64 3d
       -0.113842964 0.08118537 0.04856193 0.055767313
000290 0e 43 12 3c 64 78 a3 bd 08 0a 0a bd ff 03 5d bd
       0.00892712 -0.07981947 -0.033700973 -0.05395889
0002a0 11 cb de bd b8 dc b7 3d 69 ac b1 3d ec b5 e7 3d
       -0.108785756 0.08977646 0.08675463 0.11313996
0002b0 54 fe b2 3d a8 c6 c2 bd a3 52 e7 3b e6 ce 28 3d
       0.087399155 -0.09510547 0.0070594116 0.04121294
0002c0 6c 6c 91 bd 25 f7 64 3c a5 25 f0 3c b8 a5 a6 3d
       -0.07100758 0.0139749395 0.029314825 0.08137077
0002d0 e5 82 51 be a6 9e 1f bc b3 7a 19 3e e7 87 2c 3d
       -0.20460089 -0.009742415 0.14988212 0.042121794
0002e0 7d 6f da bd 13 14 da 3d e5 2a df 3c 2a f1 c3 bd
       -0.10665796 0.1064836 0.027242133 -0.09567483
0002f0 77 01 5d 3d c4 e8 3f 3d 25 2c be 3d 02 fd 85 3d
       0.053956475 0.046852842 0.09285764 0.06542398
000300 80 59 51 bd 90 07 cb 3d d7 fb dc 3c a4 82 ec bb
       -0.051110744 0.09913552 0.026975555 -0.007217722
000310 36 f1 5a bd cb 58 ea bc 2c 28 03 be 68 fe e3 bd
       -0.053452693 -0.028606793 -0.12808293 -0.111325085
000320 b1 56 d0 bd 1a 41 89 bc 87 85 d3 3d 9d 01 a2 3d
       -0.10172785 -0.016754676 0.10328203 0.07910464
000330 3c 09 c7 3d b5 bd d3 3d d5 31 05 3e c8 5c 0b bd
       0.09718558 0.10338918 0.1300729 -0.03402403
000340 87 6e 9a bd 5e a1 bc bd f5 a6 86 bd c3 4e f3 bc
       -0.07540613 -0.09210466 -0.06574813 -0.029700642
000350 1e 9f 85 bb 21 52 5c bd 27 1b 34 bd fd 4a 3f 3d
       -0.004077806 -0.05378926 -0.043971207 0.046702374
000360 f7 96 ca 3c 0a 0e ed bb 8e ca af bd c3 cc 92 3d
       0.024730189 -0.0072343396 -0.08583556 0.071679614
000370 ae 06 c3 3d ab e0 1e 3d 96 4e 85 3d 7c 81 b8 bd
       0.095227584 0.03878848 0.0650913 -0.09009072
000380 ac b0 5f bd 8c b9 f6 3c 5d f1 5f 3c 0f 2c 8a bd
       -0.054611847 0.030117773 0.013668385 -0.06746685
000390 9b 3f b9 3d 10 f9 2c bd d3 3c 2a 3e b6 00 6e 3d
       0.09045335 -0.042229712 0.16624765 0.058106147
0003a0 97 6e db bd e7 ca a5 3d e2 9f 0b bb 0d 9c b8 bd
       -0.10714453 0.08095341 -0.0021305014 -0.09014139
0003b0 16 ef f9 3c f6 ed b8 bc c3 fc 77 bb 64 5c 48 3d
       0.030509513 -0.022574406 -0.0037839867 0.048916236
0003c0 10 19 c6 3d c9 8f 97 3d fd 6c e6 bd ed d5 6d bd
       0.09672749 0.07400472 -0.112512566 -0.058065344
0003d0 92 38 46 3d fb fa 91 3b fe 92 d8 ba 12 26 9d bd
       0.048393793 0.004454968 -0.0016523299 -0.07673277
0003e0 17 d7 81 bd 71 11 09 be f8 48 af 3d 91 27 fb bc
       -0.06339853 -0.1338556 0.085588396 -0.030658515
0003f0 55 5a b5 bc 7e 15 db 3c aa 53 1c 3b 41 75 ab bd
       -0.0221378 0.026743647 0.0023853579 -0.08371974

weight f4 [8]
000000 15 18 72 3f c3 17 70 3f c2 28 84 3f 37 eb 79 3f
       0.94567996 0.9378626 1.0324938 0.97624534
000010 64 6a 7c 3f e4 c7 7f 3f d0 8e 78 3f 2d 82 7f 3f
       0.9859984 0.99914384 0.97092915 0.9980801

bias f4 [8]
000000 0f d9 1e bd e9 a1 1c bc 13 f6 c3 3c 1a f1 cc 3c
       -0.038781222 -0.009560087 0.023921048 0.02501731
000010 31 6e 06 bc 15 ba 8e 3c 2d a6 3b b9 e4 bc 06 3b
       -0.008204983 0.017422715 -0.00017895615 0.0020559365

running_mean f4 [8]
000000 d9 a7 fb be bf 5d 81 3d e1 30 55 38 ca 02 c5 3e
       -0.49151495 0.06316709 5.082868e-05 0.3847869
000010 e2 c1 83 bd c1 6d 9c bc 6b a6 d9 bd 63 ab 9f be
       -0.064334646 -0.019095303 -0.10627445 -0.31185445

running_var f4 [8]
000000 4f ef 33 3e 72 7e f5 3d 2a 9b 4e 3e 79 2b 87 3e
       0.17571758 0.11987008 0.20176378 0.26400355
000010 af de f2 3e 9e f2 5c 3e 99 7e a1 3e 20 29 e8 3e
       0.4743552 0.21576926 0.315419 0.45343876

weight f4 [8, 8, 3, 3]
000000 d3 64 bb bd c3 5b 0b be 9a e4 48 bd 40 d4 0f bd
       -0.0915009 -0.13609223 -0.049046136 -0.035114527
000010 db c5 01 3d 9e 32 cb bd f2 5f a2 bc 0e 0f 7f 3b
       0.03168283 -0.09921764 -0.01982114 0.0038918885
000020 bf f6 37 3d 93 8f bb 3d 77 19 34 3d 25 c2 de 3d
       0.04491305 0.09158244 0.043969598 0.10876874
000030 df a9 76 bd c6 bc ce bc fb a0 4f bd 1f ef 2b bd
       -0.060220595 -0.025236499 -0.050690632 -0.04197609
000040 56 8c 85 bd 45 85 17 3e b1 93 86 bd 36 da b0 3d
       -0.065209076 0.14796932 -0.06571139 0.086353704
000050 6d 1c 7a 3d 58 c2 8b bd 88 e7 af bd f0 51 97 bd
       0.061062265 -0.068241775 -0.08589083 -0.07388675
000060 63 38 bc 3d 1d 5f 84 bd 80 6d b7 3d de be 80 3d
       0.091904424 -0.06463454 0.08956432 0.06286405
000070 bb 1b 26 3d bf a9 ec bd 44 3a 8f 3d 66 bc ce 3d
       0.04055379 -0.11555814 0.06993535 0.10094528
000080 c5 07 9f 3d 97 56 f6 3d d0 18 c9 3d 0a 13 4d 3b
       0.07765154 0.120282345 0.09819186 0.0031291866
000090 b3 3a 98 3d 89 a0 b5 bc 68 e6 90 3d 11 ae d5 3b
       0.07433071 -0.022171276 0.070751965 0.0065209945
0000a0 8c 99 21 3d a6 8b 1d 3e d6 f9 26 3b 5c 40 d9 3d
       0.039453074 0.15385303 0.0025478504 0.10607979
0000b0 8c 13 7c bd 7a 9b b8 3d 73 80 7c bd 23 a1 80 3b
       -0.06154208 0.0901403 -0.061645936 0.003925459
0000c0 8b 95 dd 3c 69 a3 e4 3d 5e 29 e4 3c 44 08 c5 3d
       0.027048847 0.111639805 0.027851757 0.09620717
0000d0 3b fe d8 3c a6 92 5d bd a1 9c 90 3d cb 4d 21 3d
       0.026488414 -0.054094933 0.070611246 0.03938083
0000e0 4d 4f 9d bd dd b0 f2 bd 16 49 97 bd 3d 50 02 be
       -0.07681141 -0.1185014 -0.07386987 -0.12725921
0000f0 a6 76 26 bd 1d 88 02 bc 4c b7 51 bd 1c 6b 4a bd
       -0.040640496 -0.007967022 -0.051200196 -0.049418554
000100 44 7a 75 3d 1d 6e 05 bd fa a8 86 3d c2 5a b4 ba
       0.059931055 -0.032575715 0.065751985 -0.0013759958
000110 c2 10 71 bd b2 af b5 bd c7 4a f9 3c b3 09 99 bd
       -0.058853872 -0.08871402 0.030431164 -0.07472553
000120 77 d8 94 3d 26 3a fc 3b f7 fe c3 3c dc 84 83 bd
       0.0726785 0.0076973615 0.023925288 -0.06421825
000130 67 02 17 3e 6b de 47 3d 9c 40 28 bd 94 d0 4b bd
       0.1474701 0.0487961 -0.04107724 -0.049759462
000140 e5 fd cd 3c 2e 7c fd 3b 37 34 07 3e ea 3a 88 bd
       0.02514548 0.0077357506 0.13203512 -0.06651862
000150 18 81 d7 3d 77 72 a3 3c e0 2d 1f bd 61 1b 4a 3d
       0.105226696 0.019952042 -0.03886211 0.049342517
000160 c1 e8 a6 3c 67 41 e5 3d 48 3c ea 3c f7 13 4f 3d
       0.020374658 0.11194115 0.028593197 0.05055615
000170 3f 8e 35 bc ef 2b b2 3d f3 59 b0 bd 7a 9c b0 bd
       -0.011081277 0.08699786 -0.086109065 -0.086235955
000180 e8 f9 11 3e 11 9e fa 3d 88 69 f1 bd ee 33 6f bd
       0.14255488 0.1223718 -0.117877066 -0.058399133
000190 ed 8d 89 3d ba 5e 92 bd cd 5c 13 bd e0 d1 e5 3d
       0.06716523 -0.07146974 -0.035977174 0.11221671
0001a0 f2 8e 9b bd 0d a5 73 bd aa 55 06 3e ae 23 7f 3c
       -0.07595624 -0.059483577 0.13118616 0.015572472
0001b0 70 c7 97 3c 45 98 75 bd c3 63 fe bc 68 a5 cb bd
       0.018527716 -0.05995967 -0.03105343 -0.09943658
0001c0 fd 87 71 3d 2c 41 3b bb 58 c8 d2 bd 30 ed 9b 3d
       0.05896758 -0.002857278 -0.10292119 0.07613599
0001d0 f4 4d be ba 26 03 92 bd 63 a1 4f bd 3a fa 15 3e
       -0.0014519081 -0.07129507 -0.05069102 0.14646235
0001e0 f9 c3 32 bd e6 dc c7 bd ea 25 57 3c 47 ce 38 bd
       -0.043643925 -0.0975893 0.013131598 -0.045118596
0001f0 52 32 50 bd fd b1 12 3e 9d 3a 74 3d 8f 18 43 3c
       -0.05082924 0.1432571 0.05962621 0.011907711
000200 3b 9f 90 3d fc e9 26 be 3c dd f0 3c ff 9c 07 3e
       0.07061621 -0.16300195 0.029402368 0.13243483
000210 23 bd dd bd 7b 34 d5 bd 5c 2d 58 bc 5b c9 1c be
       -0.108270906 -0.104104005 -0.013194408 -0.15311186
000220 1f ed d7 3d cb 66 0a 3e e0 a9 d1 bd 45 90 1b 3d
       0.10543274 0.13515775 -0.10237479 0.037979383
000230 2b d7 e6 3d 3e dc 2b be 38 7e 0c 3d 18 a9 09 3e
       0.11271509 -0.16783234 0.03430006 0.1344341
000240 33 4f ec bd 33 dc 0a be fe 9f f0 bc b1 a5 41 3d
       -0.115385436 -0.13560562 -0.029373165 0.047277156
000250 7c be f8 3d 58 60 e4 3d f1 20 17 3e 66 9e 1a bd
       0.12145707 0.111511886 0.1475866 -0.037748717
000260 9d 88 dd 3d 76 fa e4 bd db 84 8b bd 17 51 ab bd
       0.108170725 -0.11180584 -0.068124495 -0.08365076
000270 31 be 3a 3d c1 ea 13 bd 52 bd 05 be c6 0d b8 3c
       0.045591537 -0.03611255 -0.13060501 0.022467505
000280 d0 d5 d6 bd 92 e5 25 3b f1 c4 b2 3d 9a 82 a7 3d
       -0.1049 0.0025313837 0.0872897 0.08179207
000290 3e c6 c2 3d cc e9 48 3d 32 43 9e bd 1f c1 88 bd
       0.09510468 0.04905109 -0.0772766 -0.0667746
0002a0 9c e8 0f 3d c9 fe 97 3c 7c 2c 86 3d 1f 22 0e be
       0.035133943 0.018554108 0.065514535 -0.13880204
0002b0 5d ee 21 3d c7 4b 98 bd 90 b2 2c 3d e0 d3 85 bd
       0.03953396 -0.074363284 0.042162478 -0.065345526
0002c0 80 ce af 3d c3 df 0d be b6 27 02 3c 7b 0a 55 bd
       0.085843086 -0.1385489 0.007944038 -0.052011948
0002d0 c3 60 ee 3d aa 76 ec 3d bc f3 dd bc 88 a5 f8 bc
       0.116395496 0.11546071 -0.02709376 -0.030352369
0002e0 cf b8 db 3d 34 83 9a 3d a7 27 ce bc 1f 79 b5 bc
       0.10728609 0.07544556 -0.025165392 -0.022152482
0002f0 0f a8 8c bd 42 0f 53 bd fc 65 da bd 20 ec 8d bd
       -0.06867992 -0.051528223 -0.10663983 -0.06929803
000300 87 b9 64 bc 2c 92 83 bd 96 f0 42 3d 08 8c a9 3c
       -0.013960249 -0.064243644 0.047592722 0.020696655
000310 d8 96 6e bc 53 9a cb bd db e0 b2 bb 59 47 8c 3d
       -0.014562331 -0.099415444 -0.0054589338 0.06849546
000320 ef 59 8e 3d dd aa 8e bc 3b 61 e0 3c 91 b9 a0 bd
       0.06950747 -0.017415458 0.027390113 -0.07847894
000330 51 31 44 3d 67 6d 88 bd 41 e6 a9 bd 4e 2c 9b 3a
       0.047898594 -0.06661492 -0.082958706 0.0011838765
000340 87 cd d1 bc 35 7f 78 bd 6f 42 9a 3c d8 96 c5 3d
       -0.025610698 -0.06066819 0.018830506 0.09647912
000350 d0 e5 d8 3d e2 15 e4 3d 96 4a 03 bd 94 84 22 3d
       0.10590708 0.11136986 -0.032053553 0.039677218
000360 96 42 8a bc d9 6b cb bd 19 52 3b 3c 26 e2 b6 bc
       -0.016877454 -0.0993268 0.011433148 -0.022324633
000370 38 52 64 3d 5a 48 c8 3c d7 ba ae 3d f5 a4 74 bc
       0.055742472 0.024448562 0.085317306 -0.014931907
000380 ad e4 0f be 59 ee df 3d 51 41 d0 3d 15 40 a6 bd
       -0.14052077 0.10934133 0.10168708 -0.081176914
000390 a7 eb a8 bd 3d d9 b1 3d 97 c7 ba bd 89 98 ac 3c
       -0.08248072 0.08684013 -0.091201 0.021068828
0003a0 be 61 f8 bd 2f a5 31 3c 2d 7a 93 bd cf 88 97 3d
       -0.12128018 0.0108426055 -0.072010376 0.07399141
0003b0 08 5f a6 bd 03 72 54 3b 23 e3 d8 bd 83 d7 c4 bd
       -0.081235945 0.003241659 -0.10590198 -0.09611418
0003c0 d6 6d ab bd 58 f1 d7 bd 31 90 7e 3d 05 c3 1e 3d
       -0.08370559 -0.105440795 0.06214923 0.038760204
0003d0 bc 0d 8b 3c 3e 19 44 3d 00 49 dc 3d 3a 05 a2 3d
       0.016974322 0.047875635 0.10756111 0.07911153
0003e0 30 5b 9f bc 03 23 0c 3c a8 e2 9a 3d a3 84 ad bd
       -0.019452661 0.008553269 0.075627625 -0.08472564
0003f0 26 f6 e7 bb 5a 10 54 bd d7 80 51 3d 93 70 93 bd
       -0.0070789037 -0.051773407 0.051148262 -0.07199206

weight f4 [8]
000000 2a f3 74 3f 8a 23 86 3f a7 a3 7f 3f 68 05 7b 3f
       0.9568354 1.0479596 0.9985909 0.98055124
000010 8f 22 82 3f fe 01 80 3f 13 5d 7d 3f 6a 1a 81 3f
       1.0166796 1.0000608 0.98970145 1.0086186

bias f4 [8]
000000 96 26 1a bd 2e 57 bf 3c 93 d2 46 3c 06 f0 c8 ba
       -0.037634455 0.023357 0.012135166 -0.0015330322
000010 c1 7c 7f 3b d8 1a 3a 3a 12 29 c4 3a 5d 01 03 3d
       0.0038984271 0.0007099337 0.0014965853 0.031983722

running_mean f4 [8]
000000 41 80 ad 3e 33 5e b2 3e c9 1b 31 be c4 29 9d be
       0.33886912 0.34837493 -0.17295755 -0.30695927
000010 eb fc 66 3e 0d ad ef 3d 01 b1 0e be 0c cf db bd
       0.22557418 0.11702929 -0.13934709 -0.107328504

running_var f4 [8]
000000 51 4f c5 3e e4 8f 0b 3f 52 05 2d 3f b4 ba cc 3e
       0.38537076 0.54516435 0.67586243 0.39986193
000010 a2 70 ec 3e 27 f1 cc 3e 9a 90 d0 3e d9 a7 2e 3f
       0.46179682 0.40027735 0.40735322 0.68224865

weight f4 [8, 8, 3, 3]
000000 63 15 90 bd bf fb 49 bd a9 89 4a bd a0 b1 eb ba
       -0.07035329 -0.04931235 -0.04944769 -0.0017982014
000010 cf d1 8a 3d f5 fc 5a 3b d7 d2 b1 3c e1 df 95 3b
       0.06778299 0.0033414934 0.021706982 0.0045738076
000020 e9 4f 74 bc 10 0e 77 bd 29 7a 07 be db 31 07 be
       -0.01491163 -0.060316145 -0.13230194 -0.13202612
000030 e1 75 c0 bd 3c 6e 5a 3d e8 b3 22 be 88 d0 39 bd
       -0.093974836 0.053327784 -0.15888941 -0.045364887
000040 17 39 b5 bd 11 a2 49 bd 3f 2a 00 bd 22 60 5c bc
       -0.0884878 -0.049226824 -0.03129029 -0.013450654
000050 af 6c 09 3e 6e 44 ab 3d 74 5b ae 3d 8b 64 9d 3c
       0.13420366 0.08362661 0.08513537 0.019212982
000060 ce 70 de 3d bb b3 74 3d 02 ff 8c bd 8f f5 b3 bc
       0.108613595 0.059741717 -0.068845764 -0.021967677
000070 4c 31 dc bd 2b ad 98 bd b4 f1 23 bd 4a 44 d7 3a
       -0.1075159 -0.07454904 -0.040025428 0.001642355
000080 6a b8 8f bc ea 6b bc 3d 47 4d 83 3d a2 9f f6 3c
       -0.01754399 0.092002705 0.06411224 0.030105416
000090 16 b9 88 3c 78 b7 c3 3d 79 a1 c5 3d 41 a1 27 3e
       0.016689818 0.09556478 0.09649939 0.16370107
0000a0 af 11 06 bd 26 e5 ae 3d 63 6f ab 3d 34 ee 83 bd
       -0.03273171 0.085398 0.08370855 -0.06441918
0000b0 c3 af 2a 3d ae 70 92 bc b4 8f ee bd c4 91 c5 bd
       0.041671526 -0.017875995 -0.11648503 -0.09646943
0000c0 42 12 f7 3c bd 4f f3 bb d9 8b 78 3d 5f c9 24 3d
       0.030160073 -0.007425277 0.060680244 0.040231105
0000d0 5d 94 e5 bd 9b 4d d3 bc 2d a4 62 3d 3f b9 87 bd
       -0.11209939 -0.025793841 0.05533235 -0.0662713
0000e0 6b e0 90 bd a4 58 9f 3d 80 73 d0 3d dd ee 66 bd
       -0.07074054 0.07780579 0.1017828 -0.05638014
0000f0 24 d5 c7 bd 86 a2 70 3d ba 5c 6b bd 79 06 91 3d
       -0.0975745 0.058748744 -0.057461478 0.07081313
000100 6d 1b 20 3d 38 56 ba bd c1 bc b2 3b 6e 92 68 bd
       0.039088655 -0.09098476 0.00545463 -0.05678027
000110 9c 46 df bc 16 7c 0f 3c 31 ec 4b bd 81 38 e0 3b
       -0.027255349 0.008757612 -0.049785797 0.0068426733
000120 6e 75 54 bd 24 7e a3 bd 1b c8 a8 bc d0 6a f1 bb
       -0.051869802 -0.07983044 -0.02060323 -0.0073674694
000130 ab c5 ef 3d c3 da c4 3c 29 e1 75 bd ad 8d b0 3d
       0.11707624 0.024030095 -0.060029183 0.086207725
000140 65 de 45 3d 89 6a 10 be 7a ef d9 bd 44 d4 7f bd
       0.048307795 -0.1410314 -0.1064138 -0.06245829
000150 b3 28 be bc 52 8a 82 bd 25 bc 04 be 60 ed 80 3d
       -0.023212766 -0.06374039 -0.12962396 0.06295276
000160 88 6c 62 bd 7d 2b 23 be b2 be 23 3d 0e 03 8d bd
       -0.055279285 -0.15934558 0.039976783 -0.06885348
000170 57 51 9f 3b e1 38 55 3d fd 62 ed bc 8a 89 64 bd
       0.0048619914 0.052056197 -0.028977865 -0.05579523
000180 31 25 30 bd c2 1d 01 be 5b 5e 64 bd 45 0b 87 3d
       -0.04300422 -0.12609008 -0.055754047 0.06593946
000190 80 98 d6 bd eb 87 95 bb ed 9b 37 3d 1a 7f e7 3c
       -0.10478306 -0.004563322 0.044826437 0.028258849
0001a0 98 f5 8e 3d 30 b9 84 bb f9 2e b7 bd fe 0d af bd
       0.06980437 -0.0040503964 -0.08944506 -0.08547591
0001b0 f6 f8 04 3d 11 eb b2 bd 3e 92 ad bd 68 2c c8 bd
       0.03246399 -0.087362416 -0.08475159 -0.09774095
0001c0 a1 e0 4c bd a5 d5 b6 3c 95 13 6a 3d 5f 5a 6e bc
       -0.05001891 0.02231867 0.05714758 -0.014547913
0001d0 04 f5 b1 bd 30 3d f4 bd 00 07 be bb 30 38 f5 bd
       -0.08689311 -0.11925733 -0.0057991743 -0.119736075
0001e0 f9 ea 90 bd e2 6d f9 bd 28 dc 80 bd 87 d0 2d 3d
       -0.070760675 -0.121791616 -0.062919915 0.042435195
0001f0 ea 24 a5 3d 24 29 5f bd 93 a6 2c bd 24 cc 22 3d
       0.080636814 -0.054482594 -0.042151045 0.039745465
000200 28 fc 9a 3d ce 00 33 bd 76 9b 9b 3d 73 09 4b 3d
       0.07567626 -0.04370194 0.07598011 0.04956956
000210 b4 19 d3 bb a0 4f b0 bd 05 aa b2 3d 9e 12 b9 bd
       -0.006442273 -0.08608937 0.08723835 -0.09036754
000220 fa 2c 9c bd fc 02 b4 bd fc d6 43 3d b6 3b 8c bd
       -0.07625766 -0.08789632 0.047812447 -0.068473265
000230 08 a7 e8 3c 3c f2 60 bd ed 17 b3 3c 88 3b 95 bd
       0.02839996 -0.054918513 0.021861995 -0.07286745
000240 ac ac e9 3c 13 e3 22 3d 29 ba c6 bd ac 25 37 bd
       0.02852472 0.039767336 -0.09703476 -0.04471366
000250 4c 6b c3 bd 66 a1 07 be 00 76 64 3d 3a 90 a2 bd
       -0.0954195 -0.13245162 0.055776596 -0.07937665
000260 87 71 02 be 13 58 07 3e 79 39 4d 3d 42 fc ff 3c
       -0.1273862 0.13217191 0.05010364 0.031248216
000270 f7 ff 5f 3d 0f eb f1 3d 8d bc 1e 3d 99 3f 40 bd
       0.054687466 0.11812412 0.038754035 -0.04693565
000280 8f 8d e9 3d 81 ad 01 3e 9d 91 2e 3e 86 f2 08 bd
       0.11403953 0.12663843 0.17047735 -0.033434413
000290 6d b4 68 3c fa ce ee 3b 60 02 92 3d b4 5a c8 3c
       0.014203173 0.007287857 0.07129359 0.024457313
0002a0 e3 73 da bd b7 26 90 bd 1e 58 88 bd 56 28 c4 bc
       -0.10666635 -0.07038634 -0.06657432 -0.023945015
0002b0 1c 81 9f 3d 9e e8 87 3d 15 d1 b6 bd 43 d3 64 3d
       0.077882975 0.06636165 -0.08926598 0.055865537
0002c0 40 6e 14 3d b6 68 79 bc db a7 5a 3d 10 37 44 bd
       0.036237955 -0.015222719 0.053382736 -0.047904074
0002d0 5f 9e fe 3d 02 6c b2 3d 79 eb 96 bd 1a 8c 84 bd
       0.12432551 0.08712007 -0.073691316 -0.06472035
0002e0 4f 27 71 3c d8 8d c6 3c fc 57 a1 bc 94 70 15 3d
       0.014718845 0.024237558 -0.019695275 0.036484316
0002f0 d5 b4 94 3d 4f d2 3b 3d 23 33 3b bd 35 3a ba 3d
       0.072610535 0.045854863 -0.045703065 0.09093133
000300 96 85 07 3d 5a d7 c4 bd 14 18 e9 bd 33 57 a6 bd
       0.03308638 -0.096113876 -0.11381546 -0.08122101
000310 2e 4f 00 3e 80 0e d5 3d 7d e7 2c bc 9b 7b 74 bc
       0.12530205 0.10403156 -0.010553238 -0.014922048
000320 fa a8 ef bd 1d 5f 5b 3d 4a 9b 89 bd 48 b8 51 3b
       -0.117021516 0.053557504 -0.06719072 0.003200071
000330 21 1a 5b 3d cc 84 7b bd 63 32 4c 3d 73 03 bd bc
       0.053491715 -0.06140594 0.04985274 -0.023072934
000340 24 28 db bd ca e0 83 3a 1a 77 5e 3d d6 db 9d 3d
       -0.107010156 0.0010061499 0.054312803 0.07707946
000350 68 6b c0 3c 21 32 36 3d f6 43 61 bc 8e 2e 89 3c
       0.023488715 0.0444814 -0.013749113 0.016745832
000360 df df ab 3d 09 c3 a3 3d de cd 76 3d 62 ef df bc
       0.083923094 0.079961844 0.060254924 -0.027335826
000370 d7 a2 a3 3c 84 f8 d0 3d c9 4e 41 bc 65 33 35 bd
       0.019975109 0.102036506 -0.011798569 -0.044238467
000380 da 35 ab 3d 3e 55 40 3d 95 3a a2 3d 47 f9 dc 3c
       0.08359881 0.046956293 0.0792133 0.026974333
000390 d2 d6 a3 3d d0 ff b6 3c ac 5c 6b bd e1 82 a7 bc
       0.07999958 0.022338778 -0.057461426 -0.02044815
0003a0 ce 02 83 bd 63 0a 3d bd d7 92 95 3b 37 86 98 bd
       -0.06397019 -0.046152484 0.004564624 -0.074474744
0003b0 0e 5e e8 3b 7e f3 dc bd 69 11 19 be 63 a8 75 bd
       0.0070912903 -0.1078863 -0.14948048 -0.05997504
0003c0 25 fb 71 3d 4b a3 0c be 99 2f fc 3c 10 42 cb bd
       0.0590774 -0.13734166 0.030784415 -0.0992471
0003d0 bd 78 cd bd 4f 8d 0d 3d 1b d4 87 3d db 04 82 3d
       -0.100327946 0.03455859 0.06632253 0.06348582
0003e0 2b 85 8f bc f3 75 74 bc c4 39 aa bb a4 0c ac bd
       -0.017519554 -0.014920699 -0.0051948745 -0.084008485
0003f0 37 22 14 3d f2 ad a1 3b 41 7c 10 bc fd 20 cc 3d
       0.036165442 0.004934066 -0.008818687 0.099672295

weight f4 [8]
000000 4a 7f 78 3f 88 d7 84 3f 82 a5 7a 3f 5e fb 7f 3f
       0.9706923 1.0378275 0.97908795 0.9999293
000010 8f 4e 7d 3f 89 40 7c 3f 29 85 7e 3f 2c 60 81 3f
       0.98947996 0.9853597 0.99421936 1.0107474

bias f4 [8]
000000 28 d0 7e bc c5 d5 91 ba b0 b2 63 bb 0b 63 2b 3c
       -0.015552558 -0.001112633 -0.0034743957 0.010460625
000010 1f 8c 40 3a c8 8c 88 3c 99 a5 82 bc a2 42 2b 3b
       0.00073450984 0.016668692 -0.015948104 0.0026132246

running_mean f4 [8]
000000 32 d1 1e be cc 9b 31 bf be e4 3f 3e 31 29 bc 3d
       -0.15509489 -0.6937835 0.18739602 0.09187544
000010 e7 39 a8 be 95 c9 31 bd bd 6e 19 be c3 11 ba 3e
       -0.32856676 -0.043405134 -0.1498365 0.36341676

running_var f4 [8]
000000 e2 fc c3 3e cc f5 97 3e 7c aa 3d 3e eb d4 94 3e
       0.38278872 0.29679716 0.18522066 0.29068694
000010 d4 6d 61 3e 9c 50 95 3e 2d 9b 96 3e 3b 25 9e 3e
       0.22014552 0.29163063 0.29415265 0.3088778

weight f4 [16, 8, 3, 3]
000000 5c 0b 9d 3d d2 24 e8 3c 9c b3 d1 3d 66 6d 6f 3d
       0.07668182 0.02833787 0.10239336 0.05845394
000010 94 a8 9a 3c b8 bc af 3d 7d aa b0 3c 7d 15 17 bd
       0.018879212 0.08580917 0.02156567 -0.036885727
000020 70 b1 d1 bd ab 5a 36 bc c6 ae 96 3c f5 09 62 3c
       -0.10238922 -0.011130015 0.018393885 0.013796319
000030 f7 98 d5 3d 7f 43 a1 3d a5 61 87 3c 1c 2e 76 3d
       0.10429566 0.07874202 0.016526053 0.060102567
000040 e4 4b 60 bd ae e4 4b bb a6 ca 72 bb 9a 00 e5 bd
       -0.054759875 -0.0031111646 -0.0037047057 -0.11181755
000050 e3 2d bf 3c 9e fa fa bd d8 f5 28 3b 84 b7 be bd
       0.02333731 -0.12254833 0.00257813 -0.093123466
000060 d3 0d 25 bd 71 1a 53 bd 13 f3 dd bd 60 73 ae bb
       -0.040296387 -0.05153889 -0.10837378 -0.0053238124
000070 56 6f 95 bd fd 7f c2 39 65 5a da 3d 35 81 5a 3d
       -0.07296626 0.00037097922 0.10661773 0.053345878
000080 1c 22 15 bd 77 0a ae bd 5d d7 5f bd 91 cf 55 3d
       -0.036409482 -0.0849809 -0.054648746 0.052199904
000090 b8 ce b6 bd b1 05 9b 3d 18 ab e3 bd 2e fb a3 bb
       -0.08926147 0.07569445 -0.11116618 -0.005004308
0000a0 8d 47 5b bd 3c ca 53 bd e4 4f e9 3d 33 97 22 bd
       -0.053535033 -0.051706538 0.11392191 -0.039694976
0000b0 2e 4e 15 bd b4 9c e4 3d ff 86 83 3a f1 28 86 bd
       -0.03645151 0.11162701 0.0010034739 -0.06550778
0000c0 38 7a 05 3e 9a 6f 85 3d 2c f4 9a 3d a3 0e 17 bd
       0.13034904 0.06515427 0.07566103 -0.036879193
0000d0 7c b5 19 3e 72 53 ec 3d 80 68 3d bd 32 a2 fe 3b
       0.15010637 0.115393534 -0.046242237 0.0077708
0000e0 0b cc 9f 3d 95 9c 1b 3d 16 e2 d8 bc e1 fc b6 bd
       0.0780259 0.037991125 -0.026474994 -0.089349516
0000f0 2a 7d 0c bd 6d 7b 97 3d a1 66 c0 bc 81 ae 04 be
       -0.034299053 0.073965885 -0.023486437 -0.12957193
000100 e3 f7 ea 3c 2f 62 97 bd 98 e6 72 bd d9 c6 40 3d
       0.028682655 -0.07391774 -0.059301943 0.047064636
000110 be cc e0 bc c5 51 27 bc 6b ad cd 3c 42 8f 6c 3d
       -0.027441379 -0.0102123665 0.025107106 0.05775381
000120 ef fd ca bd 90 69 be 3d f7 80 80 bd ce c4 d3 3d
       -0.09911715 0.09297478 -0.06274598 0.10340272
000130 36 b8 01 be ae d2 17 be 3e f1 c5 3c 4a b6 ce 3d
       -0.12667927 -0.14826462 0.024162885 0.10093363
000140 e8 a3 82 3d 29 a5 f0 bd 58 86 ba 3d 2b 2a 52 3d
       0.06378919 -0.11750252 0.09107655 0.051309746
000150 a7 56 38 3d 2d 48 06 3d d7 a7 92 3d 94 c3 93 3c
       0.045004513 0.032783676 0.07160919 0.018037595
000160 a8 e9 de bb 58 2b 62 3c a8 fe 73 bd 77 63 05 3e
       -0.0068027563 0.013804279 -0.05956903 0.13026224
000170 11 01 a0 bb e3 d7 12 3d d4 d7 cf bd 8a 04 82 bd
       -0.0048829396 0.035850417 -0.10148588 -0.06348522
000180 e0 a4 10 bb 1d cf 3e 3c 18 8c a0 bb 2b 28 03 be
       -0.002207093 0.011646059 -0.004899513 -0.12808292
000190 61 a0 2b be 1b f9 d5 bd 2e 2d ee 3d 03 fc c1 3c
       -0.16760398 -0.10447904 0.11629711 0.023679739
0001a0 0e 3d f2 3c cf 22 a0 3d 61 5f 84 3d 01 4e a3 3b
       0.029570129 0.07819139 0.064635046 0.004983664
0001b0 fc 79 b1 3d c2 dc d9 bb fb 10 b9 bd da 87 b2 bd
       0.08665845 -0.006648631 -0.09036442 -0.08717318
0001c0 53 36 ae 3d f2 49 a3 bd 6f 12 76 3d ca 40 75 bd
       0.08506455 -0.07973088 0.060076173 -0.05987624
0001d0 0d f9 72 bc 5d de 86 bd 3a 32 a1 3d f8 e3 70 bc
       -0.014829886 -0.06585381 0.07870908 -0.0147027895
0001e0 04 43 c0 bd 6c 53 d4 bc b4 d9 d8 3c 6f 94 6a 3d
       -0.09387782 -0.025918685 0.026470996 0.057270464
0001f0 8b 6a c2 bc e1 c3 bd bd e5 8b 2e bd c8 7e 59 3c
       -0.023732444 -0.092658766 -0.042613883 0.013274856
000200 bf 1a 6d 3d 9d dc 35 3c 04 a6 ac 3d 9c b2 5b bd
       0.057886835 0.011099962 0.084301025 -0.053637132
000210 50 d1 58 bb d6 82 05 be c8 69 b7 bd d1 98 e1 3b
       -0.0033083744 -0.13038191 -0.08955723 0.006884672
000220 c0 19 8a 3d 43 0a e2 3d 7d a5 a9 bd d2 27 a6 bd
       0.06743193 0.110371135 -0.082835175 -0.08113064
000230 a1 d4 12 3c d4 bd 1a bc 6f a0 27 bc 08 66 51 3c
       0.0089618275 -0.009444673 -0.010231121 0.012780674
000240 b3 ed c8 3d a7 f6 bf bd 20 3e c8 3c ce 14 bf bd
       0.098109625 -0.09373217 0.024443686 -0.0933014
000250 fa 9f e2 bd a7 04 4d 3d 84 a0 ca 3c a1 d5 8e 3d
       -0.11065669 0.050053265 0.024734743 0.0697434
000260 1f 26 e1 bd 27 f8 86 bd 10 80 f2 bd cd fe 5a bd
       -0.10993599 -0.065903 -0.11840832 -0.053465653
000270 f2 06 11 bd 7d e8 86 3d c1 8d 8e 3b 9e f5 9e bc
       -0.035407014 0.06587312 0.0043503945 -0.019404229
000280 24 fb 9f 3d f8 68 b1 3d 38 3d 9d 3d 60 58 a6 bd
       0.07811573 0.08662599 0.07677692 -0.08122325
000290 5c 21 5b bd 32 4c 92 bd e9 95 dd 3d a3 e5 6e 3c
       -0.05349861 -0.07143439 0.10819609 0.014581117
0002a0 18 b4 79 3d 3b c2 9c bd fa 58 80 3d f1 1d 50 bb
       0.060962766 -0.07654234 0.06266971 -0.0031756128
0002b0 e4 d9 a4 bd 86 a5 d1 bd c7 4d 9d 3c 65 3d 36 3d
       -0.08049372 -0.10236649 0.019202126 0.044492144
0002c0 ef ae 27 bc ec d5 20 bd be 92 dc bd ab 32 79 bd
       -0.0102345785 -0.03926651 -0.10770176 -0.060839336
0002d0 11 28 f9 3d 05 2b a2 b9 b7 e3 02 3d cc ea e9 bb
       0.12165845 -0.000309311 0.031955447 -0.0071385857
0002e0 73 00 95 3d 26 6c 95 bd 7f 9c 57 3d 51 cb 34 3d
       0.07275476 -0.07296018 0.05263948 0.04413921
0002f0 39 9a f9 bd af cc 9e bd 05 43 ef 3c 9a 03 9e bd
       -0.12187619 -0.07753884 0.029206762 -0.07715531
000300 4b 54 2b bd c4 90 75 3c 6c c5 f3 3d d7 1a 24 bd
       -0.041828435 0.014988128 0.119028896 -0.04006466
000310 42 5e 98 bd bd 50 e4 3d cd a1 73 bc b2 bd d0 bd
       -0.07439853 0.11148212 -0.014870119 -0.101924315
000320 66 ab c5 3d f4 d9 de bd 55 d9 ca bd 58 04 23 ba
       0.09651832 -0.10881415 -0.09904734 -0.0006218604
000330 ea 2c 2b bc 33 6a 67 bd b4 2c 06 3d c9 ab eb bd
       -0.01044772 -0.056497764 0.032757476 -0.11507375
000340 2b a6 ba bd 9a b4 e0 3d 8d 06 49 bd ee 02 d5 bd
       -0.09113725 0.10971947 -0.049078513 -0.104009494
000350 70 00 ac bd 48 da 24 bd 9a e7 6c bd 81 f3 8c 3d
       -0.08398521 -0.04024723 -0.05783806 0.06882382
000360 9a a6 fe 3d 9c d5 17 bc f6 3d 6c 3d 86 bf a9 3d
       0.124341205 -0.009267237 0.057676278 0.08288483
000370 98 55 03 3d f1 19 ee 3c 86 36 b4 bd ad 9b a8 3d
       0.03206405 0.029065104 -0.08799462 0.08232818
000380 81 de 9f bd 5b f5 8b 3d 52 d7 e1 bd c1 4f c2 3d
       -0.07806111 0.06833907 -0.11027397 0.09487868
000390 ae db 8d bd dc c0 21 bd 95 e8 3d 3d 50 98 db bd
       -0.06926666 -0.039490566 0.046364386 -0.10722411
0003a0 75 f6 5a bd 94 09 43 3c 68 f1 fa 3d 81 50 59 3d
       -0.053457696 0.011904139 0.12253076 0.05305529
0003b0 2e cf 93 3d 65 6a a4 bd 92 b3 04 bd c5 b7 ac 3c
       0.07217251 -0.08028106 -0.032397814 0.021083722
0003c0 08 e3 f2 bd 42 a0 df 3c 99 ab c1 bd 92 11 7e 3d
       -0.11859709 0.027298097 -0.09456558 0.062028475
0003d0 1f 49 5c 3d 6c 6e 32 3d 3f 0e 8d bc f2 f2 ad 3d
       0.05378067 0.043562338 -0.017218707 0.08493604
0003e0 05 27 ec bb cd 8b a0 bd bf 70 89 3c d3 f2 14 be
       -0.0072068 -0.07839165 0.016777394 -0.14545755
0003f0 4c 25 37 bd 5d 57 97 bd ef 9a fd bd 73 3f aa bd
       -0.044713303 -0.0738971 -0.12383067 -0.08312883

weight f4 [16]
000000 cf 44 80 3f 63 80 7f 3f c0 bb 7c 3f f8 cc 7f 3f
       1.0020999 0.9980528 0.98723984 0.9992213
000010 c1 e6 83 3f 9f db 7d 3f 11 8a 7b 3f c8 32 7f 3f
       1.0304796 0.9916324 0.9825755 0.9968686
000020 ca 73 80 3f e6 68 7f 3f 55 8c 7d 3f df 02 83 3f
       1.0035336 0.9976944 0.99042255 1.0235251
000030 32 b2 81 3f 25 f2 78 3f d6 97 81 3f 6a a7 7f 3f
       1.0132506 0.97244483 1.0124462 0.9986483

bias f4 [16]
000000 58 f0 5b 38 29 7a f9 3b 35 52 cc bb 26 eb 79 ba
       5.2437506e-05 0.0076134396 -0.006235386 -0.0009533636
000010 05 13 7d bc 42 1e 8d bc 09 fc d9 3b ec 6a f0 bb
       -0.015446429 -0.017226342 0.0066523594 -0.007336965
000020 f5 00 c1 3b 1f 11 18 bc 9b d3 8b 3c c0 b6 38 3c
       0.0058900067 -0.009281426 0.017068675 0.01127404
000030 b9 62 8d 3b c1 0e ad 3b 48 a7 f5 3c c9 40 43 bb
       0.004314747 0.0052813 0.029986992 -0.0029793254

running_mean f4 [16]
000000 4a 05 30 3e 30 17 a4 be f9 20 7a bf e5 48 00 3f
       0.17189518 -0.3204894 -0.9770656 0.5011123
000010 2d 69 80 3f fe 23 80 bf a8 4e fb 3e 75 7b 00 3c
       1.0032097 -1.0010984 0.49083447 0.007841934
000020 fa 64 d5 bd 12 9b f8 be 66 c8 23 be 2c 6a 9c be
       -0.104196504 -0.4855581 -0.15994415 -0.30549753
000030 ab f9 01 c0 e1 35 12 bf 4e 1e ad 3e 6c 87 bc be
       -2.0308635 -0.5711346 0.33812183 -0.3682207

running_var f4 [16]
000000 ba 51 1d 3f a9 7c b2 3e 2e 83 c8 3e 02 82 26 3f
       0.6145283 0.34860733 0.39162582 0.65042126
000010 08 69 9e 3f b9 be 75 3f a7 8b 05 3f 40 44 d0 3e
       1.2375803 0.95994145 0.5216622 0.4067707
000020 53 7b 13 3f 3f 92 ac 3e 78 c1 30 3f 08 66 07 3f
       0.5761005 0.33705327 0.6904521 0.5289006
000030 e9 21 8d 3f fc a4 8f 3f 7f 2c df 3e 7a 6a 31 3f
       1.1025974 1.1222224 0.43588635 0.69303095
