save/bs32ep30sf4.pth (torch_old, 207978 bytes, 102 tensors)

weight f4 [4, 3, 3, 3]
000000 16 c4 3a 3e e5 6a 04 3e e4 b8 5a be 1b 63 e9 bc
       0.18238863 0.12931402 -0.21359593 -0.02848964
000010 99 83 5f bc 71 98 06 3b fc 50 01 3c 70 30 cc 3d
       -0.013642215 0.002053764 0.007892843 0.09970176
000020 5c 7a 00 3e 90 a7 b6 bd 4f 02 0f bb 95 55 dc 3d
       0.12546676 -0.08918679 -0.0021821444 0.10758511
000030 c3 0f be 3d 81 46 5a 3e 40 34 69 3e 2c 8f 21 3e
       0.0928035 0.21315958 0.22773838 0.15777272
000040 d9 f4 d3 bd dd 75 f6 3b 4a 9f 2a 3d ff 01 15 be
       -0.10349435 0.0075213746 0.041655816 -0.14551543
000050 6a 26 1c bd bf 72 81 3e ec 5e 88 3e ca 58 bf bd
       -0.038122572 0.25282857 0.2663492 -0.09343107
000060 54 b0 df bd 82 9a b3 bc 5f 38 98 bd e7 94 9b bd
       -0.10922304 -0.021924261 -0.07432627 -0.0759676
000070 95 c4 ab bd 8e c6 0c be 4d 57 ff 3d 7f a0 e7 bb
       -0.083871044 -0.13747618 0.12467823 -0.007068693
000080 33 69 27 be 0b 23 84 3d 62 32 6c 3e 6c 16 42 3e
       -0.16348724 0.064519964 0.23066095 0.18953866
000090 51 c1 01 3b c0 f4 31 be f3 53 e7 bd 50 58 5a be
       0.0019799063 -0.17378521 -0.11295309 -0.21322751
0000a0 c9 29 87 bc 46 c2 9e 3c d9 16 88 bd 07 84 58 3e
       -0.016499417 0.019379746 -0.06644983 0.21144114
0000b0 f6 e8 97 bd d3 fe ca bd 1d 9c 75 bd 9c db 10 3e
       -0.07417481 -0.09911885 -0.059963334 0.14146274
0000c0 fe 93 2d 3e 94 db 98 3e 79 61 3a 3e 1c d6 08 3e
       0.16950986 0.29855025 0.18201245 0.13362926
0000d0 03 ea 1a bd 3c d6 66 3d 3b 57 57 be 09 ca 23 3e
       -0.037820827 0.056356654 -0.2102937 0.15995039
0000e0 01 e1 1a be ae f8 6a be 1d d3 5b be aa 89 2a be
       -0.15124895 -0.22946426 -0.21467252 -0.16654077
0000f0 94 67 27 be 34 40 d8 3d d3 a2 8a bd d7 dd dc 3d
       -0.16348106 0.10559121 -0.067693375 0.107845
000100 49 f8 d9 3c d5 9a e9 3d 11 40 20 be dd b9 35 3d
       0.02660765 0.11406485 -0.1564944 0.044366706
000110 68 e1 49 3c 54 97 eb bd a2 8f e1 bd 7d d7 d9 bd
       0.012321807 -0.11503473 -0.11013724 -0.10636804
000120 98 7e 94 3e ae e3 95 3e be c3 ce 3d 80 01 90 3d
       0.29002833 0.29275268 0.100959286 0.07031536
000130 c8 78 ed 3d ec b8 9b bc 60 a2 ce bd 4f c2 44 3e
       0.11595303 -0.019009076 -0.10089564 0.19214748
000140 ac 12 85 3d 0f 44 b7 3e 93 be d2 3d 3a ae b7 3b
       0.06497702 0.35794112 0.102902554 0.005605486
000150 5a 0f 39 3e c1 d3 1c 3e 00 55 70 3c c5 56 18 be
       0.18072262 0.15315153 0.014668703 -0.1487685
000160 a7 2a f3 3d 07 ff a9 bd 30 05 d6 3c 10 20 c0 bc
       0.1187337 -0.08300596 0.02612552 -0.023452789
000170 af 6f ff bd 49 1c 3e bd c5 b1 3f be fd 6e ac be
       -0.12472474 -0.046413694 -0.18720157 -0.33678427
000180 1e 1f e3 3c da 9e 6d be f0 f4 3b be 6b bc ee 3a
       0.027724799 -0.23205128 -0.18355155 0.0018214112
000190 48 15 3c bd ec 9d 84 be 2c 30 7f bd 37 11 ca bd
       -0.045918733 -0.25901735 -0.0623018 -0.09866565
0001a0 81 99 50 be 4e 4f a5 3e 81 6b 98 3e 2d 49 af 3c
       -0.20371057 0.32287067 0.2976952 0.021397198

weight f4 [4]
000000 fe 95 74 3f 4f 32 7c 3f 0c 72 87 3f a2 59 8b 3f
       0.9554137 0.98514265 1.0581679 1.0886729

bias f4 [4]
000000 e6 bb a3 bc f9 ae e5 3d 87 14 9f 3d 66 40 62 3d
       -0.019987058 0.11215014 0.07767587 0.055237196

running_mean f4 [4]
000000 a7 28 65 be b1 f1 b9 bd ca 50 b2 3d 60 46 94 3d
       -0.22378789 -0.09079302 0.087068155 0.072399855

running_var f4 [4]
000000 b4 a5 e1 3f ba a4 8a 3f dd 1f 82 3f b2 c0 a3 3f
       1.7628694 1.083152 1.0165974 1.2793181

weight f4 [4, 4, 3, 3]
000000 a6 40 f2 3d d3 45 86 3d f3 fe 74 3d 0c 2e 18 be
       0.11828737 0.06556287 0.05981345 -0.14861315
000010 50 ba 5e 3d 40 41 3a 3e e8 fd da bd 2a ee 5f be
       0.0543769 0.18188953 -0.1069296 -0.21868196
000020 3c 2a 85 bd 46 7b 8f bd 9f 3d 2a be f2 a0 3b bd
       -0.06502196 -0.070059344 -0.16625069 -0.045807786
000030 e3 fe a1 3d a0 08 83 bd 51 d6 36 3e c8 56 d1 3d
       0.07909944 -0.063981295 0.17855193 0.1022163
000040 a3 8e 2e bd 61 2c 81 3d e1 31 e6 3d 0d 3f 84 3e
       -0.042616498 0.06307293 0.112399824 0.25829354
000050 52 09 1b be 31 a5 cb bc c1 98 23 3c 62 cf e9 3c
       -0.15140274 -0.024859043 0.00998515 0.02854127
000060 0e 47 2e 3e 30 ce 12 be 23 0b 58 be 11 8e 2c be
       0.17019293 -0.14336467 -0.21097998 -0.16851069
000070 64 4f 6b 3e 69 cb 27 be 35 ce 07 be f7 ee 5b 3e
       0.22979504 -0.16386189 -0.13262255 0.21477877
000080 6b 5d 9b bd e1 db d9 bd f7 87 77 3e 2a 36 f2 bd
       -0.075861774 -0.10637642 0.2417296 -0.11826737
000090 54 f3 21 3d 65 be 70 3d ce 82 3f 3e f3 69 75 bc
       0.039538696 0.058775324 0.18702242 -0.014978874
0000a0 51 97 35 be fe 72 95 bb f8 1c c6 bc 72 89 f9 3b
       -0.17733504 -0.0045608273 -0.024183735 0.0076152617
0000b0 6a ac 9e 3d 58 d5 26 be 21 4b b6 3c 27 2e 9c bc
       0.07747729 -0.16292322 0.022252621 -0.019064976
0000c0 39 96 15 bd b7 12 d4 bd c4 bf ec 3d 94 03 29 be
       -0.036520217 -0.10355132 0.11560014 -0.16505271
0000d0 4e b6 36 be 05 a0 fb 3d 1e 34 3f be 46 38 63 3e
       -0.17842981 0.12286381 -0.18672225 0.22189435
0000e0 7a 66 5a 3e 14 4d 45 3d bb 60 b9 bd 67 33 b6 bd
       0.21328154 0.04816921 -0.09051653 -0.08896523
0000f0 ea 1b 41 be 55 aa b7 bc 44 ad 0c 3e 57 98 df bd
       -0.18858305 -0.022420088 0.1373797 -0.109177284
000100 46 0d d3 3d ef 48 04 bd d9 7c 5f bc bd 70 05 3b
       0.10305266 -0.032296117 -0.013640606 0.0020361387
000110 b1 be d7 bd 6c fc 58 3b 91 0a 09 bd 19 d8 76 be
       -0.105344184 0.003310944 -0.033457343 -0.24105872
000120 0b 99 31 bd 3a 0f 76 bd 5e 51 f6 bd 50 67 5d 3d
       -0.043358844 -0.060073115 -0.12027238 0.054053605
000130 58 89 00 be 5e a5 72 bd 96 94 3a 3e 90 fa d9 3d
       -0.12552392 -0.059239738 0.18220744 0.10643494
000140 55 55 1d 3e 58 fc c4 3d f4 ef f3 bd 3e 3d 34 be
       0.15364583 0.09618443 -0.11911002 -0.17601487
000150 8d fa a2 bd a5 c2 c6 bc 2d de 01 bd 8d 46 4b 3e
       -0.07957945 -0.024262736 -0.031706024 0.19851132
000160 6b 79 06 bd 2d db 14 3d d6 10 2f be 44 f0 43 3c
       -0.032830637 0.036341835 -0.17096266 0.011959139
000170 81 85 4d 3e ed ae a7 bb 3a e5 c8 3c 03 23 31 3e
       0.20070459 -0.0051172883 0.024523366 0.17298512
000180 00 da 4a bc 33 32 7a bd 6e 18 a6 bc 64 48 81 3d
       -0.012381077 -0.06108303 -0.02027532 0.063126355
000190 d7 fb 27 3d 96 3d 26 be 7a 3f 5f 3d e1 72 0a 3e
       0.041011658 -0.1623443 0.054503895 0.13520385
0001a0 41 01 a6 3c ea 35 f7 3c ec e9 11 3e b2 c7 dd 3d
       0.02026427 0.030177075 0.1424939 0.108291045
0001b0 73 fa c6 bd dd cc 81 bd f0 65 3c 3e 27 d9 60 3d
       -0.09715738 -0.06337903 0.18398261 0.054894593
0001c0 84 2b e7 3d 29 0f 88 3d 8e e6 4a bd 67 56 db 3d
       0.11287597 0.066435166 -0.04953628 0.10709839
0001d0 a4 7a 18 3d ec 09 80 3c b2 b4 03 3e a6 43 1d 3e
       0.037226334 0.015629731 0.12861899 0.15357837
0001e0 b3 95 a9 3d c5 7f 70 3e 51 99 18 3d e7 1f c5 bd
       0.08280506 0.2348624 0.03725559 -0.096252255
0001f0 d4 ef db 3d e6 d5 5c 3d e5 d1 0e 3d 98 8a f3 bc
       0.10739103 0.053914927 0.03486814 -0.029729173
000200 67 92 c8 3c ca 29 58 3c bb 0a 07 be 94 20 99 3d
       0.024483873 0.013193557 -0.13187687 0.07476917
000210 17 ce a1 bd 82 31 9e 3d ed 36 05 3d ea 64 ab 3d
       -0.07900637 0.077242866 0.032523084 0.08368857
000220 70 0c 52 be 9f 9a 11 be 32 f7 b0 bc 5b 6f f1 bd
       -0.20512557 -0.1421914 -0.021602247 -0.117888175
000230 90 8c 14 be 7f 13 be 3d 13 e1 e5 3b 24 a1 11 3e
       -0.14506745 0.09281062 0.0070153563 0.14221627

weight f4 [4]
000000 4b 6f 7f 3f e6 71 82 3f 9f 71 71 3f cc 9c 84 3f
       0.99779195 1.0191009 0.94314 1.0360351

bias f4 [4]
000000 6b cd 97 bd 45 d0 cf 3b ce 2b bf bd da 69 a8 3c
       -0.07412227 0.0063419663 -0.09334527 0.020558286

running_mean f4 [4]
000000 3a 4a bb bc 59 00 88 be 65 be 6a 3e d6 fd a7 3e
       -0.022862542 -0.26562765 0.22924192 0.3281085

running_var f4 [4]
000000 fb 67 1d 3e 71 97 0b 3e 23 4b 33 3e f1 b1 e0 3e
       0.15371697 0.13631989 0.17509131 0.4388576

weight f4 [4, 4, 3, 3]
000000 7b 54 ef 3c 4d 04 68 be a8 d4 a3 bd a7 27 92 bd
       0.029215088 -0.2265789 -0.07999545 -0.07136469
000010 26 98 e1 3d 75 4d 69 3d c9 f1 4a 3c 02 23 74 3e
       0.11015348 0.056958634 0.012386748 0.2384148
000020 02 48 99 3d 02 66 0f 3e c3 e9 0b be f3 da 49 bc
       0.074844375 0.14003757 -0.13663392 -0.012320268
000030 ab 32 23 3e f9 6c f7 3d bf 8b 57 be 2a ce ce bc
       0.15937297 0.12081332 -0.21049403 -0.025244791
000040 b2 32 97 bd a5 b7 91 bd 66 78 65 bd 0c 47 72 bd
       -0.07382716 -0.071151055 -0.056023024 -0.059149787
000050 69 ee ef bd 4f e4 6b 3d c5 f4 9d bd 2d 9f 04 be
       -0.11715395 0.05759078 -0.07712702 -0.12951346
000060 7f 2a 9b 3d 02 46 ab 3d 3b 3d 07 be 6e 59 b1 bd
       0.07576465 0.08362962 -0.13206951 -0.086596355
000070 48 78 88 bd 01 3a 22 be 9d 0d 27 3e e8 b0 ab bd
       -0.06663567 -0.15842439 0.16313787 -0.083833516
000080 30 dc 1b be 6d 2a 09 3e cd a1 6b 3d f4 3e 34 be
       -0.15220714 0.1339509 0.057527352 -0.1760214
000090 9d 0a ba 3d 40 b5 69 3d 68 38 4c bc f9 c9 86 bd
       0.090840556 0.05705762 -0.01246462 -0.06581492
0000a0 1b bb c4 bd c7 88 6f be 58 3b e8 b8 ab 97 5b be
       -0.09606 -0.2339202 -0.00011073676 -0.21444575
0000b0 78 2a 23 3d 9e 56 17 bd fd c0 05 bd 54 76 62 bd
       0.039835423 -0.03694784 -0.03265475 -0.055288628
0000c0 99 f1 c5 bb 63 1b 7a bd 7a bb 6b be 64 b9 53 3c
       -0.0060407636 -0.061061274 -0.23020735 0.012922619
0000d0 07 e1 5c 3c 93 d2 2a be a8 45 26 be 3a b8 ac bd
       0.013481385 -0.1668189 -0.16237509 -0.08433576
0000e0 78 46 10 3e f6 53 12 bc 47 77 0a 3e 07 5c 44 bd
       0.14089382 -0.008931151 0.13522063 -0.047939327
0000f0 46 09 ac bc 40 85 12 bc d4 cb 11 3e 94 66 a7 3d
       -0.021000516 -0.008942902 0.1423791 0.08173862
000100 a9 bd 59 3e fd c7 80 bd 48 7c c8 3d 86 f8 24 bc
       0.21263756 -0.06288145 0.0978933 -0.010069018
000110 4f 1e 13 be 6d 2d 4b bd b7 94 58 3d e5 e1 92 be
       -0.1436703 -0.04960387 0.0528762 -0.2868797
000120 e6 5c 17 bd fd f5 c3 bd c6 a6 ac bc 7f 63 e2 3d
       -0.03695383 -0.09568403 -0.021075618 0.110541336
000130 ed 95 a1 bd 34 84 7e bc cf a7 ff bc bb da 9d 3d
       -0.07889924 -0.015534449 -0.031207947 0.07707735
000140 39 56 1f bd 79 bf c8 3d f3 3b 61 3d e7 c6 d2 3c
       -0.038900588 0.098021455 0.054988813 0.02572961
000150 83 02 d6 bd 5a ff cf bd 65 1d 5f be c2 fb 1d bd
       -0.10449698 -0.10156126 -0.21788557 -0.038570173
000160 99 85 39 bc 61 29 29 3d ae 35 0b 3b 41 e2 2d be
       -0.011323356 0.041299228 0.0021241712 -0.1698084
000170 1a db 4a bd ad 63 01 be 24 30 94 3d 1b c0 ed bd
       -0.049525358 -0.1263568 0.072357446 -0.11608907
000180 4b 63 97 bd d2 c9 a0 bd f6 1d 96 bd 77 cb 0d 3e
       -0.073919855 -0.07850994 -0.07329933 0.13847147
000190 b7 37 79 3e 83 ed 45 3d 88 88 f4 bc 9f bd f7 3d
       0.2433766 0.048322212 -0.02985026 0.12096714
0001a0 ce e7 07 be b1 d9 d1 bd 53 01 3a bc 71 6f 5d bd
       -0.1327202 -0.102465995 -0.011352855 -0.054061357
0001b0 50 4a 05 3e 18 f9 c7 3d 5c a4 88 3d de c8 8f 3d
       0.13016629 0.09764308 0.06671974 0.07020734
0001c0 97 2e 0a 3e 5d f5 9b 3d 7e 5d 2a 3e 55 ed a7 bd
       0.13494335 0.07615159 0.16637227 -0.08199564
0001d0 2e ca b0 3d 45 cd b0 bd 17 10 ee bd 1f 63 be 3c
       0.08632313 -0.08632902 -0.11624163 0.023240624
0001e0 f6 f4 ea 3b 54 73 ea bd fc a8 25 3e a2 2e 0f 3e
       0.007170315 -0.11447778 0.16177744 0.13982633
0001f0 50 ba b3 bc 8b 1c ca bc 40 6e cc 3d 3a c8 05 3e
       -0.021939427 -0.024671813 0.09981966 0.13064662
000200 e8 1a 30 bc bb 1c f9 3d 2e 79 ad 3d 7b 99 c7 bc
       -0.010748602 0.12163683 0.08470379 -0.024365177
000210 0b 4a cf bd ae 71 e4 bd 91 9b ad 3c e5 aa 3f be
       -0.101215445 -0.11154495 0.021192344 -0.18717535
000220 52 bb 2f bd 25 61 93 bd 4a ef 3b be 05 ec 89 3d
       -0.042903252 -0.07196263 -0.18353 0.0673447
000230 d1 cc 24 be b0 0c 8c bd b8 a5 97 3d 1d 5f c7 bd
       -0.16093756 -0.068383574 0.07404655 -0.09734938

weight f4 [4]
000000 9d f4 80 3f 89 e1 76 3f 23 d8 74 3f 82 cb 72 3f
       1.007465 0.9643789 0.956423 0.9484178

bias f4 [4]
000000 57 91 57 bd b1 7d bd 3c c5 70 95 3b af 6b 88 bd
       -0.05262884 0.023131223 0.0045605623 -0.06661164

running_mean f4 [4]
000000 80 a6 75 be 0e 3f a4 be b9 31 59 be bd 02 ed bc
       -0.23989296 -0.32079357 -0.21210374 -0.02893197

running_var f4 [4]
000000 35 e7 05 3e 40 f8 1b 3e c8 0d 3f 3e d5 ab c2 3e
       0.1307648 0.15231419 0.18657601 0.38021722

weight f4 [4, 4, 3, 3]
000000 8e 3a ac ba da 01 03 3e 4b df 06 3c 79 f7 6e 3d
       -0.0013140009 0.12793675 0.008231948 0.058341477
000010 17 98 8c bc 46 76 d2 bd 4b 68 98 bd 76 98 6d 3d
       -0.017162366 -0.10276465 -0.07441767 0.058006726
000020 ea 19 81 3d 0f 43 31 3e 36 e7 38 be 44 0f 4e bd
       0.06303771 0.17310737 -0.1805695 -0.050307527
000030 59 be ff 3d b1 31 c0 3d 0d 1d 29 be 67 10 f4 3c
       0.12487478 0.09384478 -0.16514988 0.029792977
000040 89 c3 c0 ba 1a cd 3e be 22 b3 f1 bd 33 81 98 3c
       -0.0014706712 -0.18632928 -0.11801745 0.018616294
000050 f6 3a 9c 3d ca 05 ee 3c 2c d9 0d 3e a7 6f d7 bd
       0.076284334 0.029055495 0.13852376 -0.10519343
000060 76 21 15 be ca d9 ff bc ed f3 73 bd ad fa b2 3d
       -0.14563546 -0.03123178 -0.059558798 0.08739219
000070 dc 8c 81 bd 54 af eb 3d a6 b1 97 3d ba b6 e0 bd
       -0.06325695 0.115080506 0.074069306 -0.10972352
000080 7b 7c 1d 3e 00 07 62 3e 02 67 1d 3e 2b 6e 3c 3e
       0.15379517 0.22072983 0.15371326 0.184014
000090 1e 4e 28 3e 5c 82 26 bc 8a fb 12 be 39 cd 06 be
       0.1643605 -0.010162916 -0.14353767 -0.13164224
0000a0 8e ad e9 3d e0 ff 23 3e dd b1 8f 3c ea 6d b6 3d
       0.11410056 0.16015577 0.017540867 0.08907683
0000b0 c9 8a e2 3d 21 42 5b 3e 43 38 02 be 84 20 be bd
       0.110616274 0.21411945 -0.12716775 -0.092835456
0000c0 02 dd a4 3d 75 22 c0 3d fa c6 c5 3d ac e1 a2 bd
       0.080499664 0.09381572 0.096570924 -0.079532
0000d0 b9 bd c2 3d c4 8f db bd 12 10 fb 3d 01 7a 47 3e
       0.09508843 -0.107207805 0.122589245 0.19480135
0000e0 49 62 10 3e 55 29 ea 3c 11 a9 b3 bd 32 8a ec 3d
       0.14099993 0.028584162 -0.08772481 0.11549796
0000f0 a5 fe 06 be e6 0d 07 be 5b 7d a8 3d 4f eb c5 bd
       -0.13183077 -0.13188896 0.08227035 -0.09664022
000100 f4 7b 18 be 7d a0 00 be d0 11 a8 3d d5 63 41 bc
       -0.14891034 -0.12561221 0.082065225 -0.011803587
000110 74 cc 80 3d 31 87 3a 3e f0 79 63 3d 7a 27 19 3e
       0.06288996 0.18215634 0.05553621 0.14956465
000120 76 ea 45 bd 9c f7 89 bd 59 24 68 3d b3 3f 8b bd
       -0.048319302 -0.06736681 0.05667529 -0.06799259
000130 f7 47 84 3d ff 20 09 3d ec a9 40 be 31 16 30 be
       0.06459039 0.033478733 -0.1881482 -0.17195965
000140 9a b6 b7 3d ab 95 49 bd 15 f4 45 3e a4 09 70 3e
       0.08970375 -0.049215 0.19331391 0.23441178
000150 4b f5 a0 bd 5a 34 3b 3e a1 f5 39 bd 3c b3 97 bd
       -0.07859286 0.1828169 -0.045400266 -0.07407233
000160 1d 98 88 bd 57 bd 25 be 1a 5e a7 bc fa dc 18 be
       -0.06669638 -0.16185509 -0.020430613 -0.14928046
000170 a8 ab 91 bb e8 98 58 3c 3f 6c 0f 3e 34 66 c7 bd
       -0.004445512 0.013220049 0.14006136 -0.097362906
000180 a0 7c 17 be 0a 5c b5 bd fa 2f 96 bd 6a 0d c3 bd
       -0.14793634 -0.08855446 -0.073333696 -0.09524043
000190 3f ec 2f be 1b aa 0c bc 0f 3f cb bc d7 b7 d1 bd
       -0.17179964 -0.008585478 -0.024810342 -0.10240143
0001a0 63 c6 50 bb 0e e3 0f bd 6c ff a1 3d 58 8f 18 bd
       -0.003185653 -0.035128646 0.07910046 -0.03724608
0001b0 98 27 d2 3c 4b 12 26 be a4 8e 75 3c 0a c0 15 be
       0.025653645 -0.16217916 0.014987621 -0.14624038
0001c0 91 80 b6 3d a7 77 59 bd cf cb 82 bd d6 ad 9d bd
       0.08911241 -0.053092625 -0.0638653 -0.07699172
0001d0 46 5c 61 bd 67 45 35 be 03 28 3c be f1 16 03 3e
       -0.05501964 -0.17702256 -0.18374638 0.1280172
0001e0 98 5b 56 bd 4e ef e4 3d 34 93 26 3e 3b 1a f9 bd
       -0.052333444 0.11178456 0.16267091 -0.12163206
0001f0 91 7f b2 bd 8c f7 e5 bc b7 f6 5b be 58 7a b5 bd
       -0.087157376 -0.028072141 -0.21480833 -0.08861226
000200 0c cf 0b 3e 0c f6 4f be 90 13 04 3d 5a de 06 3e
       0.13653201 -0.20308703 0.03224522 0.13170758
000210 c0 53 20 bd 15 b6 f8 3d a9 45 47 3e 23 c4 55 3e
       -0.03914237 0.121441044 0.19460167 0.20875601
000220 ba 21 12 3d f6 a7 1c 3e 5a b5 a7 3d 4e f5 28 be
       0.035676695 0.15298447 0.08188887 -0.16499826
000230 d9 04 ce bd a7 3c 48 3c 08 16 63 bc 60 d0 11 be
       -0.10059518 0.012221492 -0.013860233 -0.14239645

weight f4 [4]
000000 b7 2f 82 3f e0 92 7b 3f 55 48 7b 3f e0 08 82 3f
       1.0170811 0.9827099 0.98157245 1.0158958

bias f4 [4]
000000 25 90 af 3d 33 47 51 3b 97 84 50 3d 24 06 bf bb
       0.08572415 0.0031933307 0.050907698 -0.0058295894

running_mean f4 [4]
000000 49 95 ba 3e 1d 1e 28 3f 2e d6 18 bf 9f f5 9c be
       0.3644202 0.6567095 -0.5970181 -0.30656144

running_var f4 [4]
000000 bb a4 34 3f 1b a4 a1 3e 8f ad 71 3e 08 70 08 3f
       0.7056386 0.31570515 0.23601364 0.53295946

weight f4 [4, 4, 3, 3]
000000 c3 7d 8f bc b9 99 a0 3d a3 3c b0 3c 9c a3 a6 bd
       -0.017516023 0.0784182 0.021513289 -0.08136675
000010 50 98 8b 3d 8c 86 ed 3d 31 3e eb bc 3f ed 8b 3d
       0.06816161 0.115979284 -0.028716179 0.068323605
000020 b3 5b 0c 3d 6d bd e2 3d 75 af a2 3d c9 b7 fd bd
       0.03426714 0.11071286 0.07943622 -0.1238857
000030 78 9c 9d bd fb 1f b6 3d 84 ba bc bd 42 a1 a1 bc
       -0.0769586 0.088928185 -0.092152625 -0.019730214
000040 01 04 24 bd a0 48 09 3d 14 2c f7 3d 81 d0 06 3d
       -0.04004288 0.033516526 0.12068954 0.03291369
000050 de e9 b6 bd 91 5e 05 3e 15 80 0d be f6 d5 36 be
       -0.089313254 0.13024355 -0.1381839 -0.17855057
000060 04 6c 84 bc 12 4a 16 3e 91 76 22 be f8 fd 12 3e
       -0.016164787 0.14676693 -0.15865542 0.14354694
000070 75 d1 12 3c d0 52 d0 bc 76 90 64 3c 8c 79 f1 3d
       0.008961071 -0.025430113 0.013950458 0.11790761
000080 0c fc 52 bd 76 11 4b 3e 56 53 b6 bc ca ed 42 be
       -0.051509902 0.1983088 -0.022256535 -0.19036022
000090 b9 1b 8a bd 19 4e ad 3d 79 78 42 3d 8e 99 42 be
       -0.06743569 0.084621616 0.047478173 -0.19003889
0000a0 0e 55 36 be 0e cf 67 bd b1 16 c1 bd 44 f8 f6 bd
       -0.17805883 -0.056593947 -0.09428156 -0.12059072
0000b0 f9 ea 35 be 7a 6d 8f bd bc 6f 59 bd f4 56 2c bc
       -0.17765416 -0.07003303 -0.053085074 -0.010518778
0000c0 c0 b7 fd 3b 76 f2 8d bc a2 72 5e bd 58 4c 3f be
       0.007742852 -0.017327528 -0.05430854 -0.18681467
0000d0 be f0 8d 3d bb 34 0b be a8 81 0a 3e 5f 8c 97 bd
       0.069306836 -0.13594334 0.13526022 -0.073998205
0000e0 4f 3e e3 bc e7 8c a2 bd fd dd 22 be 11 97 a4 3d
       -0.027739672 -0.07937031 -0.15904994 0.08036626
0000f0 5b 6c 1e 3e 13 33 91 3c 53 89 03 3e 2e c2 e2 3d
       0.15471022 0.01772455 0.12845354 0.11072193
000100 30 a2 b0 bd 0b 10 1c 3e 40 bc 56 3d c4 65 02 3d
       -0.08624685 0.15240495 0.052425623 0.031835333
000110 16 c3 e7 3d 23 0e cd 3b 7c 65 b5 bd ab 3b 10 3d
       0.113165066 0.0062577887 -0.08857247 0.035213154
000120 3c a9 07 be f6 85 ea bd 1a 84 59 be 13 11 41 3d
       -0.13248152 -0.11451332 -0.21241799 0.047135424
000130 e8 b9 bd bd 8c f6 06 3e cb 53 2f bc 54 55 93 bd
       -0.092639744 0.13179988 -0.01070113 -0.071940094
000140 3a 10 2b 3e 29 e4 0c be 96 62 a4 3d 99 e1 39 bc
       0.16705409 -0.13758911 0.08026616 -0.011345291
000150 96 35 63 bd b7 3e ff bd 3e ad 7b bc 1b 9b 0f be
       -0.055471025 -0.12463134 -0.015361128 -0.14024012
000160 ff 0a 87 bc 0c 86 0a 3e b3 dc eb 3b 92 1c 0d be
       -0.016484736 0.13527697 0.0071979403 -0.1378043
000170 70 1f 8e bd 6a f6 fd 3c 69 e0 16 bd 56 00 97 3c
       -0.0693959 0.031001288 -0.036835108 0.018432777
000180 32 46 fe 3d 7b d6 9a bc 9b d3 01 bb df e6 38 be
       0.124157324 -0.0189011 -0.0019809965 -0.1805682
000190 2e c9 de 3d 03 7f f6 bd 20 24 d0 3d 01 60 4f bd
       0.10878216 -0.12035944 0.1016314 -0.050628666
0001a0 24 f7 d6 bd 01 d5 13 be a9 3d 4e be 4e 86 87 bd
       -0.10496357 -0.14436723 -0.20140709 -0.066174135
0001b0 dc 78 de bd f5 af b7 3d 1d 55 f9 3d a7 db a9 3d
       -0.10862896 0.08969108 0.12174437 0.082938485
0001c0 19 0b 10 3e 5a 80 34 bd b3 5f 34 3d 60 eb bf 3d
       0.14066733 -0.044067718 0.04403658 0.09371066
0001d0 44 4c d3 bd 7d 3a d2 bd 21 f7 28 3c c0 00 1b bc
       -0.10317281 -0.10265062 0.010312826 -0.009460628
0001e0 c7 22 a3 bd af ab 1e bb c3 48 b9 bd fc 92 62 bd
       -0.079656176 -0.0024211218 -0.09047081 -0.055315956
0001f0 85 87 03 be e3 64 2b be bb d7 b6 bd 3a d4 bb 3c
       -0.12844665 -0.16737704 -0.08927866 0.022928346
000200 66 3b 68 3d a6 ed d8 3d c7 7d c0 3d 23 87 18 3c
       0.05669727 0.10592203 0.0939899 0.009309563
000210 e5 a6 a2 bd dc 02 6a be 25 12 19 be 94 44 0a bc
       -0.07941989 -0.22852653 -0.14948328 -0.008439202
000220 36 62 23 3e c8 c8 5d 3d 5d 84 db 3d bf 4e f8 bc
       0.15955433 0.054146558 0.10718606 -0.030310987
000230 b0 a2 ab bd b9 b7 b2 3d d7 4e c9 3d 8b d4 0d 3e
       -0.083806396 0.087264486 0.09829491 0.1385061

weight f4 [4]
000000 e6 dc 84 3f 7d 07 82 3f ec c1 80 3f d3 2d 77 3f
       1.0379913 1.0158535 1.005918 0.965543

bias f4 [4]
000000 7f 34 90 bc 4f 87 00 bc fa b8 0e 3d cf 35 c7 bc
       -0.017603157 -0.00784476 0.034844376 -0.02431765

running_mean f4 [4]
000000 e3 4f e4 3d ef 82 9b be a1 78 f4 be a8 ba 8c bb
       0.1114805 -0.30373332 -0.47748283 -0.004294712

running_var f4 [4]
000000 83 fd 08 3e ee 7d b3 3e b4 25 47 3e e4 e2 62 3e
       0.13377957 0.35057014 0.19447976 0.22156864

weight f4 [8, 4, 3, 3]
000000 60 50 99 3d 8c 04 32 be ea e0 f1 3c 68 47 00 3e
       0.074860334 -0.17384547 0.029526193 0.1252724
000010 c3 d2 ad bd fd 0d 08 3e ba f8 c9 3d 7f 68 8d 3d
       -0.08487465 0.13286586 0.09861894 0.06904697
000020 38 72 76 3c d4 4a 08 bd 10 0c e0 bd c6 91 39 bd
       0.01504188 -0.033274487 -0.10939801 -0.045305036
000030 f1 66 00 be ba 94 05 3d e1 3b 46 bd a0 f2 19 be
       -0.12539269 0.03261254 -0.04839695 -0.1503396
000040 c7 3f 4e 3d 74 be 46 be 44 07 2e be 8d f1 c3 3d
       0.05035379 -0.1940859 -0.16994959 0.095675565
000050 70 d1 c5 3d 42 03 34 be bc 9c 27 be 09 ed 36 be
       0.09659088 -0.17579368 -0.16368383 -0.17863859
000060 d1 2b 83 3d a6 73 a0 3c a3 21 a8 3d 72 15 8d bd
       0.06404842 0.019586395 0.08209541 -0.06888856
000070 0b 56 4a 3d f2 54 f2 bd 43 de 87 3d fa 76 08 3e
       0.049398463 -0.11832608 0.0663419 0.13326636
000080 d3 94 41 ba 2a 91 80 3d 8e 90 10 3e 00 a9 d4 3b
       -0.0007384542 0.06277688 0.14117643 0.006489873
000090 11 31 4a bd 18 21 32 be f0 59 c2 bd 01 f4 00 bd
       -0.0493632 -0.17395437 -0.094898105 -0.0314827
0000a0 54 c0 a0 bd 4f 67 28 be fe cb 4c bb 03 73 94 bc
       -0.07849184 -0.16445659 -0.0031249519 -0.018121248
0000b0 52 6b 69 bd 12 76 06 3e 21 24 f3 3d 0f c3 0c be
       -0.056987114 0.13130978 0.118721254 -0.13746284
0000c0 1d f1 f0 bd 91 c4 13 b9 f5 c7 20 bd 25 e0 2f bd
       -0.11764739 -0.00014092239 -0.039253194 -0.04293837
0000d0 7f 97 2e be ae 67 3f bd 97 af 6d bd a8 60 38 3e
       -0.17049979 -0.046729736 -0.058028784 0.18005621
0000e0 af 9a 28 3e 3b 40 03 3d 78 bd 8e bc 97 09 04 3e
       0.16465257 0.032043677 -0.01742433 0.12894283
0000f0 e3 0f 6e 3d 4e 32 b1 bd f9 98 76 bd 20 d0 ff bd
       0.05812062 -0.08652173 -0.06020448 -0.124908686
000100 c2 eb 2c be 95 3a b0 3d 5f 7e 28 3a 4b 07 3a bc
       -0.1688681 0.08604924 0.0006427522 -0.011354278
000110 f5 6d 16 be 5e c5 22 3d 11 cb d3 bd c7 a6 89 3c
       -0.14690383 0.039739005 -0.10341466 0.016803158
000120 ed 86 80 bd 3e 23 23 3e 63 a8 2a 3e 77 be 17 3e
       -0.06275735 0.15931413 0.16665797 0.1481875
000130 2a bd 3a 3e c3 0b 50 3d e2 b9 53 bd 12 eb f0 bd
       0.18236223 0.050792467 -0.051690944 -0.11763586
000140 2f 93 3d be 29 3d 2e be bd ac e5 3c 28 87 1f be
       -0.18513177 -0.17015518 0.02803647 -0.15578902
000150 13 30 36 3d 4d 4a 8e 3d 80 cf 10 3c 46 3e db bc
       0.04447944 0.069477655 0.008838534 -0.026763093
000160 f0 5b 2f be 97 2b d7 bd 56 cc 07 be 3a e0 21 be
       -0.17124915 -0.10506361 -0.13261542 -0.15808192
000170 ca 36 fb 3d 23 63 eb 3d 83 6f 92 3d cb 14 b8 3c
       0.122663096 0.11493518 0.071501754 0.022470852
000180 0c fa e5 bd a8 f7 19 bd 9c 93 c7 bd ea 09 fb bc
       -0.11229333 -0.0375897 -0.09744951 -0.030644376
000190 6b 39 a9 3d 49 3c dd bd 4c 57 f2 bd 3e 3d 3d bd
       0.08262905 -0.10802514 -0.11833057 -0.046200983
0001a0 42 59 13 bc d0 73 5c bd 94 fd 15 bd 0c 0d 59 bc
       -0.008993449 -0.053821385 -0.036618784 -0.0132477395
0001b0 b0 e8 dd bd e8 c0 0c 3e ba 58 b7 3d 9d 41 78 3c
       -0.10835397 0.13745463 0.0895247 0.015152362
0001c0 4e 75 05 be 46 c5 66 3d 26 bb f3 3c 0a 88 76 3c
       -0.1303303 0.05634048 0.029752325 0.015047083
0001d0 05 a6 13 be 8c 2a a1 3d 74 4f 1e bd ae ef 31 3d
       -0.144188 0.07869443 -0.03864999 0.043441467
0001e0 92 95 de bd 67 2d c4 bd 6e c6 30 be 31 58 a2 3d
       -0.10868372 -0.09578972 -0.17263195 0.079269774
0001f0 9e a0 d4 3d e7 76 00 3e 1e 96 96 3d 4c 08 ad bd
       0.10382198 0.12545358 0.07352851 -0.08448848
000200 d0 93 32 3e e9 98 05 3c b8 40 c3 3c fd da 84 bb
       0.17439198 0.008154132 0.023834571 -0.0040544257
000210 cf c4 10 bc 8d df 15 be 4e a8 2b be fa d0 bb 3d
       -0.008835985 -0.14636059 -0.16763422 0.091707185
000220 09 39 87 bd 5c 26 8e bd ee 2d e6 3d fe c6 13 bd
       -0.066026755 -0.0694091 0.11239229 -0.036078446
000230 e1 ed 0f 3e 30 bc 25 3c 06 9d c9 bd d7 7f 71 bd
       0.14055587 0.010115668 -0.09844403 -0.05895981
000240 9f 52 32 3e 95 6b af 3c 42 cd c1 bd b3 e5 a7 bd
       0.1741433 0.021413604 -0.09462978 -0.081981085
000250 e5 e4 1f 3e 72 a6 06 3e a6 8f fa bd 81 3b 74 bd
       0.1561466 0.13149431 -0.1223443 -0.05962706
000260 75 08 0b bd c6 ec 01 3e 84 d0 04 be b4 11 ae bc
       -0.033943612 0.12687978 -0.12970167 -0.021248676
000270 f7 38 1e be 43 02 8f bc c5 c2 63 bd 1a 84 32 3e
       -0.15451418 -0.017457133 -0.05560567 0.17433205
000280 c8 a8 74 3d 70 0a 27 3c 86 6a bf 3c 0f 5a 06 3e
       0.059731275 0.01019536 0.023366224 0.13120292
000290 9b 51 13 3e e4 86 5a 3d a6 84 57 bd 96 f5 36 be
       0.14386599 0.053351298 -0.052616738 -0.17867121
0002a0 a9 f0 ce bd 17 7c 83 bd 4c c1 3d 3d 80 8c 1d be
       -0.10104496 -0.06420153 0.04632692 -0.15385628
0002b0 d8 0a 3a be ed a1 7d bd e0 89 b8 3d 9e 8a 75 3b
       -0.18168199 -0.061922003 0.090106726 0.0037466655
0002c0 a8 65 15 be 67 b7 9e 3d 47 2b 2f 3e f2 21 64 3e
       -0.1458956 0.07749825 0.17106353 0.22278574
0002d0 ca b5 80 bc 74 65 35 3d d1 aa e6 bd c6 eb a5 3d
       -0.015711684 0.044286206 -0.112630494 0.08101611
0002e0 05 ba 5c 3d 15 d9 96 bb 3a b8 59 3d 19 c0 1b 3e
       0.05388834 -0.004603515 0.053154208 0.15209998
0002f0 28 4e 3b 3e 11 95 87 3d e1 d3 4f 3c aa 99 59 3d
       0.18291533 0.06620229 0.012684793 0.05312506
000300 8a 8d 35 3e 00 a5 8b bd 2e 68 8f 3d 4e 60 aa 3a
       0.17729774 -0.068185806 0.070022926 0.0012998672
000310 41 6a 4e 3d f0 62 c8 3d 54 78 b8 3d 89 89 7d bd
       0.0503943 0.09784496 0.09007326 -0.061898742
000320 a1 d7 a6 bd 05 69 d3 bd 73 7c e0 bd ff 08 b4 3d
       -0.08146597 -0.10322765 -0.10961237 0.08790778
000330 5b 54 0c bd b3 2e 26 3c cb 01 b3 bd e3 69 18 3e
       -0.034260135 0.01014297 -0.08740576 0.14884143
000340 29 5f 2c bd 15 ab a5 bc ee 95 84 bc 20 95 11 3e
       -0.04208294 -0.02022318 -0.016184773 0.14217043
000350 00 1e 03 3e 23 b5 3b 3e c6 9f 07 3e d9 7d 01 be
       0.12804413 0.18330817 0.13244542 -0.12645663
000360 d7 ae 34 3d 97 b7 26 3e 46 c8 21 3e 82 97 b5 3d
       0.044112053 0.16280971 0.15799055 0.088667884
000370 e6 cd ae 3d 97 83 1b bd 95 6a 0b be 19 8d cd 3d
       0.08535366 -0.03796729 -0.13614877 0.10036678
000380 f8 48 df 3d a3 92 77 bd ba 7e 96 bd fe b0 ef 3d
       0.109025896 -0.060442578 -0.0734839 0.117036805
000390 c2 4c 12 3e 82 75 1f 3e b4 03 bc bd a9 00 d1 bd
       0.14287093 0.1557217 -0.09180394 -0.10205204
0003a0 8b d6 c5 bd f1 fc 1e be 81 70 29 3e 5c 7f 2e 3e
       -0.096600614 -0.15526177 0.16546823 0.17040771
0003b0 02 3e 8f 3c e1 05 3f 3b 6b 4f 47 3e c1 d9 18 3d
       0.017485622 0.0029147791 0.1946389 0.03731704
0003c0 d7 b1 50 3d 60 1c 27 3d 1d 53 84 bc bc 37 b9 3b
       0.05095085 0.040798545 -0.016152913 0.005652396
0003d0 95 b3 00 be eb 2c c5 3d a9 8b 73 3d ea c5 b3 bd
       -0.12568505 0.09627708 0.059459362 -0.087779835
0003e0 80 19 16 3e 98 12 1f be 4e 91 99 3c cf 37 01 3e
       0.14658165 -0.15534437 0.018746044 0.12618946
0003f0 15 40 5b bd 07 c4 c6 3d d7 13 fc 3d cb cb 31 bd
       -0.05352791 0.09705358 0.12308472 -0.043407243

weight f4 [8]
000000 ca 3b 7d 3f 0a cb 86 3f da 0c 80 3f f2 2b 7a 3f
       0.98919356 1.0530713 1.0003922 0.97723305
000010 a9 d5 7d 3f 2c f7 81 3f da 4e 78 3f db e1 7f 3f
       0.99154145 1.0153556 0.9699532 0.99954003

bias f4 [8]
000000 c8 d9 98 3c de ba 86 3d 7d b9 1d 3c eb d4 e0 3b
       0.018658534 0.06578611 0.009626743 0.0068613193
000010 d3 42 64 bd e5 21 07 3c ef c3 16 3c d1 0f f8 3b
       -0.05572779 0.008247827 0.009201988 0.007570245

running_mean f4 [8]
000000 a9 9c dc be 70 25 62 bf 9b 14 39 bf d0 d7 23 be
       -0.43088272 -0.88338375 -0.72297066 -0.16000295
000010 91 6f b3 3d 58 f2 7d 3f 01 c0 81 3f 42 49 7b be
       0.08761514 0.9919791 1.013672 -0.24539664

running_var f4 [8]
000000 ee b3 77 3f 0a 7f 6f 3f 0f 20 8b 3e 37 64 90 3e
       0.96758926 0.9355322 0.27172896 0.28201458
000010 da 8c e5 3e 1e 11 1f 3f a3 86 47 3f 9e 94 84 3f
       0.44834024 0.62135494 0.77939814 1.0357854

weight f4 [8, 8, 3, 3]
000000 45 b3 95 3d 20 e4 ec bd fe 8c cd 3d c8 ae e2 3d
       0.073095836 -0.11566949 0.10036658 0.11068493
000010 98 22 7e 3d 6c 0c aa 3d 57 63 09 3c 27 02 0d be
       0.06204471 0.083031505 0.008385501 -0.13770352
000020 64 e2 2d 3d 16 1e a0 bd 20 47 89 bd a2 b9 9e bc
       0.04245223 -0.078182384 -0.06703019 -0.019375626
000030 7b 08 8e 3d 13 ba 9f 3a 5b bc fb bd a6 d3 d6 bd
       0.06935211 0.0012186192 -0.12291785 -0.104895875
000040 89 0b 01 bd 5e 0a a7 3d 70 3f 03 be 3f 9b 0d be
       -0.03150514 0.08156274 -0.12817168 -0.13828753
000050 fb 55 0a 3e 22 21 d9 3d 1f 85 68 bc 29 53 ca 3c
       0.13509361 0.10602023 -0.014191895 0.024697857
000060 e3 c8 9a 3d f1 51 2f 3c d7 9c 1f 3e 8d bd a7 bb
       0.07557847 0.010700689 0.15587173 -0.0051190318
000070 1f 0e b1 3c 7f eb 10 bd c0 f7 3e 3a 1f 37 6a 3d
       0.021613179 -0.035380837 0.00072848424 0.057181474
000080 66 79 a4 3c cb 7f 28 3c 3d 96 e2 3d 33 2c 59 bc
       0.020077419 0.0102843745 0.11063812 -0.013255167
000090 9b 72 91 bc 6f 49 7f 3d 23 b7 9c 3d 18 73 6c 3d
       -0.017754843 0.06232589 0.07652118 0.05772695
0000a0 5f fb 96 3d 82 8f 0d 3e 0e 19 e0 3d 90 9f 61 bd
       0.07372164 0.13824275 0.10942279 -0.05508381
0000b0 3c 2c 35 3c 9f 9f 05 be 15 e4 2c 3d fa 04 ab 3d
       0.01105791 -0.13049172 0.042209703 0.083505586
0000c0 94 86 78 bd 49 e7 a0 bd 9f 26 0e be d4 83 15 be
       -0.06067522 -0.07856614 -0.1388192 -0.1460107
0000d0 a9 4d 65 3d 88 e1 18 be 0e 65 a9 bc c5 ad 59 3d
       0.055982266 -0.14929783 -0.02067807 0.053144235
0000e0 65 42 dc 3b 75 cc cd bc 5d 2b 83 bc 23 c9 fd 3c
       0.006721782 -0.025121907 -0.016011888 0.030979699
0000f0 54 c5 09 be 51 7b 4a bd 6b da 05 be 85 14 ce bd
       -0.13454181 -0.04943401 -0.13071601 -0.100625075
000100 80 82 ce bc cc 75 e5 bc 3c 53 10 3d c2 11 03 bd
       -0.025208712 -0.028010271 0.03523563 -0.031999357
000110 c7 ef 09 bd 79 bc 2a bd b3 2f 98 bd d4 50 08 3c
       -0.033675935 -0.041683648 -0.07430973 0.008320052
000120 7f 37 c0 bd 34 3f c0 39 1d d6 00 3e c3 16 dc 3d
       -0.09385585 0.00036668184 0.12581678 0.10746529
000130 33 ec bb 3d 7a 49 9b bd 5b 20 bb 3d 9f b2 5d bd
       0.09175911 -0.07582374 0.09137031 -0.054125424
000140 fa 4c 91 3d 8e 8f aa 3c 96 f5 bb bd 2c e9 bc bd
       0.0709476 0.020820405 -0.09177701 -0.092241615
000150 05 31 7f bd 0b 56 ba bd 23 40 43 bd 2c 39 b2 bd
       -0.062302608 -0.09098443 -0.047668587 -0.08702311
000160 2b 15 3c ba b0 ef 1b 3d 4a 8e 04 3d a7 b5 b1 3c
       -0.0007174785 0.03807038 0.03236226 0.021693064
000170 93 74 ce bd f2 2d ff bc 14 21 4e 3c 89 1c 89 3d
       -0.100808285 -0.031149838 0.012581129 0.06694896
000180 af 9a 14 bd 3b 9f 6e bd ac d9 1c bd ed d2 20 bd
       -0.03628033 -0.058257323 -0.038293526 -0.039263655
000190 a7 90 04 3d 72 2f cf bd 39 dd a5 bc 5f 1c 02 be
       0.032364514 -0.10116471 -0.020247089 -0.12706135
0001a0 5a 42 d1 3c 3f a9 4b bd 2d 93 bd bd 7e 4f b3 bb
       0.025544334 -0.049721953 -0.09256587 -0.0054721227
0001b0 db a9 cc 3c f2 f7 4a bd 7e 11 6a 3a 0b dc a1 bd
       0.024983337 -0.049552865 0.0008928998 -0.07903298
0001c0 67 71 1b 3d 92 b2 7c 3c 1c c8 a7 3d 38 f7 82 bd
       0.037949946 0.015423434 0.08192465 -0.063948095
0001d0 2c fb 0b 3d af ee de 3b 67 b4 7f bd a1 84 10 3e
       0.034175083 0.0068033556 -0.062427904 0.14113094
0001e0 12 22 03 3e 37 e5 11 bd a8 d6 f4 3d 1e 3d 64 bd
       0.12805966 -0.035618987 0.11955005 -0.05572235
0001f0 6c 37 80 bd de 34 59 3d 4d 31 11 3d 07 16 20 bd
       -0.06260571 0.053028934 0.035447408 -0.039083507
000200 6c 23 d7 bc fd 29 5d 3c 85 3c b2 3d 17 d1 17 bd
       -0.026262008 0.01349878 0.087029494 -0.037064638
000210 8d 2a 75 3b 13 93 4a bd 32 be ef 3d 9a e3 2d bd
       0.0037409395 -0.049456667 0.11706199 -0.042453386
000220 49 5e bd 3d 0c e3 ac bc 73 5a 24 bd 4d 70 ab 3d
       0.09246499 -0.021104358 -0.04012532 0.08371029
000230 ca a9 e4 3c ad d2 ab 3d 32 31 d0 bd 8c 67 f8 3d
       0.027912993 0.083897926 -0.10165633 0.12129125
000240 a4 2f ea 3c ae e8 28 bc 6e 57 fa bc e7 4c 90 bd
       0.02858717 -0.010309381 -0.030559268 -0.07045918
000250 b7 63 ff 3c 9c 63 ef 3d c9 16 7a bd 99 c1 95 3d
       0.031175477 0.11688921 -0.061056886 0.073123164
000260 42 42 fa 3c 12 76 41 bd 7c 65 97 bd e1 41 01 3e
       0.030549172 -0.04723174 -0.073924035 0.12622787
000270 45 c4 0b bd cd 47 1c 3c d6 93 0f 3d 6f ca d4 3d
       -0.034122724 0.009538603 0.035053097 0.10390174
000280 d4 37 65 3d bc 41 cb 3d ee 8c ff bd 08 f0 13 3c
       0.055961445 0.09924647 -0.12478052 0.009029396
000290 31 99 8c bd 47 a1 a6 3b 08 ac 41 3c 48 13 0e bd
       -0.068651564 0.0050851437 0.011820801 -0.034686357
0002a0 35 52 c0 bd 4d b7 c0 3d 91 f5 68 3d 20 c8 a7 bd
       -0.0939068 0.09409962 0.056874815 -0.08192468
0002b0 dc e4 da bd ea 92 4f 3d 42 aa 20 3c f4 a3 90 bd
       -0.10688183 0.050677218 0.009806218 -0.070625216
0002c0 1c 2a 12 3d af b2 ac 3d 4c 6e a0 3d eb 93 a3 3c
       0.03568469 0.08432519 0.078335375 0.019967994
0002d0 bf 44 8c bc 46 7b 40 3d 3a 1d c5 bd 1e 6d b1 3d
       -0.017122624 0.046992563 -0.09624715 0.086633906
0002e0 4d f8 fe 3c 08 3d 21 bd 0e 13 c8 3d f3 bb c8 3d
       0.031124258 -0.039364845 0.097692594 0.098014735
0002f0 63 c0 68 bd 23 0b 1c 3d 66 2e a0 3d 13 a4 6a 3d
       -0.0568241 0.03809656 0.0782135 0.05728538
000300 ca fc 78 3d 19 3c b7 3d 4b 61 04 ba 9f d3 10 3e
       0.060787953 0.089470096 -0.0005049898 0.14143227
000310 1f 47 e7 3c cc 60 17 3c bd 46 ae bd 97 3c 9f bd
       0.028232155 0.009239387 -0.08509586 -0.077752285
000320 61 16 e2 bc e7 d0 f0 3b b1 44 1c 3d 39 60 67 bd
       -0.027598562 0.007349122 0.038151447 -0.05648825
000330 58 ec b9 3d e8 c0 32 bd c6 30 60 3d 16 48 0f 3e
       0.09078282 -0.043641 0.054734014 0.13992342
000340 27 e3 a7 3d 3f da 00 bd 44 da ad 3c ba 84 41 bd
       0.08197623 -0.031458136 0.021222241 -0.04724572
000350 0d 2d 97 3d c8 d2 85 3d da 37 68 3b 46 a5 1f 3e
       0.0738164 0.06534344 0.003543368 0.1559039
000360 62 be 9a 3b 60 c4 a3 3d b4 8f e4 3c df 34 0c 3d
       0.0047224024 0.0799644 0.027900554 0.03423011
000370 44 a8 28 bd b2 62 b3 bc a2 64 53 3d 04 18 e7 bd
       -0.041176096 -0.021897648 0.051609643 -0.112838775
000380 8c 1a ae 3c 3d a9 a5 3d a5 de 18 3e dd 49 30 3d
       0.021252893 0.0808892 0.14928682 0.04303919
000390 85 a5 e1 3d f8 62 b3 bd 30 7c b8 3d 5e d1 da 3d
       0.110178985 -0.08759111 0.09008062 0.10684465
0003a0 42 74 da 3d 5f cd b8 3d 96 02 ef bd 3f 34 47 3a
       0.10666706 0.090235464 -0.11670415 0.0007599033
0003b0 cc c8 68 bb 46 83 9c bd b8 0a 83 3d 4e e4 a4 bd
       -0.0035520075 -0.07642226 0.06398529 -0.08051358
0003c0 fe 70 19 3e 45 23 aa 3d 9e 46 16 bd 01 4c 70 3d
       0.1498451 0.083075084 -0.03668844 0.058666233
0003d0 5b d1 b9 bb c6 08 98 bd 94 0a d5 3d b9 3f ef 3d
       -0.005670709 -0.074235484 0.10402408 0.11682076
0003e0 8b 33 ca 3d f0 dc e9 3d 9b 06 e8 bd de 46 8a bd
       0.09873112 0.114190936 -0.11329385 -0.06751798
0003f0 aa 74 fc 3d f1 5f 11 3e 76 52 02 3c 16 5c 0d 3e
       0.123269394 0.14196755 0.0079542305 0.13804659

weight f4 [8]
000000 df 1b 7d 3f 30 e4 7f 3f 7c 3e 7f 3f 5f 70 76 3f
       0.9887065 0.9995756 0.9970472 0.96265215
000010 e6 fc 7e 3f fa 7c 86 3f bd 8d 7f 3f 89 e6 80 3f
       0.9960464 1.050689 0.9982565 1.0070354

bias f4 [8]
000000 a9 34 86 3c a4 a5 f0 3a 21 bc a4 3c 8f 79 a9 3c
       0.016382532 0.0018359912 0.020109238 0.020687846
000010 be be 84 3c 50 3f 9c 3d d3 30 d3 3c c7 a7 11 3c
       0.016204234 0.076292634 0.025780117 0.008890099

running_mean f4 [8]
000000 0d 27 29 be 90 6e 8b bd 96 f9 e6 3e 91 75 b4 3e
       -0.16518803 -0.068081975 0.45112294 0.35245946
000010 76 f2 f3 be 14 d8 95 bd 56 46 93 3e 93 23 12 3e
       -0.4764592 -0.07316604 0.287646 0.14271383

running_var f4 [8]
000000 df 22 28 3e 8e cd 44 3e 82 7d 5d 3e a4 f6 7b 3e
       0.16419552 0.19219038 0.21629909 0.24605805
000010 95 ae ce 3e 78 4c a5 3e d7 4d 03 3e 81 9a 23 3e
       0.4036757 0.32284904 0.12822662 0.15976907

weight f4 [8, 4, 1, 1]
000000 0d dd 8d be fd 3b 00 bf 2e a5 ca 3e 4b c1 e0 3e
       -0.2770771 -0.50091535 0.39579147 0.4389747
000010 0e b6 e3 3d 18 ae e8 be dc 5b ba 3d 35 8c d0 be
       0.111187086 -0.45445323 0.09099552 -0.4073197
000020 36 68 2e be 72 fe 67 bc 8f 98 d9 3e 6a a2 f4 3e
       -0.17031941 -0.014159786 0.42499205 0.47780162
000030 9e 2b c0 3e 0e 93 3f be d6 c3 d4 be a0 2a e2 3e
       0.37533277 -0.1870844 -0.4155566 0.44173145
000040 df e9 d9 bb b5 99 9e 3e 4d 31 de 3e 58 b3 e2 3e
       -0.006650194 0.30976644 0.4339699 0.44277453
000050 9c 7d 60 be 72 78 91 be 83 ee cc 3e b7 6e 0a be
       -0.21922916 -0.28412205 0.4002572 -0.13518797
000060 61 1f ee be 74 e5 ea be e0 67 03 3f 35 7f 6c be
       -0.46508315 -0.45878184 0.51330376 -0.230954
000070 56 7c 70 be 4d 91 96 3e 5f c9 0e bd d6 35 ee 3c
       -0.2348493 0.2940773 -0.03486001 0.029078405

weight f4 [8]
000000 b5 76 7b 3f c5 25 7a 3f 18 9c 82 3f 6e 0a 83 3f
       0.9822801 0.9771388 1.0203886 1.0237558
000010 71 de 77 3f d3 ea 7e 3f 48 13 79 3f 3f 46 81 3f
       0.96823794 0.99577063 0.97295046 1.0099562

bias f4 [8]
000000 a9 34 86 3c a4 a5 f0 3a 21 bc a4 3c 8f 79 a9 3c
       0.016382532 0.0018359912 0.020109238 0.020687846
000010 be be 84 3c 50 3f 9c 3d d3 30 d3 3c c7 a7 11 3c
       0.016204234 0.076292634 0.025780117 0.008890099

running_mean f4 [8]
000000 f6 7c 30 3e 32 63 2b bf 45 42 49 3f 0f ac ea 3d
       0.17235169 -0.66948235 0.78616744 0.11458599
000010 9a 46 98 3f 2c 4a 1f be 50 0c f6 be 65 4e c7 3d
       1.1896546 -0.15555638 -0.4805627 0.097317494

running_var f4 [8]
000000 1d 1f 40 3f e8 a9 ae 3e a8 34 c5 3e 0c 7d 94 3f
       0.75047475 0.34114003 0.38516736 1.1600661
000010 d6 ae a7 3e 7f b1 8e 3e f1 17 33 3f a7 a9 f5 3d
       0.32750577 0.27869794 0.69958407 0.11995249

weight f4 [8, 8, 3, 3]
000000 d6 40 a9 3d d4 37 00 3e 00 fc ac 3d ae d9 3f bd
       0.082643196 0.12521297 0.08446503 -0.046838455
000010 f7 cd 25 3d fa ab c3 3d 80 6f 54 3d f5 bd c3 bd
       0.040479627 0.09554286 0.051864147 -0.09557716
000020 e0 96 83 3d d6 30 81 3d 33 fa c4 bb c4 88 cb bd
       0.064252615 0.06308143 -0.0060112714 -0.09938195
000030 b1 54 8a 3d 2a 46 af 3c d8 76 9c bd c4 b0 b5 bd
       0.06754435 0.021395762 -0.07639855 -0.08871606
000040 ce 51 63 3d 35 83 62 3d 4e 41 a6 3c 72 59 50 3d
       0.055497937 0.05530091 0.020294812 0.05086655
000050 17 15 be 3d b6 a3 e5 3c 1a ae 06 be f4 8b 41 3d
       0.09281366 0.028032165 -0.13152352 0.04725261
000060 40 61 d3 bd a2 a4 0d bd 59 42 27 bd 60 9f 3a 3d
       -0.10321283 -0.034580834 -0.04083476 0.045562148
000070 14 65 d3 bd c6 3c 33 bd 2f b6 cc 3c d7 b5 a5 3c
       -0.103220135 -0.04375913 0.024989216 0.02022831
000080 e0 92 e3 3c d3 ca bb bd 0b 54 cc bd 62 68 7c bd
       0.027779996 -0.09169545 -0.099769674 -0.061622985
000090 c6 4e f5 3c 39 33 83 3d bf d3 e1 bd 47 4a 89 3d
       0.029944789 0.06406254 -0.110267155 0.067036204
0000a0 f9 2c e6 bc 65 e7 e3 bd 88 47 b7 3b d6 90 c5 bc
       -0.028097617 -0.111281194 0.005593244 -0.024116915
0000b0 de 0e e2 3c bc 61 17 be 15 9d 6b 3d 6d fd 8a 3d
       0.02759498 -0.14783376 0.057522852 0.067866184
0000c0 87 c1 d9 bd f7 fd cf bc b2 2e b2 bd a3 82 72 3d
       -0.106326155 -0.025389655 -0.08700313 0.059206616
0000d0 84 61 0d be 09 2f 6e bd 3d 48 00 3e 04 9e b6 bd
       -0.1380673 -0.058150325 0.12527557 -0.08916858
0000e0 66 b9 d2 3d ff ea ce bd aa 6e 06 bd 58 1e bb 3d
       0.10289268 -0.10103416 -0.03282038 0.09136647
0000f0 9b 48 08 bc 1d 10 af bd 71 61 d4 bd 8d 4c 03 be
       -0.008318092 -0.08547995 -0.10370148 -0.1282217
000100 13 aa b6 bd ae 2a 90 bd e4 9f b7 bd 5c a9 c4 3d
       -0.08919158 -0.070393905 -0.089660436 0.09602615
000110 bb b3 53 bd f4 de 99 bc d8 be 7d bd 76 34 bf bd
       -0.051685076 -0.01878307 -0.06194958 -0.09336178
000120 9c c8 b9 3d e0 35 6c 3c 39 12 d6 3c 80 53 97 3d
       0.09071466 0.014417142 0.026131736 0.07388973
000130 a5 48 fb bd cc 43 df bd ac e9 62 bd a3 d3 cd bd
       -0.12269715 -0.10901603 -0.055398628 -0.10050132
000140 78 34 a6 bd 2f 58 b3 bd ac 57 17 3e fb 52 bd 3c
       -0.08115476 -0.08757054 0.14779538 0.023110857
000150 b1 03 2a 3d fd 40 79 3d 71 57 9a bd 30 4f ca bc
       0.041507427 0.060852993 -0.075362094 -0.024695963
000160 da e4 bd 3c ac 38 f9 3d bb 12 bf bd 2d f9 13 be
       0.023180414 0.121690124 -0.093297444 -0.14450522
000170 46 3c 6d bd cd 19 3f 3a 87 cc 21 3d bf b3 3b 3c
       -0.05791881 0.00072899164 0.039501693 0.011456429
000180 96 20 65 3c 4b bf 3e bd e3 27 15 3d da 6a 00 be
       0.01398482 -0.04656915 0.036414992 -0.1254076
000190 4b 6d 63 bd 08 ad 0d bd b9 ea c7 bd c7 ab ae bd
       -0.05552415 -0.034588844 -0.09761567 -0.08528858
0001a0 a0 1d ca bd ba e2 e4 bc fb 67 a9 3d a9 db 46 bd
       -0.09868932 -0.027940143 0.08271786 -0.048549328
0001b0 37 4c 11 3d 1d dd a2 bc 65 55 a7 3c 70 1d 1f be
       0.035473075 -0.019880826 0.020426461 -0.15538573
0001c0 86 1d 7d bc 2e 28 23 bd a7 36 d1 bc f0 60 9a bc
       -0.0154489335 -0.03983324 -0.025538756 -0.018845052
0001d0 82 f2 a4 bd 42 81 e4 3d 8b bb 84 3c 93 0d a7 3d
       -0.08054067 0.111574665 0.016202709 0.08156886
0001e0 0f 3f 60 bd 8a ad 89 3d 81 97 e5 3c 77 ad 02 bd
       -0.054747637 0.06722553 0.028026344 -0.03190371
0001f0 e1 ba 87 3d b7 82 9b bb 33 ef 31 bd c9 51 7d bd
       0.06627441 -0.004745807 -0.04344101 -0.061845575
000200 dd 4f 13 bb 81 17 a0 bd 4e bd 52 3b 13 bf be 3a
       -0.0022478022 -0.07816983 0.0032156291 0.0014552794
000210 3e 94 73 bd 7b a4 e7 3d 53 f4 a5 3d c9 2b 2a 3d
       -0.059467547 0.11310669 0.08103242 0.041545663
000220 c2 ac 07 be 17 ef af 3c c4 3b 8e bc 8c 18 a8 bd
       -0.13249496 0.021476312 -0.017362483 -0.08207807
000230 9f 0d 8d bd 50 e3 99 bc e4 91 3b 3c a2 53 9a bd
       -0.06887364 -0.018785149 0.011448357 -0.07535483
000240 db 4c f4 3c 70 30 92 3d 80 03 a6 bc 57 30 9d bb
       0.029821804 0.07138145 -0.02026534 -0.0047970223
000250 b9 ed 24 bb 42 cf 0f be f0 3f c4 3b 1e 1c 89 3c
       -0.0025166108 -0.14043906 0.0059890673 0.01673704
000260 89 75 9d 3c fc d3 03 be 2c c7 e1 bc bd 54 a8 3d
       0.019221084 -0.12873834 -0.027560793 0.082192875
000270 30 9b 8c 3d 6f d0 a8 3c 75 59 02 be fd ce d9 bc
       0.06865537 0.020607201 -0.12729438 -0.026587958
000280 b9 e7 91 bd 9a 84 5c 3d 0b 3f 7c bd 5c 13 6e bd
       -0.07124276 0.053837396 -0.06158356 -0.05812393
000290 af 31 0c be 01 51 8c bd cf 87 b5 bd fd 57 e9 bb
       -0.13690828 -0.06851388 -0.08863794 -0.0071210847
0002a0 15 32 da 3b 42 e1 fe 3d f8 97 bc bd a8 12 1f bd
       0.0066588023 0.12445308 -0.09208673 -0.03883615
0002b0 1e 4f c3 bd 57 94 d9 3d 1f 13 9b 3d 20 2d aa bc
       -0.09536575 0.10623997 0.075720064 -0.02077347
0002c0 13 20 15 be bc 63 9b 3d ae a9 39 bd 0e cd c1 3c
       -0.14563017 0.07587382 -0.045327835 0.023657348
0002d0 42 f0 1d bd 42 5d 5e 3c dd 69 f0 bd a6 c9 31 be
       -0.038559206 0.013572039 -0.11738942 -0.17362079
0002e0 f8 6a eb bd 4d 51 cc 3d 58 38 15 3d d0 ad d6 bd
       -0.11495012 0.099764444 0.036430687 -0.10482371
0002f0 7f ab b8 bd 2c 0d a7 3d 9e 3e 87 3d 57 bb 39 3c
       -0.09017085 0.08156809 0.0660374 0.011336169
000300 28 bd 8a 3d 32 3f a6 3d 02 2c e8 3b cf 3c 53 3d
       0.0677436 0.08117522 0.0070853243 0.051571663
000310 2d b0 33 3d 7a 03 5b ba 51 88 ae bc 89 36 82 bd
       0.043869186 -0.0008354705 -0.021305235 -0.06358058
000320 28 ed ad 3d 91 50 09 be e2 d0 19 bd d1 4b a9 bd
       0.084924996 -0.1340964 -0.03755272 -0.08266414
000330 f5 fb b0 3d 66 80 aa bd 8a 8e 56 3d cc 02 9b bb
       0.08641807 -0.08325271 0.05238203 -0.004730558
000340 8e b0 af bd 02 1f 1e 3e 12 c3 82 bd 9c 73 79 3d
       -0.08578597 0.15441516 -0.06384863 0.06090127
000350 05 90 df 3d 47 49 7c bd df 65 52 3c 0f ca d9 3d
       0.109161414 -0.06159332 0.012841671 0.10634243
000360 9f 4c fe bc 71 f8 6e bd 2a 05 f5 bd ac 33 9f 3d
       -0.031042395 -0.0583424 -0.119638756 0.077735275
000370 49 ec 02 3e 30 e9 de 3c f2 bd af 3b 8f 88 9b 3d
       0.12785448 0.027210802 0.0053632194 0.07594406
000380 e1 54 8d 3d 30 1f 90 bd 6e 9f a5 3d eb 39 b2 bd
       0.06900955 -0.070371985 0.080870494 -0.08702453
000390 86 2e bf bd bc ad 0c 3d 63 5b d2 3c fe 5b 37 bd
       -0.093350455 0.034345374 0.025678342 -0.044765465
0003a0 ca 91 83 bd 70 31 32 bd fa 8f 97 3d b3 ac dd bd
       -0.064242914 -0.04350418 0.07400508 -0.108239554
0003b0 5f 3f 86 3d c0 0a f1 bc 36 85 9e 3d 97 f9 de 3d
       0.06555056 -0.029424071 0.07740252 0.10887449
0003c0 41 34 b6 bd cd 20 a0 bb 98 a3 e7 3c 1d 47 4a 3d
       -0.088966854 -0.0048867227 0.02827625 0.049384225
0003d0 3e 74 ca bd 62 43 a5 bc f9 0d 63 3c 9e ca 57 bc
       -0.09885453 -0.020173732 0.013858312 -0.013170866
0003e0 c8 38 f2 bd b0 4b 95 bd 2c 19 c9 bc f7 73 87 bd
       -0.118272364 -0.07289827 -0.024548136 -0.066139154
0003f0 75 ee ab 3b 09 23 f1 3d a8 3a a7 3d 71 26 bc bc
       0.005246932 0.117742606 0.08165485 -0.022967549

weight f4 [8]
000000 93 0f 81 3f 83 ea 7c 3f 4a 07 7d 3f f8 17 7c 3f
       1.0082878 0.98795336 0.9883925 0.98474073
000010 1a d6 80 3f cc 6d 7d 3f 98 48 84 3f 92 dc 7f 3f
       1.0065339 0.9899566 1.0334654 0.9994594

bias f4 [8]
000000 b0 42 1f 3c 73 69 1c bb df 68 9d 3c df 7e 60 bb
       0.009720489 -0.0023866564 0.019215045 -0.0034255309
000010 92 39 35 bc 46 01 9f 3c 91 ee 27 3d 60 9d 97 3c
       -0.011061089 0.019409787 0.040999 0.01850766

running_mean f4 [8]
000000 ef f6 21 bf 79 91 03 bf dc 98 57 be 52 ba d6 3e
       -0.63267416 -0.5139385 -0.21054405 0.41939026
000010 70 52 54 bf 16 ec b0 bd ff 28 24 be ca b8 0d bf
       -0.8293829 -0.0863878 -0.16031264 -0.5536009

running_var f4 [8]
000000 5e 22 25 3f dd 88 b4 3e 98 b4 e6 3e c1 71 c7 3e
       0.64505565 0.35260668 0.45059657 0.38953975
000010 68 06 02 3f 1c 0f a0 3e e6 89 29 3f e5 7f cc 3e
       0.50791025 0.31261528 0.6622604 0.39941326
