save/bs32ep300sf4.pth (torch_old, 207978 bytes, 102 tensors)

weight f4 [4, 3, 3, 3]
0	0x3e740f03	0.23833852
1	0xbe245352	-0.16047409
2	0xbdf53a2a	-0.119739845
3	0x3e3bc1f8	0.18335712
4	0xbdc11677	-0.09428113
5	0xbdf88ae7	-0.121358685
6	0xbe95b5c3	-0.29240236
7	0xbef91811	-0.48651174
8	0xbe5faa0d	-0.21842213
9	0x3f001207	0.5002751
10	0x3d5bbb9d	0.05364572
11	0xbe96cfd0	-0.29455423
12	0xbd03f7b7	-0.03221866
13	0xbdf96b98	-0.12178725
14	0xbe2f0fda	-0.1709589
15	0xbe469702	-0.19393542
16	0xbe520e6a	-0.20513311
17	0x3cd9a34b	0.026567122
18	0x3f2f0c50	0.6837816
19	0x3efcafa5	0.49352756
20	0x3d9bcf3e	0.07607888
21	0x3f06506f	0.5246648
22	0x3e23b12e	0.15985557
23	0xbdf06f61	-0.11739994
24	0xbceff3a0	-0.029290974
25	0x3be96815	0.0071230032
26	0xbcb746e0	-0.022372663
27	0x3e16d872	0.14731005
28	0x3e97390b	0.29535708
29	0x3f0f9f6e	0.56102645
30	0x3dd7b31d	0.1053221
31	0x3f09e042	0.53857815
32	0x3e592f3f	0.21209429
33	0xbe222bf5	-0.15837081
34	0x3cedfab7	0.029050214
35	0xbd10e468	-0.035374075
36	0x3e5fdbc4	0.21861178
37	0xbd31941a	-0.04335413
38	0xbe968161	-0.29395583
39	0xbde3adad	-0.111171104
40	0xbd2d8d12	-0.042370863
41	0xbf41c09b	-0.7568452
42	0xbdd7fa69	-0.10545809
43	0xbe01aea0	-0.1266427
44	0xbf13c6cf	-0.5772523
45	0x3d9be86a	0.07612689
46	0x3e0d0667	0.13771974
47	0xbec99129	-0.3936856
48	0x3dfc642e	0.12323795
49	0x3e8c6ff4	0.27429163
50	0xbf0693d2	-0.52569306
51	0x3e252bb3	0.16129951
52	0x3f02cae7	0.51090854
53	0xbcc76621	-0.024340691
54	0xbd6d006b	-0.057861727
55	0x3f0cca9f	0.54996675
56	0x3e9859c2	0.2975598
57	0xbebedab1	-0.37276223
58	0x3e1b60d1	0.15173651
59	0xbd8c4380	-0.06848812
60	0xbe0775c0	-0.13228512
61	0x3d2de73d	0.042456854
62	0xbe3618dd	-0.17782922
63	0x3e021431	0.12703015
64	0x3e4caded	0.19988222
65	0xbdd3b7a5	-0.10337762
66	0xbea59751	-0.32342008
67	0x3d0601a9	0.032716427
68	0xbedc4396	-0.43020314
69	0xbdd154b9	-0.10221238
70	0xbdc1e7e3	-0.09468057
71	0xbebab5c1	-0.36466792
72	0xbe3142bc	-0.17310613
73	0x3ed170f1	0.4090648
74	0x3e4176b1	0.18892933
75	0xbea55e53	-0.32298526
76	0x3c9cb95c	0.019131355
77	0xbe6723f8	-0.22572315
78	0xbe35a726	-0.17739543
79	0x3e9f7c94	0.31149733
80	0xbe0ed9a9	-0.13950218
81	0xbe835b11	-0.25655416
82	0xbecafa25	-0.3964397
83	0x3d10c91e	0.03534805
84	0xbe6b1cb6	-0.22960171
85	0xbd8ff620	-0.070293665
86	0x3ed97ba9	0.42477158
87	0xbd5c4e58	-0.053785652
88	0x3a35289b	0.0006910653
89	0x3eeef237	0.4666917
90	0x3ebdd163	0.37073812
91	0xbe466b9e	-0.1937699
92	0x3ddae198	0.1068756
93	0xbe85cff6	-0.26135224
94	0xbeebd8b8	-0.4606378
95	0xbcf32b5e	-0.029683765
96	0xbdc9f82f	-0.098617904
97	0xbe943f81	-0.289547
98	0x3c29abef	0.010355934
99	0xbdfadcdc	-0.12249157
100	0x3e15b282	0.14618877
101	0x3e0210da	0.12701741
102	0xbdf153ad	-0.11783538
103	0xbe6104cd	-0.21974488
104	0x3e4f9ffb	0.20275871
105	0x3eb0712f	0.34461352
106	0x3b0bbc9c	0.0021322137
107	0x3dffb327	0.124853425

weight f4 [4]
0	0x3f8b027b	1.0860132
1	0x3f5beed3	0.8591129
2	0x3f9b1a3f	1.2117385
3	0x3f974751	1.1818639

bias f4 [4]
0	0x3ecbdb34	0.39815676
1	0x3f0af368	0.5427766
2	0x3d21704c	0.039413735
3	0xbe1ed799	-0.15511931

running_mean f4 [4]
0	0x3e0d8ba5	0.13822801
1	0xbdcb359f	-0.09922337
2	0x3e3e10a3	0.18561034
3	0x3e5e4a05	0.21707924

running_var f4 [4]
0	0x409a2a4d	4.8176637
1	0x4025e3a5	2.5920193
2	0x406f5d7e	3.7400813
3	0x3ffc31a7	1.9702653

weight f4 [4, 4, 3, 3]
0	0xbc918c04	-0.01776696
1	0xbebb1028	-0.36535764
2	0xbc65bd01	-0.014022113
3	0x3e78f3a3	0.2431169
4	0x3e616f8f	0.22015212
5	0xbcbff373	-0.023431515
6	0x3e782fd4	0.24236995
7	0x3e7f590b	0.24936311
8	0xbdbc36f9	-0.09190173
9	0x3cdc70ac	0.026909195
10	0x3d2fcd60	0.04292047
11	0x3d7457e1	0.05965412
12	0xbd63d214	-0.055620268
13	0x3ed6d524	0.41959488
14	0xbe5e8da0	-0.21733713
15	0xbc990471	-0.018678876
16	0x3da4fba5	0.0805581
17	0xbdd371fe	-0.10324477
18	0xbe7bc9e6	-0.24588737
19	0xbdf95ea8	-0.12176257
20	0x3a529500	0.0008033067
21	0xbd82ed27	-0.063928895
22	0xbe975c87	-0.2956278
23	0xbe35a6e6	-0.17739448
24	0x3daacf31	0.083403
25	0xbe6ef09e	-0.23333976
26	0xbe2977c7	-0.16549598
27	0x3d1297c3	0.035789263
28	0x3d24b99d	0.040216077
29	0xbd6cb699	-0.057791326
30	0xbc9ad832	-0.018901918
31	0xbd861414	-0.06546798
32	0xbd8d93a4	-0.06912926
33	0x3e3f5a38	0.1868676
34	0xbd2beb20	-0.04197228
35	0xbd8c72e8	-0.06857854
36	0x3d5ff65f	0.054678317
37	0xbe48b5c0	-0.19600582
38	0xbd93c569	-0.072153874
39	0xbdb6f4fc	-0.08933446
40	0xbdab409a	-0.08361931
41	0x3e7ad5a4	0.2449556
42	0xbcbcbb3b	-0.023038497
43	0x3d89621f	0.06708168
44	0xbe01d40b	-0.12678544
45	0xbce5a338	-0.02803193
46	0x3cb2a4a4	0.021807022
47	0xbc38797f	-0.011259436
48	0x3f0c817a	0.54885066
49	0x3f027ee5	0.50974876
50	0xbe600eb7	-0.21880613
51	0x3ed2ff0d	0.41210213
52	0x3e4ee459	0.20204295
53	0xbe39ff35	-0.1816376
54	0x3ce70d24	0.028204508
55	0x3d1d3675	0.038382012
56	0x3dd8bc89	0.10582835
57	0xbd608750	-0.054816544
58	0x3cc7a904	0.024372585
59	0xbd8c58d9	-0.06852884
60	0x3e570175	0.2099665
61	0xbeb9344c	-0.36172712
62	0xbe6f9ee9	-0.23400463
63	0x3ca64058	0.020294353
64	0x3eb4659b	0.3523377
65	0xbc8a65a9	-0.016894178
66	0x3d6fab03	0.0585127
67	0x3dda6c57	0.106651954
68	0xbaa9f58f	-0.0012966859
69	0xbe748cbe	-0.23881814
70	0xbe845e72	-0.25853306
71	0x3db70e0a	0.089382246
72	0xbe3b720c	-0.18305224
73	0x3c6d1469	0.014470198
74	0x3cb8d6d9	0.022563385
75	0x3ebe2daf	0.3714423
76	0x3e27ba76	0.16379723
77	0x3dff4e22	0.124660745
78	0x3e62f379	0.2216319
79	0x3d958ae6	0.073018834
80	0xbd919093	-0.071076535
81	0x3dc99f1f	0.09844803
82	0x3d2811e1	0.041032676
83	0x3d9dc288	0.077031195
84	0x3e0c1456	0.13679633
85	0xbdf223ee	-0.11823259
86	0x3ddf9275	0.10916606
87	0xbe195270	-0.14972854
88	0xbdaaf95b	-0.08348342
89	0xbdfc47a5	-0.123183526
90	0xbd3a12c9	-0.04542807
91	0x3e361344	0.17780787
92	0xbd21eaca	-0.039530553
93	0xbd2bb4d8	-0.041920513
94	0xbe3890dd	-0.18024011
95	0x3e8e3e1b	0.27781758
96	0xbe561540	-0.20906544
97	0x3e0d79c1	0.13815977
98	0x3dfd9d08	0.12383467
99	0xbe60cd7e	-0.21953389
100	0x3d46daa6	0.048548363
101	0x3eb93b41	0.3617802
102	0xbdb8e3d6	-0.09027831
103	0x3e89ea43	0.2693654
104	0xbe05a61b	-0.13051645
105	0xbc71294b	-0.014719318
106	0x3ef7f41f	0.48428437
107	0xbe906a47	-0.28206083
108	0xbd728088	-0.05920461
109	0x3c2b4ac5	0.010454838
110	0xbe5dae95	-0.21648629
111	0xbd325ec3	-0.043547403
112	0xbe0d9496	-0.13826212
113	0xbeb01d01	-0.34397128
114	0x3dcc92d3	0.09988942
115	0x3ef8901f	0.48547456
116	0xbe891188	-0.26771188
117	0xbe74d349	-0.23908724
118	0x3cb6f2f5	0.022332648
119	0xbdb4d2c6	-0.08829264
120	0x3d93c8ce	0.07216035
121	0xbe224f15	-0.1585048
122	0xbec639be	-0.3871593
123	0x3e73d9c6	0.23813543
124	0x3dac8ff0	0.084258914
125	0xbdb4c5bb	-0.088267766
126	0x3e8bb5c8	0.27287126
127	0x3d83a607	0.064281516
128	0xbd61671d	-0.055029977
129	0xbdeadfa8	-0.1146844
130	0xbebabc46	-0.36471766
131	0x3d4014d3	0.04689486
132	0x3e5b155c	0.21394867
133	0xbec84f6a	-0.39123088
134	0x3c181b66	0.009283876
135	0x3e3ba4e8	0.18324625
136	0x3e389b1c	0.1802792
137	0x3d3d0384	0.04614593
138	0xbcc1455a	-0.02359264
139	0x3e21c47b	0.15797608
140	0xbdb7bfa4	-0.089720994
141	0xbef234e0	-0.47305965
142	0xbe9c125a	-0.3048275
143	0x3dfe02a6	0.12402849

weight f4 [4]
0	0x3f89e5c2	1.0773242
1	0x3f68483d	0.90735227
2	0x3f65a494	0.8970425
3	0x3f8b1371	1.0865308

bias f4 [4]
0	0xbda5fc97	-0.08104818
1	0x3ebd698b	0.36994585
2	0xbd442859	-0.04789004
3	0x3e1d542f	0.15364145

running_mean f4 [4]
0	0xbe157364	-0.145948
1	0x3f11a638	0.56894255
2	0x3f373fab	0.71581525
3	0xbf542f2a	-0.82884467

running_var f4 [4]
0	0x3f480794	0.78136563
1	0x3f3e331b	0.7429673
2	0x3f28ae8a	0.65891325
3	0x3fa27f68	1.2695131

weight f4 [4, 4, 3, 3]
0	0x3cbdc2a9	0.02316411
1	0xbdcdc6de	-0.100476965
2	0xbdabf2e7	-0.08395939
3	0xbe460ec4	-0.1934157
4	0xbd759a2b	-0.05996148
5	0xbd4c903d	-0.049942244
6	0xbe5d0eee	-0.21587726
7	0xbe88bda0	-0.26707172
8	0xbe7c4b8d	-0.24638195
9	0x3e429624	0.19002587
10	0x3e9524b0	0.29129553
11	0x3e003aeb	0.12522475
12	0xbdf4dba5	-0.11955956
13	0x3d20e278	0.039278477
14	0x3a60249e	0.0008550378
15	0xbe480b36	-0.19535527
16	0xbe76455b	-0.24049895
17	0xbe63bc7a	-0.22239867
18	0xbe4992ee	-0.19684955
19	0xbcde25f2	-0.027117703
20	0xbdd5e674	-0.10444346
21	0xbe916fec	-0.28405702
22	0x3d0ab3d9	0.033862922
23	0x3c99dad1	0.018781098
24	0xbe81dabb	-0.2536219
25	0x3cd1aea0	0.025595963
26	0xbc8dc1ae	-0.017304268
27	0xbdd8eaf1	-0.105916865
28	0x3e065b0f	0.13120674
29	0x3d9a08d5	0.07521216
30	0x3db20a49	0.08693368
31	0x3d9b3fc4	0.07580522
32	0xbe033278	-0.12812221
33	0x3e5b1154	0.21393329
34	0x3dd869d4	0.1056706
35	0xbd390b40	-0.045176744
36	0x3eb1031e	0.3457269
37	0x3e31816f	0.17334531
38	0x3e6d0b76	0.23148903
39	0x3e7a9726	0.24471721
40	0xbd1e74b0	-0.0386855
41	0xbe332560	-0.17494726
42	0x3d666789	0.056251083
43	0xbe4526a8	-0.19253027
44	0xbeaedde0	-0.34153652
45	0xbed112f9	-0.40834787
46	0xbe28c6c6	-0.16482076
47	0xbedaa40f	-0.42703292
48	0x3c099804	0.00839806
49	0xbc4ee3b8	-0.012627535
50	0xbd158813	-0.036506724
51	0x3ebc7c59	0.3681362
52	0x3dfb95c7	0.12284427
53	0x3e0900c4	0.13379198
54	0x3da33939	0.07969899
55	0xbc0b1ae3	-0.008490297
56	0xbd95b816	-0.07310502
57	0x3e3a8d69	0.18218006
58	0x3eb55f01	0.35424045
59	0x3c2a8e94	0.01040997
60	0x3e4832a6	0.19550571
61	0x3e64e063	0.22351222
62	0xbe2ff8a8	-0.17184699
63	0x3e3ee504	0.1864205
64	0x3e597977	0.21237741
65	0x3ea55039	0.32287768
66	0xbe24a297	-0.16077648
67	0xbcc1051e	-0.02356201
68	0x3d8e00a1	0.06933714
69	0xbda3636c	-0.079779476
70	0xbc95c38e	-0.018281724
71	0xbd2aba97	-0.041681852
72	0x3e95bed9	0.29247168
73	0xbdd6f5c8	-0.10496098
74	0x3d39a40c	0.045322463
75	0x3e5ba864	0.21450955
76	0xbedc1f07	-0.42992422
77	0xbdba81a1	-0.09106756
78	0x3ea689e9	0.32527092
79	0x3d230544	0.039799944
80	0xb8008f66	-3.065113e-05
81	0x3eec0fe7	0.46105883
82	0x3e3b02be	0.18262765
83	0xbdab80bb	-0.08374163
84	0x3eeaf506	0.45890063
85	0xbd988966	-0.07448082
86	0xbe3a2282	-0.18177226
87	0xbe806646	-0.25078028
88	0xbdb6a599	-0.08918304
89	0xbd8d6fed	-0.06906114
90	0xbc8f1748	-0.017467156
91	0xbd46db88	-0.048549205
92	0x3d9a01b9	0.0751986
93	0xbe60c9b1	-0.21951939
94	0x3e421526	0.1895338
95	0x3d2cf244	0.04222323
96	0xbe0bbc21	-0.13645984
97	0x3df1a5df	0.117992155
98	0xbc8eeb15	-0.01744608
99	0x3d4b2974	0.04960008
100	0xbc433a41	-0.011915744
101	0xbe84aaa4	-0.25911438
102	0x3ed925bc	0.42411602
103	0x3998f5a7	0.00029174724
104	0xbe93b9cf	-0.28852698
105	0xbce77853	-0.028255617
106	0x3e69734f	0.22797893
107	0x3b9cb0de	0.0047818264
108	0x3dce20d3	0.100648545
109	0x3e0e2c2c	0.13884038
110	0xbe08b5ba	-0.13350573
111	0x3d2a55bd	0.041585673
112	0xbe7a053b	-0.24416058
113	0xbc8f4c2e	-0.01749238
114	0xbcb6405c	-0.022247486
115	0xbe33f59b	-0.1757416
116	0xbdd9e3b1	-0.10639132
117	0xbdee1c67	-0.11626511
118	0xbe9cd466	-0.30630797
119	0xbd6d568d	-0.05794387
120	0x3e926c87	0.28598425
121	0xbd8672bf	-0.06564855
122	0x3e1e1cd6	0.15440688
123	0x3c8d5b24	0.017255373
124	0x3e060b1e	0.13090178
125	0xbd76f920	-0.060296178
126	0xbe7c766c	-0.2465455
127	0xbb99c6c9	-0.0046928865
128	0x3df88f7b	0.12136742
129	0xbdf715b5	-0.12064687
130	0xbe896e21	-0.26841834
131	0xbe518746	-0.20461759
132	0xbe02f445	-0.12788494
133	0xbea18286	-0.31544894
134	0x3cc0641c	0.023485236
135	0x3e1f8e2d	0.1558158
136	0x3cbe9c0f	0.023267774
137	0xbe3d99b2	-0.18515661
138	0x3e5b07d9	0.21389712
139	0x3e8ee152	0.2790628
140	0x3e9dfa45	0.30855003
141	0xbc86ac32	-0.016439531
142	0x3eb25b73	0.34835395
143	0x3e44d618	0.19222295

weight f4 [4]
0	0x3f40bc85	0.7528766
1	0x3f53bd4b	0.82710713
2	0x3f7f8993	0.99819297
3	0x3f6c81a6	0.9238533

bias f4 [4]
0	0x3e1f7663	0.15572505
1	0xbd46979d	-0.048484433
2	0xbe066ce3	-0.13127474
3	0x3e84fa24	0.25972092

running_mean f4 [4]
0	0xbf073f73	-0.5283119
1	0x3e9be97f	0.3045158
2	0x3ea1cdc0	0.31602287
3	0x3ddcd649	0.10783059

running_var f4 [4]
0	0x3f125af5	0.5717004
1	0x3f1cb5c1	0.61214834
2	0x3f73ce40	0.9523659
3	0x3f29a1cb	0.662625

weight f4 [4, 4, 3, 3]
0	0x3e8815e9	0.26579216
1	0xbe79a9c9	-0.24381174
2	0xbcd5dfd9	-0.026107715
3	0xbdf86fbf	-0.12130689
4	0xbe82b855	-0.2553126
5	0x3dabd8b1	0.0839094
6	0xbdb3e890	-0.08784592
7	0xbe058d2f	-0.13042139
8	0x3eb5b508	0.35489678
9	0xbd08b577	-0.033376183
10	0x3ddd7267	0.10812836
11	0xbd6712df	-0.05641448
12	0xbe721083	-0.23639111
13	0xbd547a30	-0.05187434
14	0xbe19ff6a	-0.15038839
15	0xbe3aab61	-0.18229438
16	0xbda068d0	-0.078324914
17	0xbd99cf2b	-0.07510217
18	0x3d9368c7	0.07197719
19	0xbdb6c916	-0.08925073
20	0x3cfb6b8d	0.030690933
21	0x3cda71ab	0.02666553
22	0xbeab7840	-0.3349018
23	0xbe2aaffe	-0.16668698
24	0x3ea39434	0.31949008
25	0x3e595079	0.21222104
26	0x3de18fa8	0.110137284
27	0x3d5297ef	0.051414426
28	0xbdcd37f4	-0.10020438
29	0xbb72e309	-0.0037061593
30	0xbd9ccde4	-0.07656458
31	0xbda5a050	-0.08087218
32	0xbe1f179d	-0.15536352
33	0x3e3977b6	0.18112072
34	0xbe574bd6	-0.21025023
35	0xbe8f1bc5	-0.27950874
36	0xbd56cf8c	-0.052444026
37	0xbe89bce7	-0.26901934
38	0x3cddaa6e	0.027058806
39	0x39842010	0.0002520089
40	0x3d813309	0.06308562
41	0x3de14c43	0.11000874
42	0x3c01ca00	0.007921696
43	0x3d166fe0	0.036727786
44	0xbc8388e3	-0.016056484
45	0xbeb9ee3a	-0.36314565
46	0x3cecf78c	0.028926633
47	0xbd977c98	-0.07396811
48	0xbdb7a4e2	-0.08966996
49	0x3e6bdc9c	0.23033375
50	0x3c2cfde6	0.010558581
51	0xbe2657e1	-0.1624446
52	0x3dde3fa6	0.10851984
53	0xbd34102f	-0.043960746
54	0xbe58e621	-0.21181537
55	0xbe97e38f	-0.296658
56	0xbd11a30a	-0.035555877
57	0x3c579efa	0.013160462
58	0x3de06cda	0.10958262
59	0x3e852f3d	0.26012602
60	0xbe8412b4	-0.2579552
61	0xbe8055e2	-0.25065523
62	0xbe704f6e	-0.234678
63	0x3d3c017a	0.045899846
64	0xbea325e3	-0.31864843
65	0xbea805d4	-0.32816947
66	0xbd78721d	-0.060655702
67	0xbd92a4dc	-0.07160351
68	0xbbcbf6c2	-0.006224484
69	0x3de8467a	0.11341567
70	0xb90548e9	-0.0001271103
71	0xba29050a	-0.0006447589
72	0xbdc07fd4	-0.09399381
73	0x3d91a45e	0.07111429
74	0xbdd12f89	-0.10214145
75	0x3b78a5b6	0.0037940568
76	0xbde2a95a	-0.110674575
77	0xbe8693ff	-0.26284787
78	0xbd23e901	-0.04001713
79	0x3c85646d	0.016283238
80	0xbdf8695f	-0.12129473
81	0xbdb6412d	-0.0889915
82	0xbdcd4789	-0.1002341
83	0x3e1a34fc	0.15059274
84	0xbce35d2f	-0.027754394
85	0x3dc8966d	0.097943164
86	0x3e367b0b	0.17820375
87	0x3e752bfe	0.23942563
88	0x3ed1318b	0.4085811
89	0x3e14caa4	0.14530426
90	0x3e35f5bd	0.17769523
91	0xbd7740ea	-0.06036464
92	0x3d1d0329	0.038333092
93	0xbe2363a8	-0.15955985
94	0xbe78612a	-0.24255815
95	0xbc80118a	-0.015633363
96	0xbe29517f	-0.16534995
97	0xbe6362de	-0.22205684
98	0xbe7ba36c	-0.24574059
99	0xbd255600	-0.04036522
100	0x3e2940e5	0.16528662
101	0xbe90f968	-0.28315282
102	0xbe2f0d53	-0.17094927
103	0xbe6d9f16	-0.23205218
104	0xbe395691	-0.18099429
105	0x3e8564af	0.26053378
106	0x3e4a560a	0.19759384
107	0x3da920d2	0.08258213
108	0x3e6105fc	0.21974939
109	0x3ebe41d4	0.37159598
110	0x3d84d592	0.06486048
111	0x3ba4b904	0.0050269384
112	0xbe8d067e	-0.27544016
113	0xbcd8f159	-0.026482271
114	0xbd183c7a	-0.03716705
115	0xbd783477	-0.06059691
116	0xbdad6f42	-0.08468486
117	0x3e2f1910	0.17099404
118	0x3d33d1e8	0.043901354
119	0x3e063a85	0.13108261
120	0xbe21b674	-0.15792257
121	0xbe0ea382	-0.13929561
122	0x3d0bb9a9	0.034112606
123	0xbda918ca	-0.08256681
124	0xbe046fdc	-0.12933296
125	0xbda1c84c	-0.07899532
126	0x3e1ccb05	0.15311821
127	0x3d1c2d67	0.038129237
128	0xbe4586bf	-0.19289683
129	0x3e64b4dd	0.22334619
130	0x3ea8082a	0.3281873
131	0x3e2a1be8	0.16612208
132	0xbeb87589	-0.36027172
133	0xbe610244	-0.2197352
134	0x3d8c949b	0.06864282
135	0xbeb6ec3c	-0.35727108
136	0xbebabe68	-0.36473393
137	0x3cf0201e	0.02931219
138	0x3d1f1b5f	0.038844462
139	0x3c070dd0	0.008243039
140	0x3e2b8e92	0.16753605
141	0x3eb4ca2a	0.3531049
142	0x3c80bca6	0.015714955
143	0x3deed6a4	0.11662033

weight f4 [4]
0	0x3f81c553	1.0138344
1	0x3f83a44e	1.0284517
2	0x3f67360c	0.90316844
3	0x3f895ccc	1.0731444

bias f4 [4]
0	0x3db81306	0.089880034
1	0x3e6c02df	0.2304797
2	0x3db75ba1	0.08953024
3	0xbda9e721	-0.082960375

running_mean f4 [4]
0	0xbf8f0c83	-1.1175693
1	0xbf9c76e7	-1.2223786
2	0xbefd4e0e	-0.49473614
3	0x3e24ae02	0.16082004

running_var f4 [4]
0	0x3f6a4705	0.9151462
1	0x3f88bfa8	1.0683489
2	0x3f531992	0.8246089
3	0x3fd5ed58	1.6713057

weight f4 [4, 4, 3, 3]
0	0x3d612215	0.054964144
1	0x3e84bc7e	0.25925058
2	0x3e00e076	0.12585625
3	0x3bdd544b	0.0067544333
4	0xbc76c0f0	-0.015060648
5	0xbdecce58	-0.115627944
6	0xbe8cd36b	-0.2750505
7	0xbea902eb	-0.3301004
8	0xbeb7d337	-0.35903332
9	0x3c9ae105	0.018906126
10	0x3d404504	0.04694082
11	0xbcc7d4b7	-0.024393423
12	0xbd350cfa	-0.04420183
13	0x3e0a36ff	0.13497542
14	0x3e4b6d90	0.19866014
15	0x3e7747f3	0.2414854
16	0x3dccd546	0.10001616
17	0xbe043346	-0.12910184
18	0xbe43b200	-0.1911087
19	0xbe16df7b	-0.14733689
20	0x3da2eeb1	0.07955683
21	0x3e06413d	0.13110824
22	0x3ea2c6be	0.31792253
23	0x3e53459d	0.20632024
24	0x3e0cdf59	0.13757075
25	0x3deb280f	0.1148225
26	0x3d1cbf44	0.038268343
27	0x3d30e711	0.043189112
28	0xbdd1d94a	-0.10246523
29	0x3e1b7ac0	0.15183544
30	0x3ca97a8d	0.02068832
31	0x3c665518	0.014058374
32	0x3e49f03f	0.19720553
33	0x3b5b1e91	0.0033434967
34	0xbc47a438	-0.012185149
35	0x3e3aad35	0.18230136
36	0x3c947686	0.018122923
37	0x3e6a449e	0.22877738
38	0x3db88e2d	0.09011493
39	0x3e12d613	0.14339475
40	0x3c6b47ce	0.014360381
41	0xbdd75da3	-0.10515907
42	0x3e4c5246	0.1995326
43	0x3cc73ab1	0.024319978
44	0x3d1d9e8b	0.038481276
45	0xbe13071f	-0.14358185
46	0xbdf9efe0	-0.12203956
47	0x3e39580f	0.18099998
48	0xbe77d16f	-0.24200986
49	0xbe5dedd6	-0.21672758
50	0xbe20d7cd	-0.15707321
51	0x3cacab52	0.021077786
52	0xbd1400d7	-0.036133613
53	0x3b9439af	0.004523478
54	0x3e2833e8	0.1642605
55	0xbe02c5ef	-0.12770818
56	0xbdc7b0a5	-0.09750489
57	0x3d84ab2e	0.064779624
58	0x3d3f3f10	0.046691
59	0xbdf69e1a	-0.12041874
60	0xbe44135d	-0.19148012
61	0xbe0fe531	-0.14052273
62	0xbe9879d4	-0.29780447
63	0x3cee3e5b	0.029082468
64	0x3e28fb87	0.165022
65	0x3e7275fc	0.2367782
66	0x3de686ff	0.11256217
67	0x3e0f6314	0.14002639
68	0x3eda9c97	0.42697594
69	0x3d99d33f	0.07510995
70	0xbb54b1ba	-0.0032454566
71	0x3e31b00c	0.17352313
72	0x3e14de88	0.14538014
73	0x3d3f6b18	0.046732992
74	0xbd0b120f	-0.03395277
75	0xbdf5c204	-0.11999896
76	0xbd9392d6	-0.07205741
77	0x3da60d4e	0.081080064
78	0xbeb32afe	-0.34993738
79	0xbda1bf7a	-0.078978494
80	0x3b8e5bfd	0.004344462
81	0xb93d79d5	-0.0001806983
82	0x3c33a844	0.010965411
83	0xbdad705f	-0.08468699
84	0x3e4cab3e	0.19987199
85	0xbe9e9cc9	-0.30978993
86	0xbc10f855	-0.0088482695
87	0x3e5e8f50	0.21734357
88	0xbedf4b9d	-0.43612376
89	0xbc7e7c52	-0.01553257
90	0x3e12b1dc	0.1432566
91	0xbe194938	-0.14969337
92	0xbe5959cc	-0.21225661
93	0xbd963c74	-0.07335749
94	0xbdd1f2bb	-0.10251375
95	0xbd037bda	-0.032100536
96	0xbe1e49cd	-0.1545784
97	0xbda41980	-0.08012676
98	0xbcf9491a	-0.030430365
99	0xbe703381	-0.23457147
100	0xbe3c4b58	-0.18388116
101	0x3d8d14d9	0.06888742
102	0xbebd89c6	-0.37019175
103	0xbe840089	-0.25781658
104	0x3de3c56f	0.11121642
105	0xbdc74ae6	-0.097310826
106	0x3ca8fc41	0.020628097
107	0x3e033a6d	0.12815256
108	0xbdbd48d1	-0.09242404
109	0xbd86a1b6	-0.06573813
110	0x3e39b5cf	0.1813576
111	0xbcc29ce3	-0.02375645
112	0x3d647869	0.055778895
113	0x3ee5f4d1	0.44913343
114	0xbde65ce2	-0.11248185
115	0xbdf0b6a8	-0.11753589
116	0x3d44c4b4	0.048039153
117	0xbcd10515	-0.025515119
118	0x3daf4071	0.08557213
119	0x3db46538	0.088083684
120	0xbe250862	-0.16116479
121	0xbeeffd46	-0.4687292
122	0xbd98836e	-0.07446943
123	0x3e32bb34	0.17454225
124	0x3d23b021	0.03996289
125	0x3e504cf8	0.20341861
126	0xbe27b530	-0.16377711
127	0xbe146f73	-0.1449564
128	0xbd35e1c2	-0.044404753
129	0x3d95f0a0	0.07321286
130	0xbdaddf70	-0.08489883
131	0x3d86828c	0.065678686
132	0x3e31938f	0.17341445
133	0x3dff2e0c	0.124599546
134	0x3c91156b	0.017710408
135	0x3d996bbb	0.07491251
136	0x3d0915cf	0.033468064
137	0x3e0bde1c	0.13658947
138	0x3e599387	0.21247683
139	0x3e8c9c04	0.2746278
140	0x3e182feb	0.14862029
141	0x3e8020d7	0.25025055
142	0x3da27a0c	0.07933435
143	0x3d75436d	0.059878755

weight f4 [4]
0	0x3f6cd859	0.9251762
1	0x3f8abe9c	1.0839419
2	0x3f8151f5	1.0103136
3	0x3f81163b	1.0084909

bias f4 [4]
0	0xbc069931	-0.008215235
1	0xbd862cc6	-0.065515086
2	0x3e9ed717	0.31023476
3	0xbd5ceb48	-0.05393532

running_mean f4 [4]
0	0x3ed282c1	0.41115382
1	0x3da47c78	0.08031553
2	0xbf63baf7	-0.8895716
3	0x3edd329d	0.43202677

running_var f4 [4]
0	0x3f036fd9	0.5134254
1	0x3f400368	0.750052
2	0x3edf31db	0.43592724
3	0x3f25dede	0.64793193

weight f4 [8, 4, 3, 3]
0	0xbd6ac698	-0.0573183
1	0x3e2d8269	0.16944279
2	0x3dd79613	0.10526671
3	0x3e34f993	0.1767333
4	0x3e18fe74	0.14940816
5	0xbdff4c84	-0.12465766
6	0x3e4a4e40	0.19756413
7	0xbd923ebd	-0.07140873
8	0xbe8775fe	-0.26457208
9	0xbdc3c59d	-0.09559176
10	0x3d8eb29b	0.0696766
11	0xbd74d27d	-0.05977105
12	0x3d981af4	0.07427016
13	0x3d9bb712	0.07603277
14	0x3d0b2c94	0.03397806
15	0x3dffbb4b	0.12486895
16	0x3d84abe5	0.06478099
17	0xbe22692c	-0.15860432
18	0xbe430609	-0.19045271
19	0xbe044f05	-0.12920769
20	0x3e83b3d6	0.2572314
21	0xbe287a1b	-0.1645283
22	0xbddd1dbd	-0.10796688
23	0x3ea20c58	0.31650043
24	0xbdc1d3c0	-0.09464216
25	0x3e864c37	0.26230022
26	0x3dad3ece	0.08459245
27	0xbd642277	-0.05569693
28	0xbdfe7c96	-0.12426107
29	0x3b578f24	0.0032891715
30	0xbe286fba	-0.1644887
31	0xbe1c8d79	-0.15288343
32	0x3e899f17	0.26879188
33	0xbe45308b	-0.19256799
34	0x3e0056fa	0.12533179
35	0x3d38babd	0.045099963
36	0x3d963dd5	0.07336012
37	0x3e809066	0.25110167
38	0x3cf7fc60	0.030271709
39	0x3e36107e	0.17779729
40	0x3e9a472e	0.3013243
41	0x3d79c8ba	0.060982443
42	0xbcab78ad	-0.020931566
43	0xba1f13b5	-0.0006068305
44	0xbdd2ec8d	-0.10299025
45	0xbd2fdbf8	-0.042934388
46	0xbd816fce	-0.06320153
47	0x3e0957e3	0.13412432
48	0xbd686b96	-0.056743227
49	0x3cbc74c4	0.023004897
50	0x3e2da68d	0.16958065
51	0xbde63c41	-0.11241961
52	0x3ca8d15d	0.020607645
53	0x3e2af7d9	0.16696109
54	0x3cfff881	0.031246426
55	0x3e3e1d95	0.18565972
56	0x3e14b2f8	0.14521396
57	0xbd7fa97f	-0.062417503
58	0x3dd377c5	0.103255786
59	0x3b9fd024	0.004877107
60	0x3b90d92a	0.004420419
61	0x3d18a0fe	0.03726291
62	0xbdf27661	-0.11838985
63	0x3e89257d	0.26786414
64	0x3e3cedf5	0.18450148
65	0x3d529658	0.05141291
66	0xbce218ed	-0.027599776
67	0x3c8cf139	0.017204868
68	0xbe171d7c	-0.14757341
69	0xbe088b70	-0.13334441
70	0xbe3ab4ab	-0.18232982
71	0xbea597b1	-0.32342294
72	0xbdd3b881	-0.10337926
73	0x3e40192a	0.187596
74	0x3de59923	0.11210849
75	0x3d502f87	0.050826576
76	0xbd3dd5cf	-0.046346482
77	0xbd8b766d	-0.06809697
78	0x3dfa70bd	0.12228534
79	0xbd3703f1	-0.044681493
80	0xbd645c7b	-0.05575226
81	0xbd925740	-0.07145548
82	0xbe130205	-0.14356239
83	0xbe0b2158	-0.13586938
84	0xbdada68e	-0.084790334
85	0xbe9784c1	-0.2959347
86	0xbd603102	-0.054734237
87	0xbdf1080e	-0.117691144
88	0xbdbd729f	-0.09250378
89	0xbe298685	-0.16555221
90	0x3dbe4638	0.09290737
91	0x3e110754	0.14162952
92	0x3e656253	0.22400789
93	0x3d3ad807	0.045616176
94	0x3d02dcde	0.031948917
95	0xbde25208	-0.110508025
96	0xbe040ae8	-0.12894785
97	0xbe499850	-0.19687009
98	0xbe377498	-0.1791557
99	0x3bfb62a2	0.00767167
100	0x3da4b26f	0.08041846
101	0x3e8664af	0.2624869
102	0x3b0da25d	0.0021611669
103	0x3dd68b0b	0.10475739
104	0x3e8e4553	0.27787265
105	0x3e64dd37	0.22350012
106	0x3e6d781a	0.23190346
107	0x3dd2d1cd	0.102939226
108	0xbd8d062b	-0.06885942
109	0xbd393319	-0.045214746
110	0xbcaf9a75	-0.021435956
111	0xbc119fcc	-0.008888196
112	0x37c08e7d	2.2954535e-05
113	0x3d723d68	0.059140593
114	0xbded06af	-0.115735404
115	0xbd7d4ccc	-0.061840817
116	0x3c8d13ba	0.01722132
117	0xbd4e9db7	-0.050443377
118	0xbdfbfb9b	-0.12303849
119	0x3dd6cc02	0.1048813
120	0xbda9abcc	-0.08284721
121	0x3dced433	0.100990675
122	0xbdfdd584	-0.123942405
123	0x3de513d2	0.11185421
124	0x3c0f2acf	0.008738234
125	0xbe957825	-0.29193226
126	0x3d941261	0.07230068
127	0x3cd695de	0.02619451
128	0xbd99179e	-0.07475208
129	0x3db073a7	0.08615809
130	0x3d9df3f6	0.077125475
131	0x3e7d08d6	0.24710402
132	0x3dd2e9c8	0.102984965
133	0x3ea97fcb	0.3310531
134	0x3e641459	0.22273387
135	0xbe69392f	-0.2277572
136	0xbe8fcf6e	-0.28087944
137	0xbe1ebfa5	-0.15502794
138	0xbdb608c3	-0.0888839
139	0xbd9c1070	-0.07620323
140	0xbe584016	-0.21118197
141	0xbdfe02a9	-0.12402851
142	0xbcab54af	-0.020914404
143	0xbcd39b5a	-0.025830913
144	0x3c8fae65	0.017539212
145	0xbdcc73ca	-0.099830225
146	0xbe3e347b	-0.18574707
147	0xbe076702	-0.13222888
148	0x3d006567	0.031346705
149	0xbd939062	-0.07205273
150	0xbde70e46	-0.11282019
151	0x3d9cef57	0.07662838
152	0xbcee292a	-0.029072363
153	0xbbde937f	-0.0067924852
154	0xbceb2191	-0.02870253
155	0xbe899713	-0.26873073
156	0x3cc3d64d	0.023905898
157	0xbd5a4711	-0.05329043
158	0xbe271c07	-0.16319285
159	0x3da32842	0.07966663
160	0xb89f6903	-7.601271e-05
161	0xbe136334	-0.14393312
162	0xbe608b17	-0.21928059
163	0xbe679941	-0.22617055
164	0xbe89d0e1	-0.26917174
165	0x3e051a7c	0.12998384
166	0x3c310abf	0.010805785
167	0xbc3ff6fe	-0.011716602
168	0x3d23f80c	0.040031478
169	0x3df7978e	0.12089454
170	0xbdc62b03	-0.096761726
171	0x3dd5672b	0.10420068
172	0xbe10e277	-0.1414889
173	0xbdc90c55	-0.09816805
174	0x3e87c93a	0.2652071
175	0x3e279ed8	0.16369188
176	0xbd4aee25	-0.04954352
177	0x3e2fcd6b	0.17168204
178	0x3eb76df6	0.3582608
179	0x3dd39f5b	0.10333129
180	0x3e5b197c	0.2139644
181	0x3d4f4f9f	0.050613042
182	0xbd96aa5f	-0.073567145
183	0x3da569b0	0.08076799
184	0xbe72976b	-0.23690574
185	0xbeaf6049	-0.34253147
186	0x3cfa9cc1	0.030592324
187	0xbe41c1de	-0.1892161
188	0xbd839b8d	-0.06426153
189	0x3dc955c4	0.098308116
190	0x3e7f0970	0.24905944
191	0x3e6c2f15	0.23064835
192	0x3b20e9d9	0.0024553447
193	0x3e309857	0.17245613
194	0x3da317b3	0.07963505
195	0x3dc3c491	0.095589764
196	0x3d9afb68	0.07567483
197	0xbe455e1a	-0.19274178
198	0x3def1758	0.11674374
199	0xbd152a44	-0.03641726
200	0xbd999c29	-0.07500488
201	0x3d5437a5	0.05181088
202	0x3ce13af7	0.027493937
203	0xbe734117	-0.23755299
204	0xbdfc83ee	-0.12329851
205	0xbd3b594d	-0.04573946
206	0xbda7785c	-0.081772536
207	0x398d035d	0.00026896122
208	0xbd3172aa	-0.043322243
209	0xbdda5325	-0.1066039
210	0xbde682b8	-0.112554014
211	0xbe0179ac	-0.1264407
212	0x3d6fb638	0.058523387
213	0x3e054d72	0.13017824
214	0xbcd8d32d	-0.026467884
215	0xbc7799c3	-0.015112343
216	0x3c8cc0f4	0.017181851
217	0x3d869222	0.06570841
218	0x3d00e04f	0.031463917
219	0x3c867609	0.016413705
220	0xbe1c1682	-0.15242961
221	0x3dcd7f63	0.10034063
222	0x3d03a346	0.03213813
223	0x3e2b894e	0.16751596
224	0x3e98e806	0.2986452
225	0x3dc548bd	0.09633014
226	0x3cb6cacc	0.022313498
227	0x3d8d62ac	0.06903586
228	0x3e18a8b7	0.1490811
229	0xbb4b89bc	-0.0031057438
230	0xbe88e819	-0.26739576
231	0xbd3d64ff	-0.046238896
232	0x3d61b921	0.055108193
233	0xbdb04b62	-0.08608128
234	0x3e7df29a	0.24799576
235	0x3cef27a1	0.029193701
236	0x3da255b2	0.07926501
237	0xbbf6adf5	-0.0075280615
238	0xbbe82f11	-0.007085689
239	0x3c38bd59	0.011275613
240	0xbe938957	-0.2881572
241	0xbe80cb78	-0.25155234
242	0xbeab10ea	-0.33411342
243	0x3d891163	0.066927694
244	0x3cf8d9b7	0.030377252
245	0x3c4f5b6c	0.012656074
246	0x3cafc683	0.021456962
247	0xbe14f652	-0.14547089
248	0xbe1400e7	-0.14453469
249	0xbe24928d	-0.1607153
250	0xbe150057	-0.14550911
251	0xbe78f663	-0.24312739
252	0xbe3370ea	-0.17523542
253	0x3dba2c4b	0.090904795
254	0x3ddb3147	0.10702758
255	0xbd8bd813	-0.06828322

weight f4 [8]
0	0x3f870b6c	1.0550361
1	0x3f6329f1	0.8873587
2	0x3f838d26	1.027745
3	0x3f81524a	1.0103238
4	0x3f8405ea	1.0314305
5	0x3f6b4819	0.9190689
6	0x3f8775e9	1.0582858
7	0x3f805e96	1.0028865

bias f4 [8]
0	0x3d2fd262	0.042925246
1	0x3e13bcfb	0.14427559
2	0x3e2c3c2a	0.16819826
3	0x3da2d98b	0.07951649
4	0xbe08784b	-0.13327138
5	0x3e04d677	0.12972437
6	0x3d96c8ef	0.07362544
7	0xbcf271c2	-0.02959526

running_mean f4 [8]
0	0x3eea3bd3	0.45748767
1	0x3f6846e3	0.90733165
2	0x3eb4f611	0.35343984
3	0xbef392fc	-0.47573078
4	0xbf13b081	-0.576912
5	0xbf1c7fb4	-0.6113236
6	0xbf503b16	-0.8134016
7	0x3fe85f44	1.8154073

running_var f4 [8]
0	0x401592eb	2.3370922
1	0x3f82090a	1.0159009
2	0x3fd848db	1.6897234
3	0x400d603f	2.2089994
4	0x3fd4751a	1.6598237
5	0x3f9e4f67	1.2367982
6	0x3fb2e94d	1.3977448
7	0x3fc70aa9	1.5550128

weight f4 [8, 8, 3, 3]
0	0x3e01a351	0.12659957
1	0xbdc4c4e5	-0.09607867
2	0x3c43b240	0.011944354
3	0x3e1b507d	0.15167423
4	0x3e089489	0.13337912
5	0x3dd74d1d	0.10512755
6	0xbcdfb6c4	-0.02730883
7	0x3dc0454b	0.093882166
8	0xbd3a1b7a	-0.04543636
9	0x3d626536	0.055272304
10	0xbd97af11	-0.07406438
11	0x3ddc1da7	0.10747843
12	0x3d9b8d0b	0.07595261
13	0x3d8d54fb	0.06900974
14	0x3d2b8963	0.04187907
15	0xbd5ae4cf	-0.053440865
16	0x3cf7ebbe	0.030263778
17	0x3d8035f4	0.06260291
18	0x3b9f2c47	0.004857573
19	0x3df6075c	0.120131224
20	0xbd731118	-0.059342474
21	0x3d7b4d9e	0.06135332
22	0xbe109f63	-0.14123301
23	0xbdb33dbb	-0.087520085
24	0x3d72f347	0.05931404
25	0xbc4c4ccd	-0.012469483
26	0xbd2e3b95	-0.04253729
27	0x3e0a3b2f	0.13499139
28	0xbd86a172	-0.06573762
29	0x3c58a1af	0.013222142
30	0x3d5267eb	0.051368635
31	0x3e5457e2	0.2073665
32	0x3ea20d30	0.31650686
33	0xbe1a7c92	-0.15086582
34	0x3e83d1a0	0.2574587
35	0x3e95ddd9	0.2927082
36	0x3e05b5c5	0.13057621
37	0x3d52dcc4	0.05148007
38	0x3d01d93e	0.03170132
39	0x3e44b078	0.19207942
40	0x3cf6cc63	0.030126756
41	0xbb501898	-0.003175294
42	0x3d97dd97	0.07415312
43	0x3ce71735	0.028209308
44	0xbddf5fa8	-0.10906917
45	0x3ce82f95	0.028343001
46	0x3ddae0e6	0.10687427
47	0xbb5c8588	-0.0033648927
48	0x3e66d58b	0.22542398
49	0xbdc9e44c	-0.09857997
50	0xbb954d6a	-0.0045563476
51	0xbe2bbee1	-0.16772033
52	0xbb9ca9ad	-0.004780969
53	0x3e26b1ef	0.16278814
54	0xbe515aa1	-0.20444728
55	0x3db8f763	0.0903156
56	0x3dcb0497	0.09912985
57	0xbca442c4	-0.020051368
58	0xbd52e5e5	-0.051488776
59	0xbe1b097b	-0.15140335
60	0xbd35d997	-0.044396963
61	0xbbc7148b	-0.006075447
62	0x3c6cf7f1	0.014463411
63	0x3d0b4bc9	0.03400782
64	0xbe774334	-0.2414673
65	0xbe70bd05	-0.23509605
66	0xbd2ae37d	-0.041720856
67	0xbc03d9a2	-0.008047493
68	0x3d7319c1	0.059350733
69	0xbd4dad77	-0.050214257
70	0x3d82df7c	0.063902825
71	0x3d901ed5	0.07037131
72	0x3d3c35cf	0.045949753
73	0x3c90f9f5	0.017697314
74	0xbdac8f76	-0.084258005
75	0x3d29eb35	0.041484077
76	0x3e41e058	0.18933237
77	0x3bbb070d	0.0057076276
78	0x3d9dc7aa	0.077040985
79	0x3cfa069f	0.030520735
80	0x3d4b7b38	0.049678057
81	0x3d170a10	0.03687483
82	0x3d6f995a	0.058495857
83	0x3d736a5a	0.059427597
84	0x3e37e26a	0.17957464
85	0xbda609e5	-0.08107356
86	0xbcf6b23e	-0.03011429
87	0xbdff4727	-0.12464743
88	0xbdbbc033	-0.091675185
89	0xbe326f51	-0.17425276
90	0xbb9f1ce8	-0.004855741
91	0xbdbb56a7	-0.09147387
92	0xbdd9fc57	-0.10643833
93	0x3d90fd35	0.070795454
94	0x3e1a58bd	0.15072913
95	0xbccf0149	-0.025269167
96	0x3dbbe44e	0.09174405
97	0xbd15716f	-0.03648513
98	0xbccf2836	-0.025287729
99	0x3c9b14b0	0.018930763
100	0xbd22d852	-0.03975708
101	0xbd1ef7be	-0.038810484
102	0xbd1d5f60	-0.038421035
103	0xbdb53576	-0.088480875
104	0x3e756e00	0.23967743
105	0xbe17fe73	-0.14843158
106	0xbddc6e6f	-0.10763251
107	0x3e0ce1de	0.13758036
108	0xbde8c0ee	-0.113649234
109	0x3d4d4487	0.05011418
110	0x3cd5b47b	0.026087036
111	0xbc4b1419	-0.012394928
112	0x3c66dfd5	0.014091452
113	0x3dd8b489	0.10581309
114	0x3d51ddd1	0.05123693
115	0x3ca7b680	0.020472765
116	0x3e0ce8fe	0.13760754
117	0xbc84e883	-0.016224151
118	0x3d562731	0.05228347
119	0x3cafd892	0.021465573
120	0xbe866f36	-0.26256722
121	0x3d7dee5c	0.061994895
122	0x3e208c9c	0.15678638
123	0x3d81b62e	0.06333576
124	0x3c9f8334	0.019471742
125	0xbe0927e3	-0.13394122
126	0x3d619f9b	0.055083852
127	0x3d543b89	0.05181459
128	0xbe377665	-0.17916258
129	0x3e5367d3	0.20645075
130	0xbe304ae8	-0.17216074
131	0xbeb8edae	-0.36118835
132	0x3e164483	0.14674573
133	0x3e06cca2	0.13163999
134	0xbe44cf22	-0.1921964
135	0x3e1d4318	0.15357625
136	0xbd678b78	-0.056529492
137	0x3a5bc2d5	0.0008383219
138	0xbd0b8e03	-0.03407098
139	0x3d6a6692	0.057226725
140	0xbdbd5fec	-0.09246811
141	0xbdd1a681	-0.10236836
142	0xbe585b6e	-0.21128628
143	0x3c0865e0	0.00832507
144	0x3ce57dbf	0.028014062
145	0x3d74469f	0.059637662
146	0x3e0afb3c	0.13572401
147	0x3e70976b	0.23495261
148	0x3ee368e2	0.44415957
149	0x3e24c5d3	0.16091089
150	0x3deed4d7	0.1166169
151	0x3d5fe445	0.054661054
152	0xbc2aec85	-0.010432367
153	0x3d82649e	0.063668475
154	0xbd58cb7e	-0.05292844
155	0xbdca2d22	-0.0987189
156	0x3d8d5d62	0.06902577
157	0xbc64f0d1	-0.013973431
158	0xbe04cc9a	-0.12968674
159	0xbc4849eb	-0.012224655
160	0xbe0d3084	-0.13788038
161	0xbe00bfa7	-0.1257311
162	0x3ca747af	0.020419924
163	0x3db087cc	0.08619651
164	0xbc8fde93	-0.017562186
165	0xbe82b97f	-0.25532147
166	0x3d814ae1	0.0631311
167	0x3e0485ad	0.12941618
168	0xbd65a5d5	-0.056066353
169	0x3e3b7ce6	0.18309364
170	0xbd9e5591	-0.07731164
171	0x3d87f931	0.06639326
172	0x3d0a0c59	0.033703182
173	0x3ca519cf	0.020153908
174	0x3e0d894b	0.13821904
175	0x3c9f9c17	0.01948361
176	0xbe24768b	-0.16060846
177	0x3d9bb1e5	0.0760229
178	0xbd634653	-0.05548699
179	0x3d9a3f0c	0.075315565
180	0xbd10b8c2	-0.03533245
181	0x3c95039c	0.018190198
182	0x3d83f1be	0.06442593
183	0xbe0c8913	-0.13724165
184	0x3d4fcf01	0.050734524
185	0x3e6cb739	0.23116769
186	0xbd66d012	-0.056350775
187	0x3d94884e	0.072525606
188	0x3d1de1eb	0.03854553
189	0xbe3882b0	-0.18018603
190	0x3d4fdc9f	0.05074751
191	0x3d9bb2dd	0.07602475
192	0x3d3f2391	0.04666478
193	0x3d74873e	0.05969929
194	0x3d9842fd	0.07434652
195	0x3d3c9969	0.04604474
196	0xbcd70ef2	-0.026252244
197	0xbe322065	-0.1739517
198	0x3e18437c	0.14869493
199	0xbd02b2b7	-0.031908717
200	0xbcbf6e70	-0.02336809
201	0xbe016fa7	-0.12640248
202	0xbe6b6060	-0.22985983
203	0x3e74c0ee	0.23901722
204	0xbd99a9b9	-0.07503075
205	0x3e1ba86a	0.15200964
206	0x3c9eedb9	0.019400464
207	0x3e47e8fb	0.19522469
208	0xbd902298	-0.07037848
209	0xbdbeabeb	-0.093101345
210	0x3b54dfe8	0.0032482091
211	0xbdf1bfd0	-0.118041635
212	0xbe275ee1	-0.16344787
213	0xbd85ec5b	-0.06539222
214	0xbc13283e	-0.008981762
215	0x3d99ba02	0.07506181
216	0x3c9b2a68	0.01894112
217	0xbe7044bb	-0.23463719
218	0xbd8f218a	-0.06988819
219	0xbe15b2a8	-0.14618933
220	0xbe240538	-0.16017616
221	0x3dc76b7d	0.09737299
222	0xbd0932c3	-0.033495676
223	0xbd046e0e	-0.03233152
224	0x3e5c7442	0.21528724
225	0x3d1a8d64	0.037732497
226	0xbdde1fb9	-0.10845894
227	0x3d02f14f	0.03196841
228	0xbe48b929	-0.19601883
229	0xbcbf3253	-0.023339426
230	0x3d45ca36	0.048288547
231	0xbd59f3c2	-0.05321098
232	0xbdc6e55d	-0.09711716
233	0xbc01c53c	-0.0079205595
234	0xbcb2d5bd	-0.021830434
235	0x3db2dac4	0.087331325
236	0xbceb0e9d	-0.028693492
237	0xbdde53cd	-0.108558275
238	0x3da7daa2	0.08195998
239	0xbe1ee631	-0.15517499
240	0xbdbd6bab	-0.09249052
241	0x3df8ba85	0.12144951
242	0x3c8b169d	0.016978556
243	0x3e1526eb	0.14565627
244	0xbd3a01fd	-0.045412052
245	0xbdacdff0	-0.0844115
246	0x3e82962b	0.25505194
247	0x3dbdbaa9	0.09264118
248	0x3dea6a5e	0.11446069
249	0x3d5c1285	0.0537286
250	0x3e868b6d	0.26278248
251	0xbd36ad95	-0.044599134
252	0xbde7d74d	-0.11320362
253	0xbd0a6e63	-0.03379668
254	0xbe2eb202	-0.17060092
255	0x3d77d0f9	0.060502026

weight f4 [8]
0	0x3f80dee4	1.0068021
1	0x3f61fa87	0.882729
2	0x3f6e8b0c	0.9318092
3	0x3f8a2e3c	1.079536
4	0x3f7968af	0.9742536
5	0x3f712ed7	0.94212097
6	0x3f7dc121	0.99122816
7	0x3f966975	1.1750933

bias f4 [8]
0	0x3dec2147	0.11529785
1	0xbc996d2e	-0.018728819
2	0x3e3340a9	0.17505135
3	0x3e6fd6cd	0.23421784
4	0x3dcda992	0.100421086
5	0x3e8a0920	0.26960087
6	0x3e5a1353	0.21296434
7	0x3d5b1f98	0.053496927

running_mean f4 [8]
0	0x3f197db9	0.5995746
1	0xbe02903c	-0.12750334
2	0x3ec5ebeb	0.38656554
3	0xbeaefb29	-0.34175995
4	0xbe64f7df	-0.2236018
5	0x3efca4a9	0.49344376
6	0xbf219f93	-0.63134116
7	0xbf072b60	-0.5280056

running_var f4 [8]
0	0x3ee35c1f	0.4440622
1	0x3e9ebd9c	0.31004035
2	0x3f026711	0.50938517
3	0x3f534a6a	0.8253542
4	0x3ea72601	0.32646182
5	0x3ef6d1d6	0.48206967
6	0x3f18ebc2	0.5973474
7	0x3f0bf00a	0.54663146

weight f4 [8, 4, 1, 1]
0	0xbd7e208f	-0.06204277
1	0xbe455f53	-0.19274645
2	0xbe8858c9	-0.26630238
3	0xbe72f677	-0.23726831
4	0x3e509f62	0.203733
5	0x3e46c3cd	0.1941063
6	0xbecd6620	-0.40116978
7	0xbe490f24	-0.19634682
8	0xbdd259c5	-0.102710284
9	0xbe8a49be	-0.27009386
10	0x3f0d3806	0.5516361
11	0x3e0d962f	0.13826822
12	0x3ea654e9	0.32486656
13	0xbf0e0394	-0.5547421
14	0xbeacf0b1	-0.33777383
15	0xbe94a101	-0.29029086
16	0x3e8605e9	0.26176384
17	0x3d86f3d8	0.06589478
18	0x3eba0c53	0.36337528
19	0x3ded1630	0.115764976
20	0x3ed65d0c	0.41867864
21	0xbecbaf22	-0.39782053
22	0xbd74d927	-0.059777405
23	0x3e55e6a9	0.20888771
24	0xbeb8d24a	-0.36097938
25	0xbee174fd	-0.44034567
26	0xbd9365d3	-0.07197156
27	0xbcc6ad1b	-0.024252465
28	0x3e87750e	0.26456493
29	0xbede3197	-0.4339721
30	0xbc05c978	-0.00816571
31	0xbd1ed9b2	-0.03878183

weight f4 [8]
0	0x3f66b8ee	0.9012593
1	0x3f59029e	0.8476962
2	0x3f4e694f	0.8062944
3	0x3f771f18	0.9653182
4	0x3f505eb1	0.8139449
5	0x3f5cd5c3	0.86263674
6	0x3f59958a	0.84993804
7	0x3f5402d6	0.8281683

bias f4 [8]
0	0x3dec2147	0.11529785
1	0xbc996d2e	-0.018728819
2	0x3e3340a9	0.17505135
3	0x3e6fd6cd	0.23421784
4	0x3dcda992	0.100421086
5	0x3e8a0920	0.26960087
6	0x3e5a1353	0.21296434
7	0x3d5b1f98	0.053496927

running_mean f4 [8]
0	0xbf32e283	-0.6987688
1	0xbe6d3772	-0.23165682
2	0x3ec38dff	0.38194272
3	0xbf347f19	-0.70506436
4	0x3f4d7c83	0.80268115
5	0x3e716432	0.23573378
6	0xbf4f82f4	-0.81059194
7	0xbde4a165	-0.11163596

running_var f4 [8]
0	0x3ea368da	0.31915933
1	0x3eaf206a	0.34204417
2	0x3ef61d73	0.48069343
3	0x3f6f323c	0.93436027
4	0x3eb608cc	0.35553586
5	0x3e8b839f	0.27248856
6	0x3efbf060	0.4920683
7	0x3e838566	0.25687712

weight f4 [8, 8, 3, 3]
0	0xbd5b5b71	-0.053554002
1	0xbd372d6a	-0.044721045
2	0xbe0ebdc5	-0.13939579
3	0xbdc6e4af	-0.09711587
4	0xbc91fff2	-0.01782224
5	0xbcc09ea5	-0.023513148
6	0xbd0840cf	-0.03326493
7	0x3db11d6b	0.08648189
8	0x3e6ee6fb	0.233303
9	0x3d7b0358	0.061282486
10	0x3d2d6113	0.042328905
11	0x3d5f9ba3	0.054591786
12	0xbd6413cd	-0.055682946
13	0x3dc2136d	0.094763614
14	0x3da5ac14	0.08089462
15	0x3d774624	0.060369626
16	0x39be3bcd	0.0003628418
17	0xbdc798b6	-0.09745924
18	0x3d9533a8	0.07285243
19	0xbb8f3dc1	-0.0043713753
20	0x3be4d856	0.006983797
21	0xbdb57e05	-0.08861927
22	0xbe00b941	-0.12570669
23	0x3c651885	0.013982897
24	0x3bdcd2f6	0.0067390157
25	0x3ca21640	0.019786
26	0x3c76dbfb	0.015067096
27	0x3d4ae3d7	0.04953369
28	0x3e189260	0.14899588
29	0x3d1ade7b	0.03780983
30	0xbcc119fc	-0.02357196
31	0x3ca5bf6e	0.020232882
32	0x3deffa49	0.1171766
33	0x3d870be9	0.065940686
34	0x3ded193f	0.11577081
35	0x3e5ae211	0.213753
36	0xbe0cb5e3	-0.1374126
37	0xbe2a8aba	-0.16654482
38	0x3ca5483e	0.02017605
39	0xbdba80d1	-0.09106601
40	0x3d779e9a	0.06045399
41	0xbdb86be5	-0.09004954
42	0x3c547a4d	0.012968612
43	0x3d6f511c	0.05842696
44	0xbdbc4a9c	-0.09193918
45	0x3bccd973	0.006251508
46	0xbdab91fd	-0.083774544
47	0xbe073128	-0.13202345
48	0xbd976a61	-0.07393337
49	0xbd8158ba	-0.063157514
50	0xbe246c48	-0.16056931
51	0xbc2e0763	-0.010621878
52	0xbdd5a17f	-0.104311936
53	0xbdfaca15	-0.12245575
54	0x3cea0e68	0.028571323
55	0xbd17b09f	-0.037033673
56	0xbe838ad9	-0.2569187
57	0xbcd11e58	-0.025527164
58	0xbda5a04b	-0.08087214
59	0xbda706ac	-0.081555694
60	0xbd54cd4b	-0.051953595
61	0xbab2b43e	-0.0013634039
62	0xbd0f77f6	-0.035026513
63	0xbdafb748	-0.0857988
64	0xbc9fa06e	-0.019485679
65	0x3d8298e0	0.06376815
66	0x3d95636b	0.07294353
67	0xbdded35e	-0.10880159
68	0x3e38b6ad	0.18038435
69	0x3dd7c664	0.10535887
70	0xbd750bc0	-0.05982566
71	0x3d074338	0.03302309
72	0x3d930131	0.071779616
73	0x3dce8013	0.10083022
74	0xbdc5e4bf	-0.096627705
75	0x3d96f46c	0.073708385
76	0xbe74886a	-0.23880163
77	0xbe2c02ca	-0.16797939
78	0xbdfb9271	-0.12283791
79	0x3df6853a	0.1203713
80	0xbdc28faf	-0.09500062
81	0x3cbb9d53	0.022902166
82	0xbd74402c	-0.05963151
83	0xbde1f2e1	-0.110326536
84	0xbd7af565	-0.061269183
85	0x3c989809	0.018627184
86	0xbdcd9db6	-0.100398466
87	0x3c968c9e	0.018377598
88	0xbe154b30	-0.14579463
89	0xbcaaecf5	-0.020864943
90	0x3dd930b8	0.106049955
91	0x3ca8666d	0.020556653
92	0xbd7fff09	-0.06249908
93	0x3d157e29	0.03649727
94	0x3e40d13e	0.1882982
95	0xbda848bd	-0.08216999
96	0x3e802bbb	0.25033364
97	0xbdcab5a3	-0.09897926
98	0xbd84d855	-0.064865746
99	0xbe075261	-0.13215019
100	0xbdde0bf3	-0.10842123
101	0x3cf433e3	0.029809898
102	0x3d581521	0.052754525
103	0x3db16293	0.0866138
104	0x3e46ef16	0.19427142
105	0xbd882759	-0.0664813
106	0x3e3c24bd	0.1837339
107	0x3e180555	0.14845784
108	0x3d4a6109	0.049408946
109	0xbe292289	-0.1651708
110	0xbda3f267	-0.08005219
111	0xbe62f9bf	-0.22165583
112	0x3d7da55d	0.06192528
113	0xbe0ed292	-0.13947514
114	0x3e0dcbad	0.13847227
115	0x3dd70c82	0.105004326
116	0x3e0b89f2	0.1362684
117	0x3d566195	0.052339155
118	0x3e30b70c	0.17257327
119	0x3e08a3e2	0.13343766
120	0xbcfb8aa1	-0.030705752
121	0xbdff58ab	-0.12468084
122	0x3e8549d7	0.26032898
123	0xbe4e31a9	-0.20136131
124	0xbd1db957	-0.038506832
125	0x3d9b6d0f	0.07589161
126	0x3d7604e6	0.060063265
127	0x3e1a1055	0.15045293
128	0xbc9a0da9	-0.018805342
129	0x3e988f24	0.29796708
130	0x3cec02df	0.028809963
131	0x3e52566f	0.20540784
132	0xbdd68521	-0.10474611
133	0x3e73ee75	0.23821433
134	0xbd897288	-0.06711298
135	0xbbfc4ad9	-0.007699352
136	0xbd156328	-0.036471516
137	0xbde572ed	-0.11203561
138	0xbd3ea475	-0.046543557
139	0xbd4be2a9	-0.049776707
140	0x3d159c4d	0.036526013
141	0x3d91cab5	0.071187414
142	0x3de6ab3c	0.11263129
143	0x3d4ac034	0.049499705
144	0xbde5c4f6	-0.11219208
145	0xbe276646	-0.16347608
146	0x3cf6e1be	0.03013694
147	0xbd00569d	-0.0313326
148	0xbe0c4c0e	-0.13700888
149	0x3dca0244	0.098637134
150	0x3ba0d87c	0.0049086194
151	0x3d966719	0.07343883
152	0x3ea6f7ca	0.32610923
153	0xbd9ef771	-0.077620395
154	0x3da1f5cd	0.07908211
155	0xbdeb236f	-0.11481368
156	0x3dc35d48	0.09539276
157	0x3e254abc	0.1614179
158	0x3d961ae1	0.073293455
159	0xbc021e44	-0.007941786
160	0x3c35189b	0.01105323
161	0x3d5f2e7e	0.054487698
162	0x3d2ef073	0.04270978
163	0xbbfed24b	-0.0077765337
164	0x3cd3d916	0.02586035
165	0x3d08ca7a	0.03339622
166	0x3e42167a	0.18953887
167	0x3e0314b2	0.12800863
168	0x3e1c3d0d	0.15257664
169	0x3d51e56d	0.051244188
170	0x3d994601	0.07484055
171	0x3bf2f3bf	0.0074143107
172	0x3de416d3	0.11137166
173	0x3e1947e6	0.14968833
174	0x3e8e904b	0.27844462
175	0x3e68d1eb	0.22736327
176	0x3cbdeebb	0.023185125
177	0xbdcb7e6d	-0.09936223
178	0xbd8156b2	-0.06315364
179	0x3e28b10c	0.16473788
180	0xb9ea0e72	-0.0004464272
181	0x3d9aaeb4	0.07552853
182	0x3d6c33a0	0.05766642
183	0x3bc8daac	0.0061295833
184	0x3d4d2b87	0.05009034
185	0xb9bd0ed6	-0.00036059943
186	0x3d831988	0.06401354
187	0x3d663552	0.056203194
188	0x3e7bd50d	0.24592991
189	0x3e4df656	0.20113501
190	0xbd9d9d83	-0.076960586
191	0xbd8fa563	-0.07013967
192	0x3ca1d514	0.019754924
193	0xbd164b5c	-0.036692962
194	0x3d066f92	0.032821245
195	0xbe07d21c	-0.13263744
196	0xbda90c9f	-0.082543604
197	0xbd61f205	-0.05516245
198	0xbd5dd139	-0.05415461
199	0xbdac5b8b	-0.08415898
200	0x3e1255eb	0.14290588
201	0xbe247bea	-0.16062894
202	0xbe23138e	-0.15925428
203	0x3c2a6791	0.010400669
204	0xbdac012c	-0.08398661
205	0xbdc4c280	-0.096074104
206	0xbd80b6ba	-0.06284852
207	0x3c26cd1d	0.010180739
208	0x3e216e70	0.15764785
209	0x3e04692d	0.12930746
210	0x3d06fd94	0.032956675
211	0xbda885b5	-0.082286276
212	0x3d29f1d9	0.04149041
213	0xbd2cad1c	-0.042157277
214	0xbe0eaa0f	-0.1393206
215	0xbe043c1e	-0.12913558
216	0x3d81f419	0.06345386
217	0x3d7ca325	0.061679024
218	0x3d305254	0.043047264
219	0x3e38e79e	0.18057105
220	0x3e6ea84f	0.23306392
221	0x3e24f02c	0.16107243
222	0x3c66885f	0.014070599
223	0x3df53839	0.11973614
224	0x3e265562	0.16243508
225	0xbe173328	-0.14765608
226	0x3e28fcdd	0.1650271
227	0xbbe67a73	-0.00703364
228	0xbdc89f99	-0.09796066
229	0xbd52bcf0	-0.051449716
230	0xbdc3c742	-0.0955949
231	0xbe4a310c	-0.19745272
232	0xbd3214a4	-0.043476716
233	0xbddcdc16	-0.107841656
234	0x3d2daacd	0.042399216
235	0x3c7bce36	0.015368989
236	0x3cec2a30	0.02882871
237	0x3c2f751a	0.0107090715
238	0x3bce8f98	0.006303739
239	0x3e7bae6b	0.24578254
240	0xbe1fbcd1	-0.15599371
241	0xbe0052c8	-0.12531579
242	0xbd9408c5	-0.07228235
243	0x3e24c3d7	0.16090332
244	0x3b173235	0.0023070697
245	0xbe550c36	-0.2080544
246	0xbd5901bc	-0.05298017
247	0xbc9d3c50	-0.019193798
248	0xbe46c179	-0.19409741
249	0xbe4e2bcd	-0.20133896
250	0x3d662ab0	0.056193054
251	0x3b22b596	0.0024827472
252	0xbdece2a1	-0.115666635
253	0x3c9055d7	0.017619057
254	0x3c2b2288	0.010445245
255	0xbe1288e6	-0.14310035

weight f4 [8]
0	0x3f6ec374	0.9326699
1	0x3f77d56b	0.96810025
2	0x3f748ace	0.955243
3	0x3f765c3f	0.96234506
4	0x3f8fa285	1.1221472
5	0x3f7ce1ff	0.9878234
6	0x3f7a3e31	0.97751147
7	0x3f8b09c4	1.0862355

bias f4 [8]
0	0xbdad22cf	-0.08453905
1	0x3e49644f	0.19667171
2	0xbd61a69d	-0.055090535
3	0x3d123e33	0.03570385
4	0x3e0c8807	0.13723765
5	0xbdc5f61f	-0.096660845
6	0x3d2f4ce2	0.04279793
7	0x3dbfe622	0.09370066

running_mean f4 [8]
0	0xbedb9dd8	-0.42893863
1	0x3f5d896c	0.86537814
2	0x3f904ff7	1.1274403
3	0xbf418fde	-0.7561015
4	0x3eae119f	0.3399782
5	0xbf4d53c9	-0.8020597
6	0xbe9bcca3	-0.30429563
7	0xbfadebeb	-1.3587621

running_var f4 [8]
0	0x3f67a9b7	0.9049334
1	0x3fadb370	1.3570385
2	0x3f4171fc	0.7556455
3	0x3f5e893f	0.8692817
4	0x3fd67a38	1.6756048
5	0x3f87e5fb	1.061706
6	0x3f808766	1.004132
7	0x3fabcf01	1.3422548
