save/bs32ep300sf2.pth (torch_old, 74346 bytes, 102 tensors)

weight f4 [2, 3, 3, 3]
00000000: 8bb9 363e f7a2 29bc 8c33 b23e 80b6 31bf
00000010: 37d6 06bf 45fe 85be 4ab2 c1be 2583 7f3d
00000020: 15fe 483d a08d 3c3d b624 2a3d f6a0 abbd
00000030: a7cf f13c d57a c8be a27a 8cbd 04a8 bbbd
00000040: 399e 0dbd 66e6 23be f8cf 783f 0848 ce3e
00000050: 82c3 843e 5579 043f f304 473e 9c83 6abd
00000060: be84 04be e9ec 96bd f4b6 35be ec91 313f
00000070: 2b70 613f dcfd fd3e c693 74be ba4c e03d
00000080: 4d58 70be b30f 32bf 96c7 56be 4eb8 ae3c
00000090: d5f5 81be b0a5 5cbe e4ff a5be 709e 24bf
000000a0: b120 9dbd eccc 27be 962e 2abe 2e81 603e
000000b0: 2b37 b4bc 970b 0bbf ef54 0f3e f5c0 763e
000000c0: d208 28bf 35f2 813e cb59 4f3e 4203 153e
000000d0: 486c 303e bcaa 773e
0.17844217 -0.010353795 0.34804952 -0.694191 -0.52670616 -0.26170555 -0.37831336 0.06238093
0.049070437 0.0460335 0.041538917 -0.0838031 0.029517962 -0.39156213 -0.06859328 -0.09162906
-0.03457472 -0.16005859 0.97192335 0.4028933 0.2593041 0.5174764 0.19435482 -0.05725442
-0.12941262 -0.07369406 -0.17745572 0.69363284 0.8806178 0.49607742 -0.23884496 0.109521344
-0.23471184 -0.69555205 -0.20974573 0.021328118 -0.25382867 -0.2154758 -0.32421792 -0.64304256
-0.07672251 -0.16386765 -0.16619334 0.21924278 -0.021998962 -0.5431456 0.13997243 0.24097045
-0.6563846 0.25380102 0.20249097 0.14552024 0.17228806 0.24186224

weight f4 [2]
00000000: f1fd 4d3f 0eee 093f
0.8046561 0.5387887

bias f4 [2]
00000000: 0478 233d bff7 f03e
0.039909378 0.47064015

running_mean f4 [2]
00000000: d934 813e c01c 093e
0.25235632 0.13389874

running_var f4 [2]
00000000: 6f2b 8940 60e0 7840
4.286552 3.8886948

weight f4 [2, 2, 3, 3]
00000000: e9f1 403e 2067 f93d fbf6 25bc a526 13bd
00000010: b07a 1a3f 61ce 703e 1b71 9ebe 6ee6 4d3c
00000020: 4ad3 c8be 6810 883e a7d4 ec3d 528d 2bbe
00000030: df77 e33d b345 1a3f 88a5 653e bfdb 623c
00000040: 011b 963e 8d1c c33d 742c 3abe 682e 403d
00000050: 42fd b73a 2691 bb3e d7a8 98be a139 77be
00000060: 7e05 84bd 5a4d d1be ff87 5e3e 8d1b 06be
00000070: f9e1 613e 7b0c 143e a10d 35bf 0001 793e
00000080: 36eb e23e bbcc f7be dfc5 013f b0c2 cf3d
0.18842281 0.12177873 -0.0101296855 -0.035925526 0.60343456 0.23516227 -0.30945668 0.012567146
-0.392237 0.26575017 0.11563998 -0.16753128 0.11106848 0.602626 0.22426426 0.013846337
0.29317477 0.0952693 -0.1818102 0.046919256 0.0014037269 0.36634177 -0.29816315 -0.24143077
-0.0644636 -0.40879327 0.21731566 -0.13096447 0.22058858 0.14457886 -0.7072392 0.24316788
0.44320077 -0.48398384 0.5069255 0.101445556

weight f4 [2]
00000000: a048 6e3f a76f 8b3f
0.93079567 1.0893449

bias f4 [2]
00000000: 4bed f73d 5288 b33e
0.12105807 0.35064942

running_mean f4 [2]
00000000: 0e61 6e3f 0048 fe3c
0.93116844 0.031040192

running_var f4 [2]
00000000: c4b2 173f a44b be3e
0.5925715 0.37167084

weight f4 [2, 2, 3, 3]
00000000: 69a8 90bd 0188 763e c818 2d3d 794a ad3d
00000010: 8748 29be e53d 1dbe 8aab 3cbe 9214 66bf
00000020: 7c7b 53be 5770 ab3d d1d8 52bd e05b 203e
00000030: 6ac4 d2be 13c9 73be 368b 093f 3efa d73e
00000040: 8a24 463e 83ef e7bd 76a7 d3be 0d50 0c3d
00000050: d3f3 9bbd 9eaa 40be 39b8 573e c5da 1bbe
00000060: 7733 18be 0297 853e 37f3 bd3d 0939 f1be
00000070: 25d4 e3be 790e 873e 2fbc 02bf 0aa4 10be
00000080: b643 0c3e ac66 0a3e e0b9 6a3e bd58 72be
-0.07063372 0.24075319 0.04225996 0.0846147 -0.16531573 -0.15355642 -0.18424812 -0.8987514
-0.20652574 0.083710365 -0.051476303 0.15660048 -0.41165477 -0.23807172 0.53728044 0.42183107
0.19349876 -0.1132498 -0.413387 0.03425603 -0.07614865 -0.18815085 0.21066369 -0.15220173
-0.14863382 0.26091772 0.09274905 -0.47113827 -0.4449779 0.2637823 -0.51068395 -0.14125076
0.13697705 0.13515729 0.22922468 -0.23666663

weight f4 [2]
00000000: 2a4c 9f3f 1aa9 9c3f
1.2445118 1.2239106

bias f4 [2]
00000000: 9aab 593f 86f6 983e
0.8502747 0.29875582

running_mean f4 [2]
00000000: 30d5 11be adc6 38bf
-0.14241481 -0.72178155

running_var f4 [2]
00000000: 0e17 703f 4d22 383f
0.9378518 0.7192734

weight f4 [2, 2, 3, 3]
00000000: b43c 5a3f ad94 d43c 6afd 08bd b8b7 09be
00000010: 35bd 1fbf d629 25bd e348 213e 75e8 28be
00000020: 04ab 31bd fecc 77be c5c4 2e3e f5e4 973e
00000030: 3726 55be 220c f2be 75cd dbbd 620b 273e
00000040: af7b 11be cdd0 143c 3e3e 38bc 2db0 0bbf
00000050: 1ff8 ccbe ab5b 07be 0759 8d3e 4d72 b1bd
00000060: 4ce0 8d3e 03af 683f d3c9 083e 4fea 8e3d
00000070: 1128 a5bd b033 3dbe 8984 43bd 6755 7039
00000080: 2d2c 943e a858 70bc 3bfc 0fbe bc74 eb3e
0.85248876 0.0259498 -0.0334448 -0.1344899 -0.6239808 -0.0403231 0.1575046 -0.16494925
-0.043375984 -0.24199292 0.17067249 0.29666868 -0.20815359 -0.47274882 -0.10732547 0.16312936
-0.14207338 0.009082985 -0.011245308 -0.545657 -0.4003305 -0.13218562 0.27606985 -0.08664379
0.27710187 0.90892047 0.1335824 0.069782846 -0.08064283 -0.18476748 -0.047733817 0.00022919998
0.28939953 -0.014669575 -0.14061062 0.459875

weight f4 [2]
00000000: 60e0 7c3f 12fe 7b3f
0.9877987 0.98434556

bias f4 [2]
00000000: 2e16 293e 1e9d af3e
0.16512367 0.34299558

running_mean f4 [2]
00000000: 24e8 13bf 154c 583f
-0.57776093 0.8449109

running_var f4 [2]
00000000: 62e1 823f e387 6a3f
1.0225031 0.91613597

weight f4 [2, 2, 3, 3]
00000000: ffc4 76be 98f5 f3bd 98dd 813d ffd1 e6be
00000010: 99ff 3abc b36f ad3c 7226 24be 9de6 47be
00000020: bfec d6be 264f 4b3e 0869 ddbd 8856 f0be
00000030: f6ce 38bd fbe5 e0be 332b 45be 4950 5b3d
00000040: f90e f7bc bd5a 23ba e756 5bbd 0434 493e
00000050: c948 b6bd e274 d33d d0e9 4b3e ecf6 7bbd
00000060: 737f 1fbe a244 cfbd 3104 053e 9230 36be
00000070: 88fd dd3e 1cde 863e ecec 39be e858 ee3e
00000080: 40d3 533e fd27 033e 9365 22bd 085b 993d
-0.24098586 -0.11912078 0.06341094 -0.4508209 -0.011413478 0.021171426 -0.1603029 -0.19521566
-0.41977498 0.19854411 -0.10811049 -0.46941018 -0.04511925 -0.4392546 -0.1925476 0.053543363
-0.030158507 -0.00062314776 -0.053549673 0.19648749 -0.089006014 0.10325028 0.19913411 -0.06151478
-0.15575962 -0.101205125 0.1298988 -0.17791966 0.43357491 0.2634133 -0.18156785 0.46552205
0.20686054 0.12808223 -0.03964765 0.07488066

weight f4 [2]
00000000: f6a8 613f df48 533f
0.8814844 0.8253307

bias f4 [2]
00000000: 6b46 693e 5dcc 8d3e
0.22780769 0.2769498

running_mean f4 [2]
00000000: 7142 9bbf 3c11 383f
-1.2129651 0.719013

running_var f4 [2]
00000000: e138 193f 079d bb3e
0.59852415 0.3664324

weight f4 [4, 2, 3, 3]
00000000: df9c 363e 375f 703e e54d 253c bc48 07bd
00000010: f359 dabd ad41 143e 7020 ca3d 6113 da3d
00000020: 3639 893e ea50 9ebd 3c59 343e 3de1 993e
00000030: 3251 573e 2ccd 853e 3c5f ab3c 142e 683e
00000040: 994e 623e 4ecf 80bd c2d9 0fbe 71e7 fbbd
00000050: 9c69 78be 3698 e83b 7f46 043e ee8b 16bd
00000060: 4a7a cbbb 7b5e 6b3d f509 e1bd e111 c33e
00000070: ffe8 953e 0d47 c0bd 7bb7 f53d 0b97 db3d
00000080: 8813 bc3d 70b8 abbe ceb4 cabd e79c e0bd
00000090: 5c5f d63d a854 3e3e be9e bbbd 198b 953d
000000a0: 6d3f d83e f050 c53d 9207 b93d 559d 553e
000000b0: 3750 c53e 6bfd 433c 3bd2 123e 3f45 c13d
000000c0: a941 77be 5840 17be 42a7 25bd a5b3 e23b
000000d0: 3a79 4bbd 6bce 5d3c 931a ffbb e625 123d
000000e0: 5606 48bd 790b bc3e 567b e4bd bc5f e4be
000000f0: cedc a83e dfbe b6bd a38a 73be f345 913d
00000100: 2070 9dbd 067b 6ebc 414e 9b3e 9657 06be
00000110: 07c2 37be 6916 423e 9aba 93bd 8071 3bbe
0.17833279 0.23473822 0.010089372 -0.03302835 -0.10661688 0.14478178 0.09869468 0.106482275
0.2680146 -0.07730277 0.17612165 0.30054656 0.21027067 0.26133096 0.020919435 0.22673827
0.22100295 -0.0628954 -0.14047912 -0.12300003 -0.24259037 0.007098223 0.12917517 -0.03675454
-0.0062096464 0.05746315 -0.10988227 0.38099578 0.29279324 -0.09388552 0.11997887 0.107221685
0.09183413 -0.33539152 -0.09897767 -0.10967427 0.10467407 0.18586981 -0.09161137 0.073019214
0.4223589 0.09634578 0.09034647 0.20860799 0.38537762 0.011962275 0.14338009 0.09437036
-0.24146141 -0.14770639 -0.040442713 0.006918388 -0.049676158 0.013537983 -0.0077851503 0.035680674
-0.048834167 0.36727503 -0.11156337 -0.4460429 0.3298096 -0.089231245 -0.23783354 0.0709342
-0.07687402 -0.014555698 0.3033314 -0.13119349 -0.1794511 0.18953861 -0.07213326 -0.18305016

weight f4 [4]
00000000: 8c6f 623f b59e 5d3f 023e 8d3f 763b 8b3f
0.8845146 0.8657029 1.1034548 1.0877521

bias f4 [4]
00000000: 978e b3bd 2985 723e 17b2 693e 8f67 1fbe
-0.08767431 0.23683609 0.22821842 -0.15566848

running_mean f4 [4]
00000000: ae0b 3d40 70e1 61be ff3f fd3f 155c 0ebf
2.9538379 -0.22058654 1.9785155 -0.55609256

running_var f4 [4]
00000000: dca3 9c3f 6454 2c3f 17fa b53f 3ca1 9f3f
1.2237506 0.6731627 1.4216946 1.247108

weight f4 [4, 4, 3, 3]
00000000: 36b4 3ebe 742f 69be 4fda afbd a2aa e73b
00000010: 5c2e e3be 7c16 0ebe ad4a 7c3d 6de0 e8bd
00000020: b6c6 21bd 89cf 13bd cdda 39be b9c9 06be
00000030: 4af4 8b3d da99 9b3d bf1f a03c f72f b33d
00000040: eaf5 5bbe 48ac b53d f7d9 a9bd 2ea4 99be
00000050: 4449 7dbe ed66 ea3d b535 cebd f316 163d
00000060: c886 9c3e 73a3 cc3c 23b3 273e 07a8 a03c
00000070: 5109 9d3d bbe6 6d3b 5059 463e 466c 773e
00000080: f445 d63d d63f 4b3c ea14 143e e351 f3bd
00000090: 1a52 95be 1932 f13c a7cc 873d 7e24 073e
000000a0: f862 32bd a93c 2bbc 6790 ab3d ee07 b83d
000000b0: 37bc 16bd 9fda 8ebd 6491 cabd 6992 533d
000000c0: e035 95bb 3e83 c93d a608 093e 3b9b 163e
000000d0: 9281 9e3d 6e09 fa3c ecba 443e d8b4 ec3c
000000e0: a44c 82be 2c5d e7be 820d 8e3c d3cd 9abe
000000f0: 1e9f a6bd ec79 293e 2246 983d 74bb 20be
00000100: 5a59 85be 2ab6 69bd a58c cdbd 2e23 51be
00000110: 97c2 f6bd 3d00 ef3c 65e9 63bc 2cac 0bbe
00000120: 6a48 8f3e 5e61 363e 9963 e6bb 31a9 51be
00000130: 9412 0fbe 6761 22be 32b9 96bd 00f6 a2be
00000140: bd11 cebd ad29 113e c574 f4bd 8da9 183d
00000150: 33ba dc3e a8fa f13d 3f85 2dbe 9d47 febd
00000160: 9b2a 08be 369a 863e d8d3 46be c93a 843e
00000170: 0f11 c53d 5a45 913c 192d 83be f10c babe
00000180: 14b8 b1bd fee3 0f3e c4d9 543e dc32 db3d
00000190: 0c94 fc3c 1a66 143d 04f3 2abd a8d9 b63e
000001a0: ce4d 25be 3402 aa3c 2d7a 00be b90b ecbc
000001b0: fd85 42bd 4138 eb3d 083d 513d 99b7 16bd
000001c0: d2cd 003e 1bf3 46be ce68 c73d 568c e4bd
000001d0: 083f fcbc 67e0 f43d ef08 8abd a34b cd3d
000001e0: ae29 99be 6b5b 4d3e 1316 dc3c b297 8a3d
000001f0: 8503 9e3e 44db 71be 9fda 64bd 5466 c2bc
00000200: 6f0a c23d 0754 92be 45d0 5e3e 4359 adbc
00000210: 0469 2abe e4e4 22bc 6ee8 873d 01cc 53bd
00000220: 8585 183e b810 46be f0fc c33e c40d d03e
00000230: f524 9b3e 8f03 3a3d 659d 0b3e 55b7 84bc
-0.18623433 -0.22772008 -0.08586561 0.0070699016 -0.44371307 -0.13875765 0.061594654 -0.11370931
-0.039496146 -0.036086593 -0.18149872 -0.13162889 0.06833704 0.07597704 0.019546388 0.08749383
-0.21480528 0.08870751 -0.082935266 -0.30008072 -0.2473498 0.11445413 -0.100688376 0.03664298
0.3057158 0.024980282 0.16376929 0.019611372 0.076677926 0.0036300856 0.19370008 0.24162397
0.10462561 0.012405356 0.14461103 -0.11880853 -0.291642 0.029442834 0.06630831 0.13197514
-0.043551415 -0.010451474 0.08377152 0.089858875 -0.03680059 -0.069752924 -0.09891012 0.0516533
-0.0045535415 0.098394856 0.13382205 0.14707653 0.07739557 0.030522075 0.1921193 0.028894827
-0.25449097 -0.45188272 0.017340425 -0.30235156 -0.08135818 0.16550416 0.07435252 -0.15696508
-0.26044732 -0.05705849 -0.100365914 -0.20423576 -0.12048834 0.029174918 -0.013910626 -0.13639897
0.27984935 0.1781058 -0.007030916 -0.20474698 -0.1397193 -0.15857469 -0.07359542 -0.31828308
-0.10061977 0.14176054 -0.119363345 0.03727107 0.4311081 0.11815387 -0.1694536 -0.12416003
-0.13297503 0.2628953 -0.1941675 0.258261 0.09622394 0.017733265 -0.25620344 -0.36337999
-0.08677688 0.14051816 0.20786196 0.1070306 0.030832313 0.036230184 -0.041735664 0.35712934
-0.16142961 0.020753004 -0.12546606 -0.028814184 -0.047491062 0.11485339 0.051083595 -0.036796186
0.12578514 -0.19428675 0.09736787 -0.111595795 -0.030791774 0.11956864 -0.06739985 0.10024192
-0.29914612 0.20054404 0.026865995 0.06767215 0.3086206 -0.236188 -0.055872556 -0.023730434
0.09474646 -0.28579733 0.21759136 -0.021160727 -0.16641623 -0.009942267 0.06636129 -0.051708225
0.14894684 -0.19342315 0.38278913 0.40635502 0.30301633 0.04541355 0.1363426 -0.0162007

weight f4 [4]
00000000: 633d 663f 4a3a 753f 8e39 603f a5cc 543f
0.8993742 0.9579207 0.8758782 0.8312476

bias f4 [4]
00000000: 3e39 b13e a4c7 2b3e f1ce c43e aa7a 2a3e
0.34613985 0.16775376 0.38439134 0.16648355

running_mean f4 [4]
00000000: 220e 7bbe c15b f0be 98a6 1cbd 1ff4 a53e
-0.2451711 -0.46945003 -0.038244814 0.32412812

running_var f4 [4]
00000000: 8999 213f e81c c73e be0f c93e d1cb a93e
0.631249 0.3888924 0.39269823 0.33163312

weight f4 [4, 2, 1, 1]
00000000: ebe1 08bf 7043 64be 012b 12bf 0982 bebd
00000010: 3360 b1be 74ab dc3e 4538 0d3f ac07 883d
-0.53469723 -0.2229135 -0.5709687 -0.09302146 -0.34643707 0.43099558 0.55163985 0.06642088

weight f4 [4]
00000000: 01a7 803f 6d81 1f3f 4a89 573f 1bc3 603f
1.0050966 0.62306863 0.8419386 0.8779771

bias f4 [4]
00000000: 3e39 b13e a4c7 2b3e f1ce c43e aa7a 2a3e
0.34613985 0.16775376 0.38439134 0.16648355

running_mean f4 [4]
00000000: 31a8 90bf df1d 81bf 4817 383d 9d88 713f
-1.1301328 -1.0087241 0.044944078 0.9434908

running_var f4 [4]
00000000: 8d67 a03e 0183 a13e 276a ad3e b88c 953e
0.31329003 0.3154526 0.3387005 0.29208922

weight f4 [4, 4, 3, 3]
00000000: 85e1 6a3e 42f8 253e 9ae7 123e 26b5 a4be
00000010: 6f50 95be 6f9e 91bd 14cf 993c 0286 46bd
00000020: a216 863d a0b8 e9bc 9a9f 20be af0f 0cbe
00000030: 5ffc 6bbd 6d92 ddbc b8a0 39be da8a d03d
00000040: 6240 db3d d548 62bd 0dfc 4a3d 4aca c4bb
00000050: 3978 47bc ac17 abbd 37de 57be f4dc 87be
00000060: 9305 aabd 275c 1ebd 0614 fb3d ac3a d43d
00000070: c37a 5f3c 95a6 99bd 13c0 ba3e bae1 033d
00000080: fa99 663e b217 f13d 8c1e 113e ab55 b3bd
00000090: 9816 363e 8187 a1bd bc57 29be 1940 84bb
000000a0: 986c 3ebc cdca 26be d107 f3bd 9275 25be
000000b0: 5de6 14bd 9718 c6bd 1502 f93d a4fa b43c
000000c0: ac51 a8bd f18c 94bd b90e a03e 2a3f 55be
000000d0: a108 44be 99dd 133e 946a 313e 69c0 093d
000000e0: 44db f3bd 1b19 40bd a398 fdbd 5f49 dcbd
000000f0: a558 023d a528 97be fbad 89be cdb9 8c3c
00000100: 36d0 23be 3467 18be f0a9 9bbc e5ed 13bf
00000110: c095 acbe f18e 1d3e f452 3fbe 9c31 11be
00000120: 67cb d7bd 3752 333d 0557 423d 0b5d 9ebe
00000130: dae0 c03e f727 2c3d 41bb 39bd 36ae 6c3e
00000140: 687a 113c 0584 02be 0ecf 193e 55fd 7e3e
00000150: 2277 1fbe e4fd 123d c213 573c 48c4 6c3d
00000160: 3082 16be 5607 34be df29 a8bd 1b96 c2bd
00000170: 82e5 4f3e 9e7f 5fbe 81f3 70bb 29ea 273e
00000180: 0b9b 923a 7dbe 8b3d 9c95 c0bd 3877 d7bd
00000190: 9e3e 223e 1e1e f13d 4a70 883e fe41 713e
000001a0: ee68 d13d 0090 eebb c53c 7f3d ba9a 29be
000001b0: d519 18be d746 62be 03b0 a3bd 9bbc d53d
000001c0: b7ff 2fbe a773 ea3d d5f4 033e 1f42 463e
000001d0: f8d1 083f a9d8 b1bd 70db 6e3e 2fb2 25be
000001e0: 11bf 6abd aa22 dd3c a012 b63d c744 6bbd
000001f0: edc2 5abe cc3b 983e ddad a5bd 6d58 2abe
00000200: a2b2 803e f688 36bc 1997 3dbc fd46 65be
00000210: a768 293d 982e 823e 8067 3e3c 3a62 e1bc
00000220: e44a c5bd 80fc 2bbe 7bbf a8bc 9f71 febc
00000230: 6018 dcbd 1aa1 e63d c66c 453e 7925 143e
0.22937591 0.16207984 0.14346161 -0.32169455 -0.29162928 -0.07110297 0.0187755 -0.048467644
0.065472856 -0.028530419 -0.15685883 -0.13677858 -0.057613727 -0.02704736 -0.18127716 0.10182734
0.107056394 -0.05524524 0.04955678 -0.00600556 -0.012174659 -0.083541244 -0.21080862 -0.2653576
-0.083018444 -0.038662102 0.122596785 0.10362753 0.0136401085 -0.07502476 0.36474666 0.03219769
0.22519675 0.11772098 0.14171809 -0.08756574 0.17782056 -0.078871734 -0.16537374 -0.0040359613
-0.01162257 -0.162883 -0.11866725 -0.16158131 -0.036352504 -0.09672659 0.121586 0.022092171
-0.08218703 -0.07253445 0.31261232 -0.20824876 -0.19143917 0.14440002 0.17325813 0.033630762
-0.11907056 -0.046898942 -0.12382629 -0.10756182 0.03182282 -0.29523197 -0.2689055 0.01717844
-0.15997395 -0.14883119 -0.019001931 -0.57784873 -0.33708 0.15386559 -0.18683988 -0.1417908
-0.10536843 0.043779578 0.04744627 -0.3093036 0.37671548 0.0420303 -0.045344595 0.23113331
0.008879282 -0.12745674 0.15020391 0.24901326 -0.1557279 0.03588666 0.013127269 0.057804376
-0.146981 -0.17580923 -0.08211111 -0.095012866 0.20302394 -0.21826026 -0.0036766233 0.16397919
0.0011185122 0.06823442 -0.09403536 -0.10520786 0.15844199 0.117733225 0.2664817 0.2356033
0.10225092 -0.0072803497 0.062313814 -0.1656293 -0.14853604 -0.22097336 -0.07992556 0.10436364
-0.17187391 0.1144784 0.12886365 0.1936116 0.53445387 -0.08683903 0.23325896 -0.16181253
-0.05731112 0.026994068 0.08890271 -0.057438638 -0.21363421 0.2973312 -0.080898024 -0.16635294
0.25136286 -0.0111410525 -0.011571669 -0.22390361 0.04135957 0.25426173 0.011621356 -0.027512658
-0.09633425 -0.1679554 -0.020599118 -0.031060038 -0.10746837 0.112611964 0.19279775 0.1446742

weight f4 [4]
00000000: c4d6 853f a4ad 863f f86a 7c3f 364b 683f
1.0456166 1.0521741 0.9860072 0.9073976

bias f4 [4]
00000000: 9d95 2c3d c76f fa3d 148b 233e f9b9 173e
0.04213487 0.12228351 0.15971023 0.14817037

running_mean f4 [4]
00000000: 2018 d1be a5d7 fdbf 5c8f 2e3f c30e f13e
-0.40838718 -1.9831434 0.681875 0.47081575

running_var f4 [4]
00000000: c7ed b83f c0c4 ca3f 2ce4 9b3f 6446 883f
1.4447564 1.5841293 1.2179008 1.0646482

weight f4 [4, 4, 3, 3]
00000000: c3dc 2abe b39f 0ebe 35cd 7cbd 97e0 843c
00000010: 36c5 053e 4ccc 933d 988c f6bd 7ba5 123e
00000020: b761 1e3d 4925 0c3e 8de1 853d fca9 fd3e
00000030: 1a6a 043e 99de 593e 995c 773e 02be 36bd
00000040: e2e9 0abc 6a9f 913d fd13 233d fe26 51be
00000050: ac7a abbd 6d1b d63d 1440 b8bd 0e55 6fbc
00000060: 9174 b1bc d3da 673d 95e7 bf3d 8fa8 f1bd
00000070: 1e58 bd3d e9a6 b03c 10b5 25bd 1839 ce3d
00000080: 16e7 473e e5f3 80bd bbef 463c 9d82 a13c
00000090: 9c97 293d 495e e1bd ba37 49be f9df 843d
000000a0: 92cb 29bd b69f dfbd 9913 bb3d 43b3 213e
000000b0: c30b 28bd 6658 a83c 8e0a 48be fc82 82be
000000c0: 94c1 673d a4bb 083e c5f1 533e 14d1 9c3e
000000d0: 1bc8 5c3e ac5a 6a3e b3c9 6d3d 67f3 8b3e
000000e0: 6d3c dd3d 43ba b83d 4544 a83d 300c 8abb
000000f0: 0d2a 55be 55b1 a7be 2d8a 95be 3cb8 81be
00000100: 9d08 663d 0a57 d73d 0eae 57be 3ca6 bdbd
00000110: dbb5 b8bd f877 30bd e067 e9bd fc5d 2f3d
00000120: 6336 f93d 20bc a13d a818 993d abcb 453e
00000130: 4cc8 51bd 124d af3d 20d0 72be ea5f 7dbe
00000140: 49a1 2abe 2545 813d 4aac be3d 8267 113e
00000150: 0615 8d3d a113 2fbe 7d58 8ebe 1337 9dbd
00000160: 6a88 4d3d 93c2 bc3d 3923 64be d4bb a1be
00000170: 9d59 75be c6a6 a9bd 405a 03be 6662 b9bd
00000180: e72f 313c 7e64 3f3e a1db 903d 4e07 cdbd
00000190: 161d 33be 6fd6 9a3d 4ac5 443e b70e ad3e
000001a0: d38e 3f3e 72e1 02be baa2 5b3e 25fd 3d3e
000001b0: eac9 c1bd feb8 4cbd 55e1 33bd 2be1 afbe
000001c0: 8cf5 0eba 28cd b4be c4a1 f4bd 7f69 5bbe
000001d0: 23a4 32be 0fb9 c83d bf99 ce3d 9fe4 2ebd
000001e0: 0285 ff3d 54c5 f83c 55ba 33be a171 e4bd
000001f0: 03d2 babd 6d0f 133e f024 103e 6167 103e
00000200: 0ede 7f3e 2cc8 c23d 2565 9b3e 33a7 9abd
00000210: ad4c 86bd 820b 843d 50e7 0d3e 0e72 493d
00000220: 9864 abbc 3716 b03d 06cc 463e db9f ac3d
00000230: 0ed4 19bd a160 ee3d 8319 d33d 0cf1 123d
-0.16685776 -0.13928108 -0.06171914 0.016220374 0.13063511 0.07216701 -0.12038535 0.14320938
0.038667407 0.13686098 0.06537161 0.4954375 0.129311 0.2127632 0.24156417 -0.0446148
-0.008478614 0.07110484 0.039813984 -0.2042503 -0.08373007 0.1045445 -0.08996597 -0.014607681
-0.021662029 0.05660517 0.09370343 -0.11799728 0.09245323 0.021563964 -0.040455878 0.100694835
0.19521746 -0.06296519 0.012142117 0.019715602 0.04140435 -0.110043116 -0.19650164 0.06488032
-0.041453905 -0.10919134 0.09134597 0.15791039 -0.04102684 0.020549964 -0.19535276 -0.25490558
0.056581095 0.13352829 0.20697697 0.30628264 0.21560709 0.22886151 0.058053683 0.2733414
0.10802541 0.090199016 0.082161464 -0.0042128786 -0.20816822 -0.3275248 -0.29206982 -0.25335872
0.056160558 0.10514648 -0.2106249 -0.09260222 -0.09019061 -0.04308316 -0.11396766 0.04281424
0.121685766 0.0789721 0.07475406 0.19315974 -0.05121641 0.08559622 -0.23712206 -0.2474362
-0.16663088 0.063120164 0.09310205 0.14199641 0.068887755 -0.17097332 -0.27801886 -0.0767652
0.050178923 0.092167996 -0.22279061 -0.31588614 -0.23959966 -0.08283763 -0.12827396 -0.09051971
0.010814643 0.18690678 0.07073141 -0.10011159 -0.17491564 0.07560431 0.19215885 0.3380029
0.18706827 -0.12781313 0.21448794 0.18553598 -0.0946234 -0.04998111 -0.043916065 -0.34351477
-0.00054534595 -0.35312772 -0.11944917 -0.21426962 -0.17445426 0.09800922 0.100879185 -0.0426985
0.12476541 0.03036753 -0.17551549 -0.111544855 -0.09122088 0.14361353 0.1407659 0.14101936
0.24987051 0.09510836 0.30350605 -0.07551422 -0.065575935 0.064475074 0.1385777 0.049181037
-0.02092199 0.08597987 0.19413766 0.084289275 -0.037555747 0.11639524 0.103076 0.03587441

weight f4 [4]
00000000: 9d03 823f 4e79 ac3f 2412 7e3f cf5a 9f3f
1.0157353 1.3474519 0.9924643 1.2449588

bias f4 [4]
00000000: f808 d23d 5ccf 2f3e 5958 a43e 4e9d 593d
0.10255617 0.17168945 0.32098654 0.053128533

running_mean f4 [4]
00000000: 1775 123f 8d2b 79bd c0bc 0abe ee68 013e
0.57209915 -0.06083255 -0.13548565 0.12637684

running_var f4 [4]
00000000: bd31 da3e 8ef1 113f 6152 0e3f 837e dc3e
0.42616072 0.5700921 0.5559445 0.4306527

weight f4 [8, 4, 3, 3]
00000000: 231b 8c3c d0c0 bdbd b8fe 13be 8597 77be
00000010: c0fa 3fbe 3bfa 92bd d1d6 aebd 2713 0cbe
00000020: 2312 11be 379a 053e eb63 97bd a0e5 9bbd
00000030: 7117 8bbd 2ffd 9f3d 1d4f 113d 7b70 c8bd
00000040: 049e bdbd f2ff afbd 1daf e83c fa9a 023e
00000050: 1930 aebd 7feb 023d bdac 2a3e 85a3 983d
00000060: 441b 403e 135b 6c3d c7ca 403e 0633 053c
00000070: e4bb f13d c1b1 aebd 790d 0cbe 0c8e 5ebe
00000080: a6b7 cfbc 8084 c83c 3928 ddbd 4c7c fdbd
00000090: f141 713c f307 913c 98a0 9a3b 1253 003e
000000a0: c2c4 073e c40d 9bbd 0855 143d 5ac6 ba3d
000000b0: b7bc a93d 2507 99bd 2f89 30bd 2e0c a73d
000000c0: 522e 2bbe 7bff 8f3c f45e e53c ed92 1dbe
000000d0: 28a6 dbbc ef32 293d 85f6 593e fdaf 973e
000000e0: 1ff6 aa3d 2a4e 693e c91e 783e f8f0 513e
000000f0: b1fa 473d 0fe1 523e 361f 1a3e 123e 5d3d
00000100: 5444 21bd e7d4 583d fd4e 88bd 2104 d7bd
00000110: 85a8 e7bd adfb 20be 68c7 03be fc1e 3fbe
00000120: 2e4c 8a3c e6e2 a0bd 14d9 b4bd 8b4c 93bd
00000130: fc8c 01be c0cd 0bbe 3311 8abd 991a 2abe
00000140: 962c 0dbe 2172 553d b144 ec3c efe0 453c
00000150: d5ce af3d 1510 85bd acf6 0dbe e984 f3bd
00000160: 54e6 12bd e710 e03c 65b9 d6bc 8701 243e
00000170: 8890 243e 0651 723d ae86 19bd 91d2 3e3e
00000180: 844a f53c e3cb f13d d98a 553d 1a5a ccbc
00000190: 4372 96bc afa7 95bc f84b 1f3e e0c3 a7bd
000001a0: 3b6e 973d 802b 853e a7b8 933e a3b9 083e
000001b0: 3fda 3b3d 109b 1d3d 0eb5 1d3d c15b dcbd
000001c0: a6dd 58be 10e7 e3bd 2e1d 4fbe f2e2 8fbe
000001d0: f278 eebd c199 313e 2316 8e3e 7bdd 523e
000001e0: 471a 3c3e 92e0 31bd a58c 113e b0ab 173e
000001f0: 1abe fd3d 21bf f93d 4da4 1a3e 0725 c33d
00000200: eae6 adbc 3ee3 73bd 2300 4cbd 3bfb c53c
00000210: 731c 6ebd bb0c 213d 04d8 a83c 573a 6a3e
00000220: 90b9 753e 3f87 e73d cbc0 24bd f498 8ebd
00000230: 924e 28be be22 70be 021b 81be d7da dabd
00000240: 0d70 eebc 2b6e 42bd 2d92 4fbe da48 133e
00000250: 69de ca3d c8c9 22bd 7013 b83d 40c7 963e
00000260: e565 553e d704 60bd 2a75 aebd 9ff3 dcbc
00000270: f50e 14be 7269 743d 5856 8dbd 0420 48be
00000280: efa8 6fbd abb1 6c3d 3f09 92bd 63c7 81bd
00000290: 836e 9dbc 354d 13bd a6f4 5cbd b320 c2bc
000002a0: 31cd 24be ba9b 83be cff0 1ebe 4d4f 273c
000002b0: 6bf7 88bd de39 debd 59d4 c7bd 0c46 c83d
000002c0: 76c9 59bd 5e6a 6bbd 4797 693d 86f4 76bd
000002d0: e32d 043e 9b0e 513e 64de 453e 026f 163e
000002e0: b0b8 5d3e 5e9f 133e d22f 91bc dcf3 993d
000002f0: a81b be3d d6d7 d2bd 326b ce3d 8b36 043d
00000300: 6546 8b3d 62a9 3a3e 152d 313e 0e10 383d
00000310: aa81 273d 497e 4f3e eb92 de3c 232c 6e3d
00000320: 08ec c5bc 8ca2 633c 906a 123e 1c27 793d
00000330: 3df3 b73c fc99 1d3e c1f9 413e a6f5 843b
00000340: 972a e13c 4519 d8bd 8391 fe3d 3d13 babc
00000350: d694 4dbc de55 573e 0b31 093e 9600 b53d
00000360: 627d ca3c 84ad e0bd 50e9 d8bd e58a 6e3c
00000370: 9e02 1cbe 867f f0bd f922 c63d c7fc 65bc
00000380: fd69 0ebe e2c0 97bc 8a50 cbbd ef84 a6bc
00000390: 5054 e5bd 5b5a 0dbe 3e74 45be 8813 78bd
000003a0: 6155 41be 423b dcbd cfdc c2bd ce32 22be
000003b0: 42e1 bfbc d139 42be 3bc0 31be 804b 59be
000003c0: 3acb 8bbd 14fd 7cbe 0772 22be 86b5 a63d
000003d0: fe72 973d 1d36 153d 9bab 0a3d ae0f 4f3e
000003e0: fcac 6fbd 3ea0 923d 8cbe eabb 897a 283d
000003f0: bdfd 403c 647a d73d 1258 eebc b02b 9d3d
0.017102784 -0.09265292 -0.14452636 -0.24178894 -0.18747997 -0.07176634 -0.08537067 -0.13679181
-0.14167075 0.1304711 -0.07392105 -0.07612157 -0.067915805 0.07811963 0.03547584 -0.09787079
-0.09258655 -0.085937396 0.028403813 0.12754431 -0.08505268 0.031962868 0.16667457 0.07453064
0.18760401 0.057704043 0.18827353 0.008129841 0.118034154 -0.085299976 -0.13677014 -0.21733874
-0.025356125 0.024477243 -0.107986875 -0.12377223 0.014725194 0.017703986 0.0047188513 0.12531689
0.13258651 -0.07570985 0.036213905 0.09119864 0.082879476 -0.07472066 -0.04309958 0.0815662
-0.16716889 0.017577877 0.027999379 -0.15388079 -0.026812628 0.04130834 0.21285446 0.29626456
0.08347725 0.22783723 0.24230494 0.20502079 0.048823062 0.20593666 0.15050969 0.054014273
-0.039371803 0.052937414 -0.06655691 -0.104988344 -0.113114394 -0.15721007 -0.12869036 -0.18664163
0.016882028 -0.078557774 -0.08830467 -0.07192334 -0.12651438 -0.13652706 -0.06741562 -0.16611709
-0.1378654 0.052110795 0.028841348 0.012077554 0.08584372 -0.06497208 -0.13863629 -0.11890585
-0.03586419 0.02735181 -0.02621145 0.16016208 0.1607076 0.0591593 -0.037481956 0.18635012
0.029942758 0.118064664 0.05213437 -0.024945308 -0.018365031 -0.018268434 0.15556324 -0.08191657
0.07394072 0.2600975 0.28851816 0.13352065 0.045862433 0.038477957 0.038502745 -0.10759688
-0.21178302 -0.11128056 -0.20225975 -0.28102833 -0.11644162 0.17343809 0.27751264 0.205923
0.18369399 -0.043427058 0.14213808 0.14811587 0.123897746 0.12194658 0.15101738 0.09528547
-0.021228272 -0.059542887 -0.049804818 0.024167648 -0.0581326 0.03931878 0.020610817 0.22873817
0.23996568 0.11305093 -0.040222924 -0.06962767 -0.16436222 -0.23450753 -0.25215918 -0.10686272
-0.029106164 -0.047468346 -0.20270605 0.1438326 0.099057026 -0.039743215 0.089880824 0.2944889
0.20839651 -0.054692116 -0.08518441 -0.026971636 -0.1445883 0.059670873 -0.069012344 -0.19543463
-0.058510717 0.057786625 -0.0713067 -0.06336858 -0.019217735 -0.035962302 -0.053944252 -0.023697233
-0.160939 -0.25704747 -0.15521549 0.010211778 -0.06687816 -0.10850881 -0.09757299 0.097789854
-0.053170644 -0.057474487 0.057029035 -0.06029179 0.1290813 0.20415728 0.19323117 0.14690784
0.21652484 0.14416263 -0.017722998 0.075172156 0.09282619 -0.10295074 0.1007904 0.03227858
0.06800536 0.18228677 0.17302354 0.044937186 0.04089514 0.20263018 0.027169665 0.05814756
-0.0241604 0.013893735 0.14298463 0.060828313 0.022454852 0.15390772 0.1894293 0.004057604
0.027486129 -0.10551695 0.12430098 -0.022714252 -0.012547692 0.2102885 0.13397615 0.088380024
0.02471799 -0.109705955 -0.10591376 0.014559482 -0.15235373 -0.11743073 0.09674639 -0.014037318
-0.13907619 -0.01852459 -0.09927471 -0.02032706 -0.11197722 -0.13803999 -0.19282624 -0.0605655
-0.18880226 -0.1075349 -0.09514772 -0.15839693 -0.023422841 -0.18967368 -0.17358486 -0.21220207
-0.06825872 -0.24705917 -0.1586381 0.081400916 0.0739498 0.03642856 0.033855062 0.20220825
-0.05851458 0.0715947 -0.0071638282 0.041132484 0.011779246 0.10521391 -0.02909473 0.07674348

weight f4 [8]
00000000: 5637 593f fc86 8a3f 77c2 6d3f 69f9 6e3f
00000010: 112d 7b3f 48e2 823f c5d5 873f 39e8 7e3f
0.8485006 1.0822444 0.92874855 0.9334932 0.9811564 1.0225306 1.0612112 0.99573094

bias f4 [8]
00000000: 91ad 6e3e 9e2b 163e c214 1c3e aa0f c23e
00000010: 990f b2bd 0c0e 4ebc 4309 b73d 7758 653e
0.23308398 0.14665076 0.15242293 0.37902576 -0.08694381 -0.012576591 0.089373134 0.22397028

running_mean f4 [8]
00000000: 2a19 89bf 20f1 d13f 120e 773e 9941 5bbe
00000010: f3b1 6abf 509b 5340 4ae8 2ec0 282c 123f
-1.0710804 1.640171 0.24126461 -0.21411742 -0.9167778 3.3063545 -2.7329278 0.5709863

running_var f4 [8]
00000000: 6950 783f 7376 e33f a839 b83f 78a5 df3f
00000010: 8a58 633f 5bbe 9c3f 9fa9 0a40 14e6 4340
0.96997696 1.7770523 1.4392595 1.7472372 0.88806975 1.2245592 2.1666028 3.0609179

weight f4 [8, 8, 3, 3]
00000000: be74 6ebd c31e dfbd 6b76 c9bd 581f 203e
00000010: b637 273d b2cb 053d f8a8 0fbc 22be 39bd
00000020: d3a9 d2bc 4bfe a43c ff38 96bd f9d6 f4bd
00000030: c421 143e f27a 503e d25b f13d f571 f03d
00000040: 3445 6c3e 5586 6b3e 05bb 71bd dadf d43c
00000050: 6995 0bbd 8694 033d 5796 9a3d 7efb fc3b
00000060: 5956 873d a7ea 0d3e 4e20 04bc 338b 47bd
00000070: c436 05bd 9af8 433c 535c 093e 6581 4e3e
00000080: 8c64 363d 7acd 04bd 98f7 c63d d6a1 a5bd
00000090: 687c 0b3d 380e 6f3d ec1d bd3d 1d4d 9cbd
000000a0: 9328 d0bd 7b26 18be 41b4 e6bd 4af5 4c3d
000000b0: 2aa4 b03c ccf2 2fbc 0336 8cbb 4038 9a3d
000000c0: 4329 c13c 8738 0d3e 4da3 9e3d eada b03b
000000d0: f518 4b3d e005 be3d 20af 02be 65a0 f2bc
000000e0: bedb 7abd 3bac aa3d 65f1 adbd 4247 52bc
000000f0: e41a ecbd b448 fbba e4d9 d4bc e1d0 3e3d
00000100: 9492 353d e587 8c3b c85c 5e3d f018 963c
00000110: 1248 ccbd b47c 6cbd 9c92 043e cfde dfbd
00000120: 844e 183c 8b0b babd 56db d9bd 14fb bfbc
00000130: 3426 dbbd 25c6 133d 8dd3 133d c96b 6abd
00000140: 04b4 a8bc 4d6c af3d 19da 623d 11b3 603d
00000150: 8c7c ae3d db8c adbd 5d0a ad3d 147d c3bb
00000160: 5558 f53d 936f fc3d 0664 c9bd ce18 87bd
00000170: 1a5f 82bc 321b b2bd 981a 19bd 33a6 eb3b
00000180: 5f76 2dbe 52a3 4fbe 51bd bbbd e82e cbbd
00000190: c59e 233e 16e8 41be fa1e 45bd b02a 4f3d
000001a0: ff53 be3c 2dca f3bc 9361 19bd 4540 74bd
000001b0: 78b7 9c3d e3c1 093e f492 e7bd 96a1 fa3d
000001c0: 396e 9a3e 454c 7d3d 8c6c 0fbe 5fca b03c
000001d0: 801a 173c 34c6 b83c ab2f e23a 6b1c c4bb
000001e0: 0a1e 1dbe 574e d1bd aa92 e9bd e78a 8b3c
000001f0: bb9c 633d ee7f 15bd 1feb 34be 8e14 3c3d
00000200: 1494 d9bb 734c 7d3d a84f b83d 589f 23bd
00000210: db0a 303d 14c2 f13d 4ad0 b9bd bc75 643a
00000220: c452 323e 6848 01bd 5d43 4d3a 1078 663e
00000230: 71ea e03c 19aa 143e 25af 8c3d e702 533d
00000240: 5389 feba 31a2 c2bd 9da8 6dbe b602 49bc
00000250: edbb bebc 2d13 febd cce0 3dbe 8663 edbd
00000260: 53cb 30bd 598b f53d 7092 40bd 08d3 10be
00000270: 4e9d 7bbc d2c1 12be 6f74 79be 40f6 c33d
00000280: 9173 383d fb61 34be 2fb2 2cbe 4cd3 91bd
00000290: 71e7 35bc 3f13 38bd a617 ed3c 7849 d83d
000002a0: be9e 37be f74f 3b3d d669 0f3e a215 00bd
000002b0: 33f5 4d3e 21fa cfbd 7788 89bc 01a2 f03c
000002c0: 2cbd ce3c 0a59 2ebd 32fc 6bbd ef33 123d
000002d0: 78a2 3aba 99b7 c33d 5422 373d 8404 eb3d
000002e0: 58ce 233d 1189 c2bd 1e71 8abd e1eb 523d
000002f0: 72d4 2ebe 32da 31bc fbaa 9d3d c033 dbbd
00000300: b35a 95bd 64fe a73d 1fd2 0d3e 57cb 2b3e
00000310: 1e82 aa3d 9a75 383e 107f 24bd 1b69 51be
00000320: cf7c a7bd ffc3 adbd 2fe1 b1bd c904 dcbb
00000330: 66e2 01bb 64c3 0fbd 3147 383e 5f9e 4fbd
00000340: 9015 5d3d a590 31be 65f9 5abe 7fa1 693e
00000350: b702 c63d 1a23 b7bd 0e21 363e 8d70 3abd
00000360: a6af 14bd eb47 3a3d 90d6 033e f5be cabd
00000370: a541 f73c 8ade a83d 73a3 1fbd 8666 cdbd
00000380: 1a88 3ebc 3b24 4dbe 0a40 0fbc 1ae9 70bd
00000390: 8077 99bd 6aba eb3d a269 16bd 3aac 9f3d
000003a0: 4dc1 753e 7713 cc3d 20b7 d23d 9a60 2f3e
000003b0: 28ce c2bd d8fc 9abd 9885 3d3d add4 babd
000003c0: 9cae 07bd 5677 87bd f005 bfbd 83b6 b3bd
000003d0: bddb 21bc 31f6 df3d 3e53 adbd f2a2 1cbe
000003e0: 2d44 4abd 9513 233e 12e3 8dbd a3cf e33c
000003f0: aee3 8f3c 028e 06be 6695 c63d e1d5 0bbe
-0.058216803 -0.10894539 -0.098370396 0.15636957 0.040824614 0.032664962 -0.008768313 -0.04534734
-0.025715744 0.020140788 -0.0733509 -0.11955065 0.14466006 0.203594 0.117850915 0.117404856
0.23073274 0.23000462 -0.059016246 0.025985647 -0.034078036 0.032124065 0.07548206 0.00772041
0.066082664 0.13859044 -0.008064343 -0.048716735 -0.03252293 0.011961127 0.13414125 0.20166548
0.044529483 -0.03242252 0.097151935 -0.080875084 0.03405419 0.05836317 0.09234223 -0.07631896
-0.10163989 -0.14858429 -0.112648495 0.050038613 0.021562655 -0.01073904 -0.0042788996 0.0753026
0.023579245 0.13791095 0.07745991 0.0053971903 0.049584348 0.09278464 -0.12762117 -0.029617498
-0.06124472 0.083336316 -0.08493308 -0.012834372 -0.115285665 -0.0019171447 -0.025982805 0.04658592
0.04432924 0.004288661 0.0542877 0.018322438 -0.09974684 -0.057736114 0.12946552 -0.10931169
0.009296063 -0.09084233 -0.10637538 -0.023435153 -0.10700646 0.036077637 0.036090422 -0.0572317
-0.02059365 0.085655786 0.055383775 0.05485827 0.08519849 -0.08474132 0.08449242 -0.005965838
0.119797386 0.123259686 -0.09833531 -0.06596528 -0.015914489 -0.08696593 -0.037378877 0.0071914434
-0.16939686 -0.20277146 -0.091669686 -0.09921056 0.15978535 -0.1893619 -0.048125245 0.05057782
0.023233412 -0.02975949 -0.03744657 -0.059631605 0.076521814 0.13452868 -0.11307326 0.12237851
0.30162218 0.061840314 -0.14006251 0.021580873 0.009222627 0.022555448 0.0017256638 -0.005984833
-0.1534349 -0.1022002 -0.11404927 0.017034007 0.05556939 -0.036498956 -0.17667817 0.04591804
-0.0066399667 0.061840486 0.08999568 -0.039946884 0.042979103 0.118045956 -0.09072931 0.00087150536
0.17414385 -0.031563193 0.00078301673 0.22506738 0.02745554 0.14518012 0.06869344 0.05151644
-0.0019419588 -0.09503592 -0.23208852 -0.012268713 -0.02328297 -0.12406001 -0.18542784 -0.11591248
-0.043162655 0.11989469 -0.047014654 -0.14143002 -0.015357329 -0.14331749 -0.24360822 0.09568453
0.045032088 -0.17615502 -0.16864847 -0.0712038 -0.011102543 -0.04494023 0.02894194 0.10560888
-0.17931649 0.045730557 0.14005217 -0.03127063 0.20113067 -0.1015513 -0.016788704 0.029374124
0.025236689 -0.042565383 -0.05761356 0.03569406 -0.00071195466 0.09556503 0.044710472 0.11475471
0.039991707 -0.094987996 -0.06759857 0.051494483 -0.17073229 -0.0108552445 0.076986276 -0.1070323
-0.0729269 0.08202818 0.13849686 0.16776787 0.08325599 0.18013611 -0.04016024 -0.20450251
-0.08178102 -0.08484649 -0.086855285 -0.0067144376 -0.0019818782 -0.03509845 0.17995907 -0.050688144
0.05397564 -0.17340334 -0.21384199 0.22815512 0.096684866 -0.08942242 0.17786047 -0.045517493
-0.036300324 0.045478743 0.12874818 -0.098997034 0.030182669 0.08245571 -0.038974237 -0.100293204
-0.011629129 -0.20033352 -0.008743295 -0.058816053 -0.07493496 0.11510165 -0.036721833 0.077965215
0.2399952 0.0996465 0.102888346 0.17126694 -0.095119774 -0.07567757 0.046269983 -0.09122596
-0.033125505 -0.066145584 -0.09327304 -0.08775046 -0.00987905 0.10935629 -0.08463143 -0.15296534
-0.049381424 0.15925439 -0.06928076 0.02780897 0.01756462 -0.13140109 0.09696464 -0.13655807

weight f4 [8]
00000000: 921b 8d3f 0065 7f3f b3a9 8c3f 8ba5 8f3f
00000010: c83c 8b3f 0bfa 813f b4e6 893f 6cd0 8a3f
1.1024039 0.9976349 1.0989288 1.1222395 1.0877924 1.0154432 1.077353 1.0844855

bias f4 [8]
00000000: a0ad 4f3e 5b89 0a3d 3d27 ac3d f1bc 3e3e
00000010: 8a76 da3d deed ff3d a7fd 593e bdd0 1a3e
0.20281076 0.0338224 0.084059216 0.18626763 0.10667141 0.124965414 0.21288167 0.1511869

running_mean f4 [8]
00000000: a452 183f 81cd 5c3d 6dc6 0abf ea08 2abf
00000010: cd45 05be 4433 80bc ae1d a83e 2a73 25bf
0.595011 0.05390692 -0.54209024 -0.6641985 -0.13014908 -0.015649445 0.32835144 -0.6462885

running_var f4 [8]
00000000: c08e 013f 7b00 993e 184a c73e 6fc4 d03e
00000010: f86b 8a3e 0264 cd3e 4764 1b3f 2d22 9d3e
0.50608444 0.2988318 0.38923717 0.40774867 0.270355 0.40115362 0.60699886 0.30690137

weight f4 [8, 4, 1, 1]
00000000: 1adc e6ba 7a67 c13e 78bf dd3e 6259 ba3d
00000010: 8bb1 2c3d fd4a d1bd 50ac 93be 5647 d1be
00000020: e652 e53d e4e6 a73e ce29 28be d832 efbe
00000030: 2575 76be 9f6e fbbe 7b23 5ebd 0ad7 b53e
00000040: 9cd1 ed3c b8de c8bd 9d43 1b3e 732f bc3e
00000050: b8e8 c33d 8e3c de3e f00a 8abe d5c4 0a3d
00000060: 6fa4 a5bd 0248 043f 672b 3d3e 0784 bb3d
00000070: 7b4e 19bd 2e99 e7be 39b9 ef3e 3eac 553e
-0.0017613203 0.3777426 0.43310142 0.0909908 0.042161506 -0.10219381 -0.28842402 -0.40874738
0.11197452 0.32793343 -0.16422197 -0.46718478 -0.24068125 -0.49107835 -0.054233056 0.35515624
0.029030614 -0.09808105 0.15162511 0.3675495 0.09565872 0.43405575 -0.2696147 0.03387912
-0.08088004 0.51672375 0.18473588 0.091560416 -0.03742836 -0.45234054 0.46821 0.20866486

weight f4 [8]
00000000: 3bfe 4c3f e90d 633f c77a 793f 3236 293f
00000010: e029 4b3f a590 383f 737e 593f e2d9 473f
0.80075425 0.886931 0.9745297 0.6609832 0.7936077 0.7209571 0.8495857 0.7806684

bias f4 [8]
00000000: a0ad 4f3e 5b89 0a3d 3d27 ac3d f1bc 3e3e
00000010: 8a76 da3d deed ff3d a7fd 593e bdd0 1a3e
0.20281076 0.0338224 0.084059216 0.18626763 0.10667141 0.124965414 0.21288167 0.1511869

running_mean f4 [8]
00000000: d5f9 943f 797e 65bf 0606 4ebe eb58 13bf
00000010: daca 033f 559c 613e 4d78 583f 7cc5 b93e
1.1638743 -0.89646107 -0.20119485 -0.57557553 0.514814 0.22032292 0.84558564 0.3628348

running_var f4 [8]
00000000: 0fa6 373f fd04 ea3e ebec 693f aa1e 943f
00000010: a7a7 ae3e 1ba5 d73e e280 093f 2a5f 673f
0.7173776 0.4570693 0.91377133 1.1571858 0.34112284 0.42118153 0.53712285 0.90379584

weight f4 [8, 8, 3, 3]
00000000: d9c1 4d3d 51ac 903c 6886 303e 1ae4 363e
00000010: 7a9c 4b3e a038 ec3c 0447 82bd a043 353d
00000020: e0ec 903c 0e30 01be 4435 1b3e eeb3 873d
00000030: 84fb 8e3d f898 6a3c ad68 083e 6710 6ebd
00000040: d907 1bbb 4cbc 023e 9121 08be 6f39 42bd
00000050: 9fac 2cbd aa71 10bd 9626 803d 7112 863d
00000060: 3ccd 8fbd 14b6 063e ec5b 3c3b ca9b e83d
00000070: 0c98 eebc 88da bf3d 4c28 f63d 374e febc
00000080: fa76 a23d b51b 87bd 0169 18be 3627 2f3d
00000090: bfdc 68bd 7dc7 babd 9c8e 093e 4794 50bd
000000a0: dc1c 33be 94df ad3d 7aa3 1cbe 76ea 2dbe
000000b0: adc4 483c 2b5f 263d d623 73bd f162 f13c
000000c0: da4e 473e 0f6b c73d bccf 2a3e 58b8 ad3d
000000d0: 6654 f23d 2e1a 0b3e 3c87 f53d 6db2 053d
000000e0: 9398 54bd 3803 e33d 6117 843d 47e1 b23d
000000f0: a3a4 57bd 509a 1fbe 1891 b7bd ae3b 0bbe
00000100: 3ae6 053c eb02 853a a339 1d3b a48f 16bd
00000110: cdcc e7bd 1b8a 663c 63ab a4bc c565 3bbe
00000120: 1a84 863d 50a7 373d 67bb 273e fcfd 043d
00000130: b728 2ebe 91b8 d2bd dec0 63bd cd04 13be
00000140: 6472 17be e93c 1fbe 23a0 8e3c 77ba d83d
00000150: a28d 55be 57d1 a43d e2b7 6b3d 763a c23c
00000160: 962d 0dbd ad53 e0bb 51d1 19be cc58 343e
00000170: 59ba 0a3e 6958 f83c cce8 b63e 6af8 ff3d
00000180: acbd 60bd 247a 1abd 6c47 d1bd d16e 0abe
00000190: 650f dabd 7ba4 ccbd 72f4 1cbd dba9 bdbd
000001a0: dca6 00be e184 4e3d 2de3 c9bd db04 29bc
000001b0: 7282 cbbd e643 15bc 8b07 f6bd d84f b53c
000001c0: cfa6 b53d 7ed2 a8bd fa58 93bc 3c10 2e3e
000001d0: 28c2 a73d 9be6 34bd 2e9c a73c d056 f6bd
000001e0: b2a8 80bd 7f22 55bd 45d3 f8bd 8a49 ff3c
000001f0: 5643 013e ac24 67bd a09f b0bc 429f a7bd
00000200: 19ee cabd 2fb2 ea3d db03 7abd e5d7 1abe
00000210: 434c 5bbe 6a86 f1bd 7467 9ebd 0763 c63d
00000220: cb29 37bd 83d2 03bd 965d b73d 4a4a 653b
00000230: 5529 523c 9b19 843d 5ac2 91bd 37bc 09be
00000240: aba8 3cbe 07b5 d43c 60ce 483c a5f3 d83d
00000250: 135d 98bc 50e5 683e 31b4 a2bd 6859 99bc
00000260: 26b7 09be 62df e4bd 5e7d d1bd f453 76bd
00000270: 17fc 423d e721 f53c 66b8 8ebd 3dcd f63d
00000280: 88f3 8ebd a57b a6bc 207f 3a3b 185b 4ebd
00000290: 8086 2fbe e360 c6bd 48f7 25be 5a08 2abe
000002a0: 60a1 fbbc 6440 4dbd 0fdd 24be e1fc 3ebe
000002b0: 845a b9bd 3ba0 d23d 3fc5 f4bd ea75 91bb
000002c0: 53fe 883d 0d47 4f3d ce99 143d f12e a13d
000002d0: 1473 61bc ab20 03bd c38c 773d cd5e e1bd
000002e0: 7397 e83d 60e9 91bd e425 cd3d 64a9 1f3d
000002f0: f839 96bc add5 93bc 55d6 ae3d 77f6 15bc
00000300: b78a b43c 87e1 373d 2e57 1fbe d7f1 ba3c
00000310: 3496 09bc f180 47be ce2c ccbd 358e bebd
00000320: dd3e 7b3d 82ea b7bb 9e39 5ebe 9d27 5c3d
00000330: ac86 273e 5f85 b8bc a00c 2ebd 952e 10be
00000340: 3959 82bd ac0a 193e 860c eebd 77d6 503d
00000350: bfbb 353e 2b4a 4f3d 04aa 243e a955 ab3d
00000360: 97f3 523d fed4 1a3e 4c77 94bc b5d6 b5bd
00000370: 46a7 b6bd 06ae 57be 76c6 bf3d 76b5 b83b
00000380: da94 48be 2acf 213e 5739 f4bd 2ccf ae3d
00000390: e781 433d 138a 13be 9d20 5e3c 035e 56bd
000003a0: 2e1d 59be 9fba 14be 7517 903d 8825 ae3d
000003b0: ed1e 04bd e9c8 97bd 2ff0 c93b 6755 3a3d
000003c0: 3c26 cebd 9778 abbd 4096 483e 19ca 1e3c
000003d0: b8ba 12bd 7b05 f03c 52c7 443d 9d56 e23d
000003e0: 8fdf 493d ff4a 05bd 5898 1e3e d796 0f3d
000003f0: a4c4 423e f275 31bd 6a94 9f3d 7769 b93d
0.050233696 0.017660292 0.17238772 0.17860451 0.1988391 0.028835595 -0.063612014 0.044253945
0.017691076 -0.12615988 0.15157038 0.06626116 0.069815665 0.014318697 0.1332118 -0.05812111
-0.00236558 0.12767142 -0.13294055 -0.047418054 -0.04215681 -0.03526465 0.0625736 0.06546486
-0.07021567 0.13155395 0.0028741313 0.113578394 -0.029125236 0.093678534 0.12019405 -0.031043155
0.07932849 -0.065970816 -0.14883806 0.042762004 -0.056851145 -0.091200806 0.13433307 -0.05092266
-0.17491478 0.0848991 -0.15296736 -0.16983971 0.012253922 0.040618103 -0.059360348 0.029466124
0.19463673 0.09737217 0.16680807 0.084824264 0.11832504 0.13584206 0.119886845 0.032640863
-0.05190332 0.11084598 0.06449772 0.087343745 -0.052647244 -0.1558621 -0.08963221 -0.13596985
0.008172566 0.0010147964 0.0023990653 -0.03675808 -0.113183595 0.014071013 -0.020101255 -0.18300541
0.06568165 0.044837296 0.16380082 0.03246878 -0.17007719 -0.102891095 -0.055603854 -0.143573
-0.1478973 -0.15550579 0.017410344 0.1058244 -0.2085481 0.08047741 0.05754841 0.023709517
-0.034467302 -0.0068459124 -0.15021254 0.17611998 0.13547648 0.030315595 0.35724485 0.12498553
-0.054868385 -0.03771414 -0.10218701 -0.13518836 -0.106474675 -0.0999231 -0.03831906 -0.09260913
-0.12563652 0.050419692 -0.098577835 -0.010316099 -0.0993699 -0.0091104265 -0.120131575 0.022132799
0.08869707 -0.08243273 -0.017986763 0.1699838 0.08191329 -0.044165235 0.020460214 -0.12028277
-0.06282176 -0.05203485 -0.121496715 0.031162996 0.12623343 -0.056431457 -0.02156049 -0.08184673
-0.09908695 0.11459767 -0.061038833 -0.1512142 -0.2141581 -0.117932156 -0.07734576 0.09686857
-0.04471759 -0.03218318 0.08953397 0.0034986907 0.012827237 0.06450196 -0.07117148 -0.13450705
-0.18423717 0.025965227 0.012256235 0.105933465 -0.018599069 0.22743726 -0.07944525 -0.01871939
-0.13448772 -0.111754194 -0.1022899 -0.060138658 0.047603693 0.029923392 -0.06968765 0.12050865
-0.06980044 -0.02032263 0.002845712 -0.050379843 -0.17141151 -0.096864484 -0.16207612 -0.16604748
-0.030716598 -0.050110236 -0.16099952 -0.18651153 -0.090504676 0.10284468 -0.11951684 -0.0044391053
0.066891335 0.05060487 0.036279492 0.078702815 -0.013760347 -0.032013576 0.060436975 -0.1100441
0.11357012 -0.07124591 0.10016993 0.038979903 -0.018338189 -0.018046224 0.08536974 -0.009153
0.0220388 0.044892814 -0.155606 0.022820396 -0.008397628 -0.19482781 -0.09969483 -0.093044676
0.061339248 -0.0056126723 -0.21701667 0.053748716 0.16359967 -0.022524534 -0.04249251 -0.1408027
-0.06364674 0.14945477 -0.116234824 0.05098578 0.177474 0.05060784 0.16080481 0.08365948
0.051501837 0.15120313 -0.018123291 -0.08878843 -0.089186236 -0.21062478 0.09364025 0.005636866
-0.19588032 0.15801683 -0.11924999 0.08535609 0.047731306 -0.1440814 0.01355758 -0.05233575
-0.21202537 -0.14524315 0.07035724 0.08503252 -0.032256056 -0.074113674 0.0061626653 0.045491602
-0.100658864 -0.0837261 0.19588566 0.0096917385 -0.0358226 0.029299488 0.04804165 0.110516764
0.049285468 -0.032542225 0.15487802 0.03505596 0.19020325 -0.043325372 0.077919796 0.09053319

weight f4 [8]
00000000: 1872 853f 7712 873f 03d0 823f f3e0 6f3f
00000010: 3c6d 7b3f 53b1 6b3f bc24 7b3f 2f5b 873f
1.0425444 1.055251 1.021973 0.9370262 0.98213553 0.9206745 0.9810293 1.0574702

bias f4 [8]
00000000: 6440 44bc 0c1e dfbd 13c5 e13d 1bed 3b3c
00000010: 0510 65bc ac15 2a3d b250 a33d e13a 9ebd
-0.011978243 -0.10894403 0.11023917 0.011470105 -0.01398087 0.041524574 0.07974376 -0.07726074

running_mean f4 [8]
00000000: 90af 273f 1a8a 4bbf 3e06 49bf 6671 8e3e
00000010: a2c7 dabe 3171 c33e 7cb2 e53e 640d 2fbf
0.6550226 -0.795076 -0.7852515 0.2782089 -0.42730433 0.38172296 0.44862735 -0.6837981

running_var f4 [8]
00000000: d2e8 d53f 1fb1 bd3f 2f08 cd3f 3df3 943f
00000010: 3693 363f ca1d 873f dca5 393f 5207 753f
1.6711676 1.4819678 1.6018122 1.163673 0.71318376 1.0555966 0.72518706 0.95714295

weight f4 [8, 8, 3, 3]
00000000: b7de 06be 6fa1 62bd 591d 4d3e 234b 87bd
00000010: 8a78 b5bd 6d0c 56bd d1f6 48bd 0869 debd
00000020: ecf6 54bd f49f 00be d293 5abd 3d34 573e
00000030: d48d fabd cf34 003b 123d 63bc 2b8a fabd
00000040: acdf 4cbd ca7a 09bd fade 4ebb 09cd 63bd
00000050: 0ada 25be 5b8b 17bd d4bb c53d 3941 5fbd
00000060: ead8 343d 2709 3e3d 1b89 433e df02 94bd
00000070: 6d57 7fbd 8430 92bd 6250 13bd 4f12 97bd
00000080: 4e1f 4e3c d0ce 33bd 325c f4bd c6f7 ad3c
00000090: d179 d33d 826e 8d3d 8920 913d 9e54 1d3e
000000a0: 1483 a53c b16b 4d3e 3baf d8bd f042 5f3b
000000b0: bd4d 1abd 523a 93bc d353 3e3c 0310 903d
000000c0: 3fe3 8d3d e14e cf3d 6650 9bbc a9bf 693d
000000d0: 574a ffbb 05a9 0abc 5b66 40be c5f7 c6bd
000000e0: 6c4b 3a3d 19fc 253d 602d d53c 6f95 d5bd
000000f0: a6a3 bdbd 9a30 203e 4a76 893e 73a0 a0bd
00000100: 6eb4 283d d294 973c 2bf6 d6bb 01c4 853c
00000110: bf59 e73c e6ce 07be e9e6 25be 6d04 10be
00000120: b73a 8e3c 7758 05bd 346a de3d ad69 07be
00000130: 0a4a e8bb bb3b 3b3d 81e7 d9bd a394 03be
00000140: b71f 043a 6a8e 20be e483 ea3d 294f 29be
00000150: c0d2 ac3c adb3 79bc e86c 9c3d ac5f 6dbc
00000160: 6262 2c3e 95f5 643e 88ce 503d 8ae8 9c3d
00000170: 4943 073e 3508 15bd 200d 0cbd 5755 2fbd
00000180: cc70 823c 350c 3fbd 68f8 a9bc 6746 d3bd
00000190: 14e9 99bd a40c 1b3e 1e60 40be 135c f4bd
000001a0: 072b f53d 0d0a 24be e007 58bc d670 d93d
000001b0: e919 92bd ddec 843d 7a96 843d 4b1b 8d3d
000001c0: 937e a03d 0f9c 04bb 7e3c 1b3e dcf1 533b
000001d0: ff90 2f3b 4f65 7fbd 2ab9 4abd f5e5 3fbe
000001e0: 002e 7cbd 5360 dcbd bebb a6bd e3c2 8fbd
000001f0: 447a 0cbd cfff c8bd 4630 013e 9a27 cd3b
00000200: cffa aabd c19f bd3c e2e2 923d 4759 a0bd
00000210: ae4e 74bc 9bfc a63d df45 efbd 9e0a 26be
00000220: 8783 a1bc 9e35 4dbe 4986 773d bdb6 0e3e
00000230: f473 a6ba 38d2 05bd 46b3 173e ad80 a43e
00000240: 66f9 663b 7d4f 013d 9823 143e 27df 06be
00000250: 99a6 b63d 261c 003e 36ca e7bd 552f fa3c
00000260: 2387 2a3e 55b1 5cb9 e0e5 013e c11a e23d
00000270: 7f3d eb3c bec9 d03d 213a 823e b494 ac3c
00000280: 2ee3 913d 38bf 203c b261 b03d 1734 aabd
00000290: f7ed 1d3d 3b86 c7bd f68a 83be d822 ddbd
000002a0: b576 02bd fb4a ffbd 5afc 66bd bd17 beb9
000002b0: 03a2 bc3d 070e 163e 9738 18bd 1ba6 82bd
000002c0: 4a52 883d 62a1 d83d 59a0 81bc bd04 1b3e
000002d0: 7d68 43bd fac7 8cbd f882 173b b380 c83d
000002e0: cb4f 2d3d 04b1 3d3d 0d28 843d ccd1 28be
000002f0: e90a 1cbe f45e 5cbe b2ee 8b3d 2e15 973d
00000300: cb68 d03b 6455 1b3e c2eb b03d 7dbb d4bd
00000310: 2af0 42bd bfd8 6a3c cf2f 3cbd 9968 4fbd
00000320: 96b0 bbbd 4287 28be b3f5 833d 6794 60bd
00000330: dbfd 46be eb93 953d e0eb 713d d7b0 cfbc
00000340: 3c8d c93d b792 133d 128d 1e3b 6e80 e7bc
00000350: 94e0 48bd fba5 e33c 0bcb c2bd 28b0 dabd
00000360: c49a 273c 0798 eebc f7b9 903d fcbf 3b3e
00000370: 332b d73d 14a5 d63d 9f19 92bc 28cf 893d
00000380: f47d 213e e67d 953c 7f6a 3ebd b39e 1dbe
00000390: 061a 36ba a6b3 83bd 1e69 cfbd 3be2 d93b
000003a0: ba15 a8bd 7ddb cfbd 8e4a 303d 6b19 123e
000003b0: 0547 873d 39a6 df3c 933a 0a3e d436 023d
000003c0: 015f 21be aae4 443b 3d86 27be 5542 31bd
000003d0: 4712 dd3d dba8 ef3d 1ae3 aebd ee66 7abd
000003e0: e2c2 9a3d 1026 d6bb 1914 5ebd 8192 20be
000003f0: a610 b6bd a4e6 16be 879e d1bd 5e61 56bd
-0.13170896 -0.055329736 0.20030726 -0.06606128 -0.088608816 -0.052257944 -0.049063507 -0.10859877
-0.051993296 -0.12561017 -0.05336363 0.21016021 -0.12234083 0.0019562726 -0.013869541 -0.12233385
-0.050017998 -0.033564366 -0.003156601 -0.05561546 -0.16196457 -0.036998134 0.09654966 -0.05450556
0.044152178 0.046395447 0.1909527 -0.0722711 -0.062339235 -0.0713816 -0.03596533 -0.07376539
0.012580706 -0.043898404 -0.11931647 0.021236312 0.10325969 0.06905843 0.07086284 0.1536431
0.020204104 0.20060612 -0.105802976 0.0034066997 -0.037671793 -0.017972145 0.011616665 0.07034304
0.069281094 0.10122467 -0.018959235 0.057067547 -0.0077908444 -0.008463149 -0.18789046 -0.09715227
0.045482084 0.040523622 0.026022613 -0.10428893 -0.09259729 0.1564354 0.2684806 -0.07843103
0.041187696 0.01850358 -0.006560107 0.016328814 0.028241036 -0.13262519 -0.16201366 -0.14064188
0.017361982 -0.03255507 0.108601004 -0.13223906 -0.0070889043 0.04571126 -0.10639859 -0.12849669
0.0005040126 -0.15679327 0.114509374 -0.16534103 0.021096587 -0.015240592 0.0763796 -0.014488142
0.16834405 0.22359307 0.050978214 0.07661541 0.13209261 -0.03638478 -0.034192204 -0.042805996
0.015922926 -0.0466425 -0.020748332 -0.103161626 -0.07515159 0.15141541 -0.18786666 -0.11931624
0.119710974 -0.16019459 -0.013185471 0.10617225 -0.07133848 0.064904906 0.064740136 0.06889971
0.07836642 -0.002023462 0.15159795 0.0032340204 0.0026789305 -0.062352475 -0.049492992 -0.18740065
-0.061567307 -0.1076056 -0.08141278 -0.070195936 -0.03429629 -0.098144166 0.12616071 0.0062608244
-0.08348619 0.023147466 0.07172181 -0.07829528 -0.014911337 0.081536494 -0.11683249 -0.16214988
-0.019716037 -0.20039985 0.0604308 0.13936897 -0.0012699352 -0.032671183 0.14814481 0.32129422
0.0035243868 0.031569947 0.14466703 -0.13171063 0.08918495 0.12510738 -0.113178656 0.030540148
0.16653113 -0.00021046896 0.12685347 0.11040259 0.028715847 0.10194729 0.25434974 0.021067
0.07123409 0.009811215 0.08612384 -0.083107166 0.03855702 -0.09742399 -0.25691956 -0.107976615
-0.03185149 -0.12465473 -0.056393005 -0.0003625731 0.09210589 0.14653789 -0.037163343 -0.06379338
0.066563204 0.10577656 -0.01582353 0.15138526 -0.04770707 -0.0687408 0.0023118835 0.097901724
0.042312425 0.046311393 0.064529516 -0.16486281 -0.15238537 -0.21520597 0.06832637 0.073770866
0.0063601485 0.15169293 0.08638717 -0.10387323 -0.04759232 0.014333903 -0.04594403 -0.05063686
-0.091645405 -0.16457847 0.06443348 -0.054829028 -0.19432776 0.07303604 0.05906284 -0.025352878
0.098413914 0.03602859 0.0024192971 -0.028259482 -0.0490423 0.027789107 -0.095113836 -0.106781304
0.01022977 -0.029125227 0.0706672 0.18334955 0.105062865 0.10480705 -0.017834483 0.06728965
0.15770704 0.01824851 -0.04648828 -0.1539257 -0.0006946627 -0.064307496 -0.101274714 0.006649283
-0.08207269 -0.10149286 0.04303985 0.14267509 0.06605343 0.02730094 0.13498907 0.03179057
-0.15758897 0.003004352 -0.16359802 -0.04327615 0.10794502 0.117021285 -0.0853941 -0.061133318
0.07556702 -0.006535299 -0.054218385 -0.15680887 -0.08889894 -0.1473642 -0.10235315 -0.05233895

weight f4 [8]
00000000: ea46 823f 582d 8c3f 711a 763f 6023 833f
00000010: efd5 923f 7a19 a03f e05f 843f d71b 813f
1.0177891 1.0951338 0.96134096 1.024517 1.1471537 1.2507775 1.0341759 1.0086621

bias f4 [8]
00000000: af35 f53d c5fe 90b8 bf5d 043d 8a3d bf3d
00000010: 6b2f 913d 9774 373d b561 453e 35b5 ec3d
0.1197313 -6.9139096e-05 0.032315966 0.093379095 0.070891224 0.044788923 0.19275554 0.11558

running_mean f4 [8]
00000000: dda9 2ebe aac5 e0bd 7716 df3b 1e5b 953e
00000010: 8810 ffbd 210d fc3c fc19 60bf 0352 fcbe
-0.17056985 -0.109752014 0.006808098 0.2917108 -0.12454325 0.03076798 -0.8753965 -0.4928132

running_var f4 [8]
00000000: 7e55 ba3e e6a7 8c3e af48 a33e 37aa bd3e
00000010: 3d6e 873e 877f a23e 8f34 d83e 2d32 8e3e
0.3639335 0.27471846 0.3189139 0.37043926 0.26451293 0.3173792 0.422276 0.27772656
