save/bs32ep30sf2.pth (torch_old, 74346 bytes, 102 tensors)

weight f4 [2, 3, 3, 3]
00000000: e119 b43e d7f0 9e3e 9060 2b3e cde8 0f3e
00000010: 7f8a 963d bc83 aa3e 2bbf f63d 8306 bf3c
00000020: bc48 6c3e 5643 6dbe 4df3 ac3b d0e4 fcbd
00000030: 8327 35be cde6 74be 5f73 2f3d 66b8 2abe
00000040: efad e13b a701 38be 6ec0 3fbc ae26 1cbe
00000050: da55 703d 3852 94be 2817 45bd 5c22 f1bc
00000060: 5004 4cbe 2eb3 54bd 7b4b 853e 987b 9cbd
00000070: 54bd 0d3d 36a3 793e 1deb d4bd 9740 ecbd
00000080: 5c35 cfbd ae8d 59be df33 35be f84a 4bbe
00000090: b665 1ebe ce79 14bc 4f8b 2b3d ef16 3dbd
000000a0: aea8 3f3d 6324 0dbe 913c 3abe 016f 57bd
000000b0: aabe b1be c027 8d3e 7cf8 983e 0d6a 933e
000000c0: b981 b23d 743d 2b3e 777b 8a3e e530 483e
000000d0: d6f2 3bbd b05a f7bd
0.35175994 0.3104312 0.16736054 0.1405365 0.07350635 0.3330363 0.12048181 0.023318535
0.23074621 -0.23170218 0.005278027 -0.1234833 -0.17690854 -0.23916169 0.042834636 -0.16671905
0.0068871896 -0.1796938 -0.011703594 -0.1524913 0.058675624 -0.28968978 -0.048117787 -0.02943533
-0.1992352 -0.05192869 0.2603415 -0.07640761 0.034604385 0.24378666 -0.10396407 -0.11535757
-0.10117599 -0.21245453 -0.17695569 -0.19852817 -0.15468487 -0.009062244 0.041880902 -0.04616445
0.046791725 -0.13783412 -0.18187167 -0.052596096 -0.34715778 0.2756939 0.2987708 0.28791848
0.08716149 0.16722661 0.2704732 0.19549902 -0.045885883 -0.12077844

weight f4 [2]
00000000: 3f89 6b3f 3a37 723f
0.92006296 0.9461552

bias f4 [2]
00000000: 2829 963d 4173 2a3e
0.07332069 0.16645528

running_mean f4 [2]
00000000: bc6d babd 9c6e bf3d
-0.091029614 0.09347269

running_var f4 [2]
00000000: 7936 903f e905 e03f
1.1266624 1.7501804

weight f4 [2, 2, 3, 3]
00000000: c598 923e a879 483e cc46 43be 5dfd 413e
00000010: 8d9e 3d3e b7bd 443e e7a9 5a3c bd3e 29be
00000020: 32ed e3bd 3603 5bbe 6932 c6bd faeb 873e
00000030: 2272 833e 72db ee3d 83ce 273e 1f5a 8f3e
00000040: dfcd b1bc 65ca e3bd 6f38 0f3d 0840 17b9
00000050: c609 86bb b784 3fba 89e0 03be c2c1 84bd
00000060: 2dd8 0fbe b53d 33bd b709 383d d1f4 15be
00000070: 2a1f 543e a383 8b3e 5292 113e 7b0d 373e
00000080: 9f70 2c3e bcbf c7be 2048 85be a08c d0be
0.2863218 0.19577658 -0.19069976 0.18944307 0.18517514 0.19212995 0.013346172 -0.16527839
-0.11129226 -0.21387944 -0.09677584 0.26547223 0.25673014 0.116629496 0.16387372 0.27998444
-0.021704612 -0.11122588 0.03496593 -0.00014424336 -0.0040905206 -0.0007305848 -0.12878622 -0.06482269
-0.14047308 -0.04376002 0.04493114 -0.14644171 0.20715013 0.27248868 0.14215973 0.17876236
0.16839837 -0.3901347 -0.2603159 -0.40732288

weight f4 [2]
00000000: fb39 703f cabc 843f
0.9383847 1.0370114

bias f4 [2]
00000000: 0e05 7f3e 3ae7 213d
0.24904272 0.039527155

running_mean f4 [2]
00000000: 2c0d f63e a86d 3bbe
0.48056924 -0.1830355

running_var f4 [2]
00000000: 1c84 693e 5980 973e
0.22804302 0.2959011

weight f4 [2, 2, 3, 3]
00000000: 9fae 9abe 2bdd 5dbe 6b21 cebd bed5 9ebd
00000010: e1fc e1bd 7795 53bd 1b69 243e f0aa 773e
00000020: 2196 c5bd 86ce 41be 44b5 b23d 7494 f2bc
00000030: 0007 45be 54ff 30be 0936 48bd 4eb4 34bd
00000040: e997 5c3e 4a56 713e 9766 3bbd f7b8 52be
00000050: 5ffd 86bc e7c4 e9bd 9f0c 70be a28b 20be
00000060: bf95 493d 2d4c 8c3e 7dc1 eb3d 5ebf 63be
00000070: 8c5d 5d3e f8e7 79bb 39f9 adbe 99b9 1dbe
00000080: 3903 5f3d 901a 9dbe 0521 a1be e9c6 f43d
-0.3021135 -0.216664 -0.10064968 -0.07755612 -0.11034561 -0.051656213 0.1605572 0.24186301
-0.096477754 -0.18926439 0.0872598 -0.029611804 -0.19240952 -0.172849 -0.048879657 -0.044117264
0.21542324 0.23568073 -0.045752134 -0.20578371 -0.016478239 -0.11414509 -0.23442315 -0.15678266
0.049215075 0.27401868 0.11511514 -0.2224097 0.21617717 -0.003813265 -0.33979204 -0.15402831
0.054446433 -0.30684328 -0.31470504 0.119520016

weight f4 [2]
00000000: d039 803f 20cd 963f
1.0017643 1.1781349

bias f4 [2]
00000000: 7d56 123e f81f 503e
0.14290805 0.20324695

running_mean f4 [2]
00000000: feb2 9ebe 85a9 febe
-0.30995935 -0.49738708

running_var f4 [2]
00000000: 572d d23e 556a 113f
0.41050217 0.56802875

weight f4 [2, 2, 3, 3]
00000000: b39c 903d ca86 aebe dc40 f0bd 7e99 45be
00000010: c233 143c 0413 f33d c980 d9bd 4b60 56be
00000020: d730 8bbd bc60 90bd 56ff 75be f64e b5bd
00000030: b19d a0bb 175a 183e d3cd c1bd 84ff 18be
00000040: c7fc 83be 9743 88bd 14df 69bc 5697 19bd
00000050: 868a 383d 5178 7c3d a156 bc3d 4860 7ebe
00000060: 0560 86be 335e 7abe db20 573d 5d74 1d3e
00000070: fd64 bf3d 226e 923d 60e3 89be dbad 9bbe
00000080: 9575 64be abde 863d 9bdf 4c3e 5ac3 c83c
0.07061138 -0.3408721 -0.11731121 -0.19296834 0.009045543 0.11868861 -0.10620267 -0.2093517
-0.06796425 -0.070497006 -0.24023184 -0.08852951 -0.004901611 0.14878117 -0.09463086 -0.14941221
-0.2577879 -0.06653517 -0.014274377 -0.03749784 0.04505398 0.06163818 0.09196211 -0.24841416
-0.26245132 -0.24449997 0.052521568 0.1537642 0.09345434 0.071499124 -0.26931286 -0.3040608
-0.22310479 0.06585439 0.20007174 0.024507213

weight f4 [2]
00000000: 1921 7b3f 5cee 813f
0.9809738 1.0150867

bias f4 [2]
00000000: ab48 ec3c b814 d7bd
0.028843245 -0.10501999

running_mean f4 [2]
00000000: c9f8 97bf 3944 01bf
-1.1872798 -0.50494725

running_var f4 [2]
00000000: e1ce 9d3e d6e7 823e
0.308219 0.25567502

weight f4 [2, 2, 3, 3]
00000000: ee5f 82bd 6435 68bd 8d9f 1c3e 20d3 543e
00000010: 89cc 413a 4978 583e ed29 2f3e 86ac 05be
00000020: 35d3 02be 20a3 3c3e 3daf ba3d 42e6 693c
00000030: 06f3 4b3e f724 7c3e f96d 803d e75b fd3c
00000040: a6e0 533e 8496 113e e414 0bbe f42a ccbd
00000050: 491a e5bd 2369 0cbe b9cb 0e3b 1f26 843e
00000060: f0a1 3b3e ba9b 493e 2770 1f3e 6797 c03d
00000070: db11 16be 3116 b13e 95e1 5b3e d59a 34bd
00000080: 5b4e 4cbc 5658 c9bd 849c 74bb ca55 49bd
-0.063659534 -0.056691542 0.15295239 0.20783663 0.0007392844 0.21139635 0.17105837 -0.13054094
-0.12775882 0.18421602 0.09115455 0.014276089 0.19916925 0.24623476 0.062709756 0.030927612
0.20691165 0.14217573 -0.13582188 -0.0996913 -0.11186654 -0.13711981 0.0021788909 0.25810334
0.18323493 0.19688311 0.15570126 0.09403878 -0.14655249 0.34587243 0.21472771 -0.04409297
-0.012469853 -0.09831302 -0.0037324736 -0.04915408

weight f4 [2]
00000000: 074c 7b3f 2c3c 6b3f
0.98162884 0.9188869

bias f4 [2]
00000000: fb87 9f3d 1f08 af3d
0.07789608 0.08546471

running_mean f4 [2]
00000000: 06bd f53e 294d 463e
0.47995776 0.19365372

running_var f4 [2]
00000000: 1830 813e 52de 1c3e
0.25232005 0.15319183

weight f4 [4, 2, 3, 3]
00000000: 568e 793e 73b9 c1bd a63b 3d3e e65b c9bd
00000010: 8e63 56be 201e 923c 4e9b 40be 354d c8bd
00000020: 6771 67be dba6 c7bc 4d38 32bd a8f2 0e3e
00000030: 4720 4cbe b357 873d 134c 683d e4b0 23bd
00000040: f89d 27be 5fad 5d3d 442d 9dbd a417 5dbe
00000050: c52e 3fbe 47d2 c9bd a6e9 593d 72d6 303d
00000060: 2334 1abe bcd2 5cbd 68af ef3d aa7f 00be
00000070: 3b4f 8abd c4fe 3dbc 871a b4bd d807 41be
00000080: 3682 543e fa21 3abe ac27 d23d b9c2 303e
00000090: c031 95bd c114 d1bd 5288 433e 5794 e7bd
000000a0: 1252 593e 4584 643e b87e 453d a1e2 263e
000000b0: fa3b f8bc b305 e73d 6b7f 083e 8874 893e
000000c0: a291 a93c 3f7d 03be d11f 17bd 1e9c a53d
000000d0: 6489 603e 0e29 883c b90d 90be c107 62be
000000e0: 2501 55bd eb0d ca3c 7b1d 31bc 846c b2bd
000000f0: 7933 4b3e 1a2d 593e f6f8 6cbd fb59 353e
00000100: c0a7 0c3e d1b3 ee3d d092 2f3d 05a4 2a3e
00000110: 3828 04be 795e c5bd ca71 0f3e e590 003e
0.24370703 -0.094592 0.18479785 -0.09831981 -0.20936415 0.01783663 -0.18809244 -0.09780351
-0.22601853 -0.024371555 -0.043510724 0.13959754 -0.19934188 0.06608524 0.056713175 -0.039963618
-0.16368854 0.054120418 -0.07674649 -0.2159105 -0.18670185 -0.0985456 0.05320134 0.04317326
-0.15058951 -0.05391191 0.11703378 -0.125487 -0.06753393 -0.011596385 -0.08794122 -0.18850648
0.20752797 -0.18177024 0.10261473 0.17261781 -0.0728488 -0.102090366 0.19094971 -0.113075905
0.21222714 0.22316082 0.04821655 0.1629739 -0.030302037 0.11280384 0.13329856 0.2684672
0.020699326 -0.12840746 -0.036895577 0.080864176 0.2192741 0.016621139 -0.2813547 -0.2207327
-0.052003045 0.02466484 -0.010810251 -0.08712104 0.19843854 0.21208611 -0.057854615 0.17710106
0.13735867 0.11655391 0.04286462 0.16664131 -0.12905967 -0.0963716 0.14008251 0.12555273

weight f4 [4]
00000000: 9051 813f 707c 833f b98c 813f 2f14 723f
1.0103016 1.027235 1.012107 0.9456205

bias f4 [4]
00000000: 84b2 b73c bfce a83d 4ff1 963c a779 0f3d
0.02242399 0.08242559 0.018425612 0.035028126

running_mean f4 [4]
00000000: 30f6 0ebf 1f20 0ebf b813 733f 9cd2 b53e
-0.558444 -0.5551776 0.94951963 0.35512245

running_var f4 [4]
00000000: 8c04 c23e 6721 ae3e 726a d13e 10ec ae3e
0.37894094 0.3400986 0.40901524 0.34164476

weight f4 [4, 4, 3, 3]
00000000: 7238 f3bd 6f0d 0bbe 8fe1 c8bd d657 683e
00000010: ed68 a9bc 8e33 563e 6f7f 25bd 28fd 1b3c
00000020: 23b0 643d a8f8 e23b 20f4 49bd 46f8 f6bd
00000030: 0adb 02be 6b14 aabd 0bed 41bd 1360 ff3d
00000040: e60c 383e 0ea7 f0bc 0b12 c2bc a40b ce3c
00000050: d25c 9b3d 9e4f ed3d 198b 033e c318 b9bd
00000060: 1d7b 863c 8292 d33d 1e66 11bd f572 a33d
00000070: 5b6a 553d 3174 13bc 4fe7 bdbb 085b a5bd
00000080: e0b9 c2bd 67cf a2bd bacc 113e 9831 43bd
00000090: f000 213d c903 473d 45de ea3b 27e7 373d
000000a0: ec77 02be cb89 28be 21f6 b23d 6fe2 c7bd
000000b0: dfcf ae3d 69bf f3bc dd57 70bd 9797 d63c
000000c0: 293b 79be 8d91 be3d e6d1 85bc e233 1fbe
000000d0: ec0d a7bd e98d 70bd 1972 38bd b765 8cbd
000000e0: 3294 333d 2c0a d6bd be46 1c3b efe2 153e
000000f0: 2c08 183d 3c83 78bd e54b b53d 738b 3c3e
00000100: 2451 033e 9f29 c8bd b148 01be 253c 693d
00000110: fa2c 1e3e c89a 00be f24f cebc c518 d93d
00000120: fc71 163d 743e 153d dd60 eb3c 6007 6a3d
00000130: 5fce dbbd 006a 0b3e 46c9 893d 1053 9a3c
00000140: 8cd1 613e 88f1 6cbc 1a69 093e fb00 003d
00000150: 3e72 87bd ab7c b23d 33bf edbd a8da 1e3e
00000160: d9ba 36be 353e 31bc 8b70 79bd e2c2 0a3b
00000170: f21d 04be 54e5 10be 0d4a 44be 6bca 66bc
00000180: aef7 183e ac47 0e3e 325f c13b 7daa 1dbe
00000190: 5712 69bd 47ad bc3d 1232 a53d 0e70 443a
000001a0: 968f 4f3d 9949 4dbc 24bf 61bd 359f a7bd
000001b0: 3548 89bd 5283 073d 305c 6d3d bb84 e33c
000001c0: f53a a33d 38e7 cfbd 7c9b b43d a5fa 753d
000001d0: 64ca 033e a328 0abe afb2 0bbe d26d d33c
000001e0: c706 073e 6ca0 0c3d cb3d 04bd 9833 85bd
000001f0: 532c 0dbe f6cf 03be d71d afbd 3479 afbc
00000200: 5d38 32be e61a 0ebd 4631 44be deef 65be
00000210: 2e4f 40be 8101 ccbc 510a ae3d 640e 083c
00000220: ffe9 373c d359 56bd 212a 9b3d 7abe 02be
00000230: 5967 9e3d 53a8 b2bc a4fe 83bd 8d78 683d
-0.118760005 -0.13579343 -0.09808647 0.22689757 -0.020679915 0.20918104 -0.040404733 0.009520806
0.05583204 0.006926615 -0.04930508 -0.12059073 -0.1277887 -0.08304676 -0.047345202 0.124694966
0.1797367 -0.029376533 -0.023690244 0.025152035 0.075860634 0.115874514 0.1284603 -0.09037926
0.016416127 0.103306785 -0.035497777 0.07980911 0.05210338 -0.00899987 -0.0057953964 -0.080740035
-0.09508109 -0.07949715 0.14238253 -0.04765472 0.039307535 0.048587594 0.00716761 0.04489818
-0.12741059 -0.16458814 0.087383516 -0.09759986 0.08535742 -0.029754357 -0.058677543 0.02619533
-0.24338974 0.09305105 -0.016335439 -0.15547135 -0.08156952 -0.058729086 -0.045030687 -0.06855338
0.043842502 -0.10451159 0.0023845877 0.1463735 0.03711717 -0.06067203 0.08852366 0.1841257
0.12823921 -0.097735636 -0.12625386 0.056942124 0.15446845 -0.12559044 -0.025184605 0.106004275
0.036729798 0.036436513 0.028732711 0.05713594 -0.107327215 0.13614655 0.06727843 0.018838435
0.22052592 -0.014461882 0.13419 0.031250935 -0.06613587 0.08715185 -0.11608734 0.15513098
-0.17844714 -0.010818054 -0.060898345 0.0021173288 -0.12902048 -0.14149982 -0.19168873 -0.014086346
0.14938232 0.13894528 0.0059012407 -0.15397067 -0.056902256 0.092127375 0.08066191 0.0007493504
0.050674044 -0.012529754 -0.055113927 -0.08184663 -0.067032255 0.03308422 0.057949245 0.027773252
0.079702295 -0.10151523 0.08818719 0.060053486 0.12870175 -0.13492064 -0.13642381 0.025809202
0.13186179 0.034332678 -0.032285493 -0.06503981 -0.1378644 -0.128723 -0.085506134 -0.021420099
-0.17404313 -0.03469362 -0.19159421 -0.22454783 -0.18780205 -0.02490306 0.084980614 0.008304212
0.011225223 -0.052331757 0.07576395 -0.12767974 0.07734556 -0.021808779 -0.06445053 0.05675559

weight f4 [4]
00000000: 275a 753f e3d7 773f 4f2e 823f 96ca 6b3f
0.95840687 0.9681379 1.0170382 0.92105997

bias f4 [4]
00000000: b5c8 b73d 126b 593d 33ad f63c 765f 11bc
0.08973829 0.053080626 0.030111885 -0.008872857

running_mean f4 [4]
00000000: a223 883d ff50 07be 8116 823d eb09 c6be
0.066474214 -0.13214491 0.063519485 -0.38679442

running_var f4 [4]
00000000: 4c0f 173e bbcc e43d 7bb7 113e 7de3 683e
0.14751929 0.11171862 0.14230148 0.2274303

weight f4 [4, 2, 1, 1]
00000000: f374 263e e816 fdbe 8f32 343f 9a38 cebd
00000010: adcc 8e3e a072 40bd 4e1e c3bd ac98 8d3e
0.1625555 -0.4943154 0.70389646 -0.1006939 0.2789053 -0.046984315 -0.095272645 0.27655542

weight f4 [4]
00000000: 5fe5 803f 54ed 803f 5672 7e3f 64d9 863f
1.0069999 1.0072427 0.9939321 1.0535092

bias f4 [4]
00000000: b5c8 b73d 126b 593d 33ad f63c 765f 11bc
0.08973829 0.053080626 0.030111885 -0.008872857

running_mean f4 [4]
00000000: ff98 b3be ffe0 f53e 4ab4 353e fc82 453e
-0.35077664 0.4802322 0.17744556 0.19288248

running_var f4 [4]
00000000: afd4 123e 8244 bd3e 526d 693d ef85 383d
0.14338945 0.3696633 0.05698902 0.045049604

weight f4 [4, 4, 3, 3]
00000000: 7812 1dbe 1b6a febd ee12 7d3e 71e0 193e
00000010: 0eb4 213e 94f1 53be 88e5 82bc 64a1 113c
00000020: 988f a13c f220 f4bc c82f 7b3d 1e8c d23a
00000030: 0941 873d 19cf 62be 3e49 1d3e d623 c23d
00000040: 6e2b 7cbd fb49 a73c 483e 413d 9add f6bb
00000050: c9ba 1abe 0e03 e8bd 04fb cabd 77a7 ac3d
00000060: ba69 0dbd 94a4 863d aec4 0bbe d442 de3d
00000070: b49f e33c f993 83be decb d3bd 38c6 b5bd
00000080: d1d0 273e 4eeb 9cbc 6fab ae3d 951b 403d
00000090: dc58 3dbd a958 b4bd 988a 06be 7f74 cfbd
000000a0: e128 2bbe 2a6e 90bc 2003 25bc 1e19 f7bd
000000b0: 2be4 c53d 0abc 39be 86f2 cd3b db4f 993d
000000c0: 3cb8 10be b413 e53c 63ec 48bd d65a e7bd
000000d0: 7101 0abe 7ced 0abe 31e5 47be a56b 453d
000000e0: 6524 9b3b a625 02bc d716 f03c ad70 fabd
000000f0: fc77 8abd c106 db3c 2391 073e ec52 2b3d
00000100: ab85 ad3c 4f06 de3d e539 28bd aa65 12bd
00000110: 548b ff3d e080 99bd 2509 07be 5034 1f3d
00000120: bccb d3bc fa24 3abe 21ae 0b3e 6e74 e3bd
00000130: 35ac adbd fa88 de3d 2f0b 113e 5fcd 17be
00000140: c6dd 55bd 5fee 84bd 3572 263d ed5e d3bc
00000150: 82a3 2bbe 7dfa 023e b779 cb3d f3bc e1bd
00000160: 6905 af3d c0a6 0a3d 3c17 0b3c 8d16 16be
00000170: ab78 413e 3956 683a 5081 01bc 536f 8f3d
00000180: b8e9 e13c df3c 6abd 9906 e73d 177a 173e
00000190: b465 a4bd 71a6 eebd 34a3 683e 538d ecbd
000001a0: 7cee dbbd a7c0 04bd 6227 173e 37c9 81bd
000001b0: cb68 1bbd e422 e23d 26a7 8fbb c149 29bd
000001c0: 10fe 1fbe ec9c a5bd f343 90bd c56a f7bd
000001d0: 4c02 79bd 821f ce3d 70b2 16bd 65f3 2c3e
000001e0: a94d c33d 70aa bbbd ee83 e2bc b34c 773e
000001f0: 443b 433e b59d e23d fc70 a73d 2e37 883d
00000200: 83a1 26be 965e 2abe eed5 72bd 4877 c4bd
00000210: 8c7a 5b3d 1079 773d c405 c43c e4b6 bebd
00000220: 3b59 a23d 2e7c 5d3d 92f1 d73d 822c 36bd
00000230: b6c3 653d f7cb a4bd 0282 8d3a ebeb b03c
-0.15339077 -0.12422582 0.24714252 0.15027024 0.15791342 -0.20697623 -0.01597859 0.008888576
0.019721791 -0.029800866 0.061324865 0.0016063487 0.06604201 -0.22149314 0.15359971 0.094794914
-0.061564855 0.020421019 0.047178537 -0.007533741 -0.15110315 -0.11328708 -0.09911159 0.08430379
-0.034524657 0.065743595 -0.13649246 0.1085259 0.027786113 -0.25698832 -0.10341619 -0.08875698
0.16388251 -0.01915517 0.08528792 0.046901304 -0.04622732 -0.08805973 -0.13138807 -0.10129642
-0.16714813 -0.017630655 -0.010071546 -0.120653376 0.0966266 -0.18138137 0.0062850146 0.07485934
-0.1413278 0.027963497 -0.04905356 -0.112966225 -0.13477112 -0.13567156 -0.19521023 0.04819836
0.004734563 -0.007943546 0.029307766 -0.122285224 -0.067611665 0.026736619 0.13238959 0.041827127
0.021181902 0.10841047 -0.041070838 -0.035741486 0.124777466 -0.07495284 -0.13187082 0.03886825
-0.025853984 -0.18178168 0.13640644 -0.111061916 -0.084801115 0.1086597 0.14164422 -0.14824437
-0.052213453 -0.06490778 0.04063626 -0.0258021 -0.16761592 0.12790866 0.09935325 -0.11022367
0.08545954 0.03385043 0.008489426 -0.1465704 0.18893687 0.0008862946 -0.007904366 0.07003655
0.027577266 -0.057186957 0.11280555 0.14792667 -0.08027211 -0.1165284 0.22718507 -0.11550393
-0.10738847 -0.03241029 0.14761117 -0.06337207 -0.037941735 0.11041811 -0.0043839393 -0.041330103
-0.15624261 -0.08086571 -0.0704421 -0.120809115 -0.060793206 0.100646034 -0.036791265 0.16889723
0.09536297 -0.09163368 -0.0276508 0.24150352 0.19065577 0.110652365 0.08175847 0.0665115
-0.1627255 -0.16637644 -0.05928605 -0.095930636 0.053583667 0.06041819 0.02392853 -0.09312227
0.079271756 0.054073505 0.10544123 -0.04447604 0.056094848 -0.08046716 0.0010796192 0.02159687

weight f4 [4]
00000000: d84f 803f 6c0d 803f 924c 813f 319f 7c3f
1.0024366 1.0004096 1.0101492 0.98680407

bias f4 [4]
00000000: 9d83 cebc 272d c83c 17b0 bdbc 1ae9 f23c
-0.025209242 0.024435593 -0.023155255 0.029652167

running_mean f4 [4]
00000000: 27d4 4fbd 327e 4fbf 8ab8 47bd 8b93 d13d
-0.050739434 -0.81051934 -0.048759975 0.1023322

running_var f4 [4]
00000000: 5615 6d3e 5d31 0d3f ecb0 563e f18a ee3e
0.2315267 0.5515345 0.20965928 0.4659038

weight f4 [4, 4, 3, 3]
00000000: 4501 063e a75b 573c f409 1e3e 38ed d93d
00000010: fef0 ecbd 8398 fc3d 221e ae3d cddf 1c3e
00000020: 20c4 593e 69f4 df3c 2a6a c9bd be6a 48bd
00000030: 8ed4 d1bd a551 9cbd 0566 2ebe 551b a9bd
00000040: 1064 4c3d 8184 aa3b e4a8 5ebd d9e9 2a3e
00000050: 8fff 09bd 35b1 81bc 2070 92bd 811d 91bb
00000060: 6b89 edbd 6883 143e 4fc2 283e ee35 c33d
00000070: c053 e0bd acd0 a23d 5e94 8cbc b9fb ca3d
00000080: 9506 cb3c 4016 563c 26c4 4f3e 6746 7cbd
00000090: b394 d33d 0540 ebbc 1584 35be 94c0 063e
000000a0: 2523 72bc e092 8cbd 8d77 963c 42cb 273d
000000b0: 962c b4bd 89ac 01bd c326 d53d c2e3 fe3d
000000c0: 5704 25bd f4d3 31be d8aa 0abe ba5c b0bd
000000d0: 79ee a6bc 9600 48bd ed78 37be e7f3 77bd
000000e0: cee4 d03d e11d 53bb b956 dcbd 2913 533d
000000f0: 97fb fdbc 72c2 fc3d 45eb e63d 292e c4bd
00000100: 9854 0d3b 40a1 88bd 9cde ed3d 3d4c dd3d
00000110: 6f6a 393c fea8 4d3d 4512 24be 49b1 a13d
00000120: 637f 723e 51a3 f53b 305d 153e 804f 3d3e
00000130: a3dd 18bd 1719 f33d 28bb 4abd 0650 c23d
00000140: 2a72 e93d 1fad f33c 53c7 37be e58d 2d3d
00000150: fb7d 293d 744f d9bd 9bda e03d e969 8a3d
00000160: 3a43 0cbd e8c2 c63a 1100 8cbc 1fc1 573d
00000170: 0dd5 473e 3341 123e 0007 9e3d 0ef9 8b3d
00000180: 2f8e b93d d403 353e da9b 923d 6a0a c63d
00000190: c2d8 0abe 8657 21be 674c a0bd 5e65 6bbd
000001a0: 6d52 5f3d c838 c2bc 27c0 c4bd ca82 b9bd
000001b0: 5e14 83bd 8d62 e0bc be66 47bd 42dc d9bd
000001c0: b174 a8bd da85 87bd 6a7e 6dbd d46f 73bd
000001d0: 5023 9c3d a827 7c3d c663 643d 4abe 13bd
000001e0: 44c5 adbd 7295 44bd 608b 773c ec33 b0bd
000001f0: 05c0 29bd 97eb 13be ec8e ac3d 7624 c6bd
00000200: f9a7 d73d 439d 083c 178e b7bb 354c 4fbe
00000210: 7bcd f7bd 2dbf aebd dddb 45bd c0ef 81bd
00000220: a6fa 02be 0610 313e e3fa b23d 7644 4e3e
00000230: a6a6 2b3e dc83 153e e36d 1d3e 44c8 083e
0.13086422 0.01314441 0.15433484 0.10640949 -0.11569403 0.12333777 0.08501841 0.15319748
0.21266222 0.027338224 -0.09834702 -0.048929922 -0.1024562 -0.0763276 -0.17031105 -0.08257166
0.049900115 0.005203784 -0.054360285 0.16690768 -0.033690985 -0.01583157 -0.071502924 -0.004428566
-0.11598476 0.14503253 0.16480373 0.09531771 -0.10953474 0.07949957 -0.01716059 0.099112935
0.024783412 0.013066828 0.20289668 -0.06159058 0.103310965 -0.02871705 -0.17726167 0.131594
-0.014778887 -0.06863952 0.018367553 0.040965326 -0.087975666 -0.031658683 0.10407784 0.12445785
-0.040287342 -0.1736601 -0.13541734 -0.08611436 -0.020377384 -0.048828684 -0.17917223 -0.060535338
0.10199891 -0.0032213854 -0.107587285 0.051531944 -0.031003756 0.12341775 0.11275343 -0.09579117
0.0021565314 -0.06671381 0.11614725 0.10805557 0.01131688 0.05020999 -0.16022594 0.078951426
0.23681407 0.0074962755 0.1458633 0.18487358 -0.037320744 0.1187002 -0.049494892 0.094879195
0.11398728 0.029745637 -0.1794713 0.04237165 0.04137991 -0.106108576 0.10979196 0.06758482
-0.0342438 0.0015164288 -0.017089875 0.05267441 0.19514866 0.14282684 0.07716179 0.06834613
0.090603225 0.17677242 0.071586326 0.09669955 -0.13559249 -0.15756044 -0.078270726 -0.05746972
0.054521967 -0.023708716 -0.09606963 -0.09058149 -0.06400369 -0.027390743 -0.048681967 -0.10637714
-0.08225382 -0.06617327 -0.057981886 -0.05943282 0.07623923 0.061561257 0.055759214 -0.036070146
-0.08484891 -0.047994085 0.015108913 -0.08603653 -0.04144289 -0.14445339 0.08425698 -0.09674923
0.10530085 0.008338275 -0.005601655 -0.20243914 -0.12099739 -0.08532558 -0.04830538 -0.06344557
-0.12790927 0.17291269 0.08739259 0.20143303 0.1676279 0.14601082 0.1537395 0.13357645

weight f4 [4]
00000000: 089a 853f 7263 773f 2e3d 823f 7ee1 823f
1.0437632 0.96636117 1.017492 1.0225065

bias f4 [4]
00000000: 2a64 ce3d 8f24 d13a 937c 933d 87bb c93b
0.100776985 0.001595633 0.07201495 0.006156388

running_mean f4 [4]
00000000: a847 8a3e 959a 07be 049e ad3e c28e 4bbd
0.27007794 -0.13242562 0.3390962 -0.04969669

running_var f4 [4]
00000000: 6ad8 4c3e c6aa df3d 78af 073e d59c 503e
0.2000443 0.10921244 0.1325053 0.20372327

weight f4 [8, 4, 3, 3]
00000000: 07a9 f63d c5ac f33d 181f 613d a66a 1c3e
00000010: 722f 863c a534 063e 3b65 9fbd 004a b3bd
00000020: 5ebf 44bd ca64 3e3e 9f98 f2bd e6c2 0bbc
00000030: 831e 2f3e 1e2d 2f3e 36c2 f5bc 2573 8bbc
00000040: 02ed b8bd 091f 053e 47ee 52bc 977a cebc
00000050: 8559 023e 108d 98bd d54e 1a3e 3564 373e
00000060: 4467 19bd 8fb6 fa3d deeb 623d 4fe2 363e
00000070: 6fc2 223e a191 dbbd dc5f 2c3e 99a7 a83d
00000080: a1e0 bbbd 7cb2 a53c b5a9 fc3d 62cd 18be
00000090: 0bb1 7d3c 45d9 1bbd d6eb a53c 9cef e43d
000000a0: 173e 423e fcc4 2b3e c386 0e3e 353a b5bd
000000b0: f2ac 553d 1752 46bd d40a cd3d 037c f33b
000000c0: 5dbc d5bd 7a71 9dbd 7dac 52bc c4a4 a1bd
000000d0: 1435 1fbd 7ef1 3bbd 9ba4 f1bc b88a 933a
000000e0: ed91 083e ddf8 34bd a135 22be f3e6 99bc
000000f0: 8520 38be f6d4 903c 2fa9 d2bd 3e05 01be
00000100: 48b9 5b3d 18bf b73d f755 883d e0ae b7bd
00000110: c2ef a9bc 22c9 4e3e 6cf7 ff3d dce6 b7bd
00000120: 342a eb3b 1589 133d 1b91 d63c 7466 d33d
00000130: b5cc e5bd 142c 173e 93ab 81bd 8188 2c3e
00000140: acdf 6f3e 0b64 b93c 0a57 173d 529e 3dbd
00000150: 4b65 0b3d b756 093e d091 da3d cc97 6cbc
00000160: 02f6 6bbc 4910 d6bd 3110 e13d 3ffc f03c
00000170: c10a 793d ff90 2ebd 9865 c13c 8efa 2b3c
00000180: 1217 b33d 56dc dbbd 402f 613d 7bd9 c0bc
00000190: 4377 18be b705 ae3d 04a6 a93c ac3d c63d
000001a0: 90da 04be 366a 9ebc 8e2e 34be 4430 31be
000001b0: c57c 913d 2368 d1bd f9b9 febd 9ea7 3abe
000001c0: a046 0ebd 5aa2 8dbd 34f5 c53d 8e04 85bd
000001d0: dd34 cabd 8298 e2bd ddd5 bebc cf2b f63d
000001e0: a841 e8bb 426c 663d 7951 1a3c 366a 8dbd
000001f0: 7905 0a3e e2a5 c53d ddb9 25be d951 82bd
00000200: 216d 953c 2d7f 3cbe 750b 00be 86e2 d53d
00000210: 92e2 b2bd 2c24 c9bd 7df9 843d 553a 15be
00000220: 49ea ecbd 961f 813d ae7c 8c3d c549 c43c
00000230: d8a2 ea3d 1459 cebc 7c87 ed3d 6456 1abc
00000240: 1af6 7ebd 3d3e 1dbd 2da7 55bd 5ec9 233d
00000250: d302 8ebd ee85 12be a835 103d ce61 a7bd
00000260: 09be c3bd 14aa 993c 6c46 a5bd 9e9f bc3b
00000270: 25cd 05be 4083 8d3d 5cdc 71bd 4565 c4bd
00000280: 9998 20bc 0026 13be 896e 12be cac0 c3bd
00000290: 1ffa dbbc 807e 0ebe 6d1e 2ebe 3199 0ebd
000002a0: ee4b 013c 6ef5 f3bd f5df f8bc d3f0 0c3d
000002b0: 3986 1e3d e3e4 fb3d 1d32 7abd e957 8ebd
000002c0: f4fd da3d 74b1 8a3b 6874 1d3e ebd2 65bd
000002d0: 1830 843d c4cb 33bd 9088 9d3d 9234 a2bc
000002e0: 8552 b4bd bda9 afbd 9555 3c3e 9613 d93d
000002f0: 8e70 84bd 74e7 a7bd 9acf bb3d 6de3 a03d
00000300: 6720 d43d 97ad 313d ee09 a83d 5ea9 2f3e
00000310: 4e69 923d b647 1e3e f9b4 12be 578d 953d
00000320: dd49 56bd 659a d83d d303 223d b2c4 87bc
00000330: 017c 4bbe 8480 4abe 760b f1ba 6921 a5bc
00000340: 2915 363e e61e 8dbd 623e 08be 9ef3 9d3d
00000350: e6bc cdbd d7be 2dbb a6a3 1cbe 1db2 b33c
00000360: 38a3 0c3e 2bca bf3d 6cc7 123e d4f6 ce3d
00000370: cdea 25bd 2bd9 103e 4e30 12be 6229 f0bd
00000380: bd3b b5bd ecf7 453d 8d7e e3bd e499 be3d
00000390: 34db 37bd ea3b 02be 156f f1bc b5c0 c43d
000003a0: 9533 fcbd f37b 83bd 5fe6 023e 7244 eebc
000003b0: 84bc 65bd bb3a f2bd c641 6cbc 2516 24be
000003c0: cb5c 38be b4e6 f7bd d4c9 afbd bcc3 69bd
000003d0: 9933 91bd 7527 07be 1b51 31be b4cb 30be
000003e0: e2ee 3abe c1e4 1dbe 15f7 653d 1d12 1c3d
000003f0: 2d05 9fbd 429b 1d3e 3540 f03d a659 f1bd
0.12043958 0.118981875 0.054961294 0.15275058 0.016380046 0.1310602 -0.0778298 -0.08754349
-0.048034064 0.18593135 -0.118455164 -0.008530354 0.17101483 0.17107055 -0.029999834 -0.017022679
-0.09029581 0.1300012 -0.012874193 -0.02520494 0.12729461 -0.074487805 0.15069135 0.1790932
-0.037451997 0.122418515 0.05540072 0.17859767 0.15894483 -0.10721136 0.16833442 0.08235092
-0.09173704 0.02022671 0.123370565 -0.14922097 0.015484105 -0.038049 0.020254057 0.11178514
0.18968998 0.16774362 0.13918595 -0.08848993 0.052166887 -0.04841813 0.10011831 0.007430555
-0.10436318 -0.076876596 -0.012858507 -0.07892755 -0.03886898 -0.0458846 -0.029497435 0.0011256551
0.13336916 -0.044182647 -0.1584077 -0.018786883 -0.17981155 0.017679673 -0.102861755 -0.12599656
0.053643495 0.08971995 0.066570215 -0.08968902 -0.020744208 0.20193914 0.12498364 -0.0897958
0.007176662 0.036019403 0.026192239 0.10322276 -0.112206854 0.14762908 -0.06331553 0.16848947
0.23425168 0.022630712 0.03694824 -0.046293564 0.034032147 0.13411985 0.10672343 -0.014440488
-0.014401915 -0.10452325 0.109894164 0.029417155 0.06080127 -0.042618748 0.023608014 0.010496749
0.08744635 -0.10735385 0.0549767 -0.023541203 -0.14889245 0.08497184 0.020709045 0.09679732
-0.12974 -0.019337755 -0.17595884 -0.17303568 0.07103876 -0.10224941 -0.12437815 -0.18228003
-0.034735322 -0.06915732 0.096659094 -0.06495009 -0.09873364 -0.11064245 -0.023295337 0.120200746
-0.007087905 0.056255586 0.009418839 -0.06905024 0.1347865 0.0965078 -0.16184182 -0.063632675
0.018240513 -0.18407889 -0.1250437 0.104435965 -0.08734621 -0.09821352 0.064928986 -0.14573033
-0.11568124 0.06304853 0.06859718 0.023960957 0.11456841 -0.02518896 0.11598107 -0.009420011
-0.06224642 -0.038389433 -0.052161384 0.03998696 -0.069341324 -0.14308903 0.03520742 -0.08172952
-0.09557731 0.018757857 -0.080700725 0.0057563325 -0.13066538 0.069097996 -0.05904804 -0.09589628
-0.009802007 -0.14369965 -0.14299978 -0.09558256 -0.026852665 -0.13915443 -0.17003794 -0.034814063
0.007891638 -0.119120464 -0.030380229 0.034409355 0.038702223 0.12299516 -0.061082948 -0.06950361
0.10692969 0.00423258 0.15376437 -0.05610935 0.06454486 -0.043895498 0.07692063 -0.019800458
-0.08804802 -0.08577297 0.18392022 0.10599439 -0.064667806 -0.08198443 0.09170456 0.07855878
0.10357743 0.04337844 0.08205019 0.17154452 0.071489915 0.15457043 -0.14326848 0.07302349
-0.052316535 0.105763234 0.03955443 -0.016573284 -0.19871522 -0.19775587 -0.0018390256 -0.020157533
0.1778151 -0.06890659 -0.13305047 0.07712482 -0.10045795 -0.0026511454 -0.15296802 0.021935517
0.13734138 0.09364732 0.14333886 0.101056725 -0.040507127 0.14145343 -0.1427624 -0.11726643
-0.08849285 0.04833214 -0.11108122 0.09306696 -0.044886783 -0.12718168 -0.029471913 0.096070684
-0.12314526 -0.06420126 0.12783192 -0.029085372 -0.056087986 -0.11827608 -0.0144199785 -0.16024072
-0.18004148 -0.1210455 -0.085834175 -0.057071432 -0.070899196 -0.13198645 -0.17316096 -0.17265207
-0.18255189 -0.15419294 0.05614384 0.03810321 -0.07764659 0.15391257 0.117309965 -0.11784677

weight f4 [8]
00000000: 309f 773f 7318 7d3f 704e 7b3f fbfd 7e3f
00000010: 6095 863f 46c4 7e3f 9f99 813f e86b 803f
0.96727276 0.9886543 0.9816656 0.99606293 1.0514336 0.9951824 1.0125006 1.003293

bias f4 [8]
00000000: 964e ac3b 5582 ed3c 6df0 413c 1f62 1d3b
00000010: 8896 343c 6c0c 643d e8df e93c 37e8 3e3b
0.0052583916 0.028992811 0.011837107 0.0024014784 0.011022218 0.05567591 0.02854915 0.002913011

running_mean f4 [8]
00000000: 10e3 993f 7516 133e 3f80 073f 699d 16bf
00000010: 24d3 93bf 06e9 9e3e a3b3 80bf 38ac 15bf
1.2022419 0.14364035 0.52930063 -0.5883394 -1.154881 0.31037158 -1.0054821 -0.5846591

running_var f4 [8]
00000000: 4ab9 903f 18f4 013f d62d 1f3f 8e44 2c3f
00000010: 294a 773f 20bf f13e 9b0c 983f 0dc9 3e3f
1.1306546 0.5076308 0.62179315 0.67292106 0.96597534 0.4721613 1.1878847 0.7452553

weight f4 [8, 8, 3, 3]
00000000: ebe9 953d 0238 b7bc fa06 b1bd 14be 863d
00000010: 5c98 52bc 7c07 a5bd 7c9f 34bc 8120 553d
00000020: 1df2 d93c 2d8e ce3d 2f72 d6bc d180 633c
00000030: 8b82 fc3d e494 88bd 8167 b23d 8cc2 833d
00000040: 493f bd3d 3785 023c 5964 a5bd a8d7 f03c
00000050: ec81 e43d 7a37 d93c 160f 933d d7ff 823c
00000060: 7540 d83d bbea 243d a6f4 d03d 3024 99bc
00000070: c29d ff3c 6533 ff3c 5656 e03d e291 f8bd
00000080: 9e3d eabd 209a 82bc 2a87 babd e662 403c
00000090: 5b6e 13bd 2bf4 dc3b 262b b13b 0c56 013a
000000a0: 9e76 afbd 1c58 9ebd 2ec4 01bd 1496 afbb
000000b0: bf3b 30bd 56e5 98bc 63d2 9e3c 435b 843b
000000c0: a71e df39 e578 a0bd 5792 abbd 3605 dd3d
000000d0: 4e09 b13d 2740 d03d 6f6b 4fbd 103c a2bb
000000e0: 3825 9abd a340 bb3d 8149 fcbd a616 8e3d
000000f0: c829 7fbc dec7 a53d 0db5 b9bd c555 273d
00000100: 48ba 9f3c df94 88bc 2b21 42bd 7fb4 ad3d
00000110: e5d1 493d f9dc bf3d 2699 c9bb 354a 32bd
00000120: 90dd 153d 5127 643d f909 3b3d 2841 043d
00000130: 5e70 62bd a128 eb3c 0914 6abd 27a7 c1bd
00000140: 7023 5ebd cd90 dc3d 4cb5 893d a5a9 cd3d
00000150: 6ce0 25bd 9e49 fb3a 77d4 7b3d 9d5f a43d
00000160: a9cf 833d 0525 be3c 95cf d8bd 7d1b 86bd
00000170: 9315 0d3d ddb7 96bd 87f1 eabd a546 9b3d
00000180: 2237 eabd a1d5 d0bc 06ef c9bc b848 3fbd
00000190: 848b afba d7e3 c63c 4e4d 903d 9935 a03c
000001a0: 6799 b13c 7f8d debd 7b83 b7bc 88da bdbd
000001b0: d499 913d a244 1bbd 5069 d53c 46ca bebd
000001c0: 0f03 0abe 3be2 c4bc e17e c1bd ab46 20bd
000001d0: 48e7 6f3d ef2c d63c 6012 e93c 1cc6 bd3d
000001e0: 0bd9 5dba e096 be3d a127 b63d 662e 083d
000001f0: 48b2 7dbd f9be 7b3d 4cf8 abbd c5db e33d
00000200: 784b 7dbd 8e9e 0dbd b409 a4bd fe5c a4bd
00000210: 6e2f 7bbb ea91 c93d c82c e93d 8b6a d2bd
00000220: 389d 37bd ad78 813d d74e ff3d 059f f83a
00000230: 1390 793c 0309 a8bd 1acb 97bd 854a b5bd
00000240: 312f 983d c841 dd3d cc3c bdbd 49ef 113d
00000250: b97b 953c 8436 f0bd 89d5 8e3d e087 903c
00000260: 0ff9 eb3d 7dbe c13d 0d21 973d c651 05bd
00000270: 884c 2dba 8cf8 2b3d bce5 d9bd a6f8 fdbd
00000280: f8b8 a43c b53e c1bd 84db aabd ebf9 bbbd
00000290: fca0 48bd 196f 5c3c 510d 85bd 01a2 95bd
000002a0: c755 a5bc da57 503d 0ff4 b9bc 11c4 783d
000002b0: 5339 7a3d 36f4 74bd 5723 843c 1bb6 85bd
000002c0: 329d 56bd 8044 00bd 0aad 62bd 8e29 3c3c
000002d0: 1574 4fbd 4ae5 f0bc ae40 d23d e236 6d3d
000002e0: bb28 683d 8467 f53c 696a d4bc 46d2 11bd
000002f0: 55f2 37bd b5fc 723c c56c 7cbd 3ad9 773d
00000300: 7e7e aabc ffd8 ebbd 4f58 4ebc 95ce 963d
00000310: b530 ec3c 08d1 82bd e181 033e 625f 44bd
00000320: 66ef 0b3e 6027 383d 7fbb 3fbd cda0 973d
00000330: ef12 4abd f4c4 78bd ad1c aebd c9a4 d43d
00000340: 29b0 343c 2262 29bd 7f13 233d 42fe 89bd
00000350: 0cf7 5dbd 0c9f 1abd 4254 40bd af6d 07be
00000360: 1614 803d 564a 38bd a4da f3bd 4b43 88bd
00000370: 4817 dbbc 680e 12bd 7c62 a53d a0ec ee3c
00000380: a16e f03c bc00 d7bd a497 4a3c 58bf 25bd
00000390: b322 6a3d 0356 a43d c3ed 6f3d fb84 90bc
000003a0: 4584 9ebc e526 dcbd 8f9f 433d e5c7 e43c
000003b0: 95b1 fabd 9fcb d8bd 2452 07bd 96c0 93bd
000003c0: fd1f 44bd 9e2b bcbc 68b2 7c3d 5df2 1bbd
000003d0: 6d5f 103e 7cd7 b63c 13f7 933d 2e74 e3bc
000003e0: d998 863d f158 893d dd4f 89bc 20af 84bd
000003f0: 75c1 043e adce 323e 122c 1c3e 4f05 15bd
0.07320007 -0.022365574 -0.08643909 0.06579223 -0.012853708 -0.08058068 -0.011024352 0.05203295
0.026604706 0.10085712 -0.026177494 0.013885693 0.123295866 -0.06669024 0.08711148 0.06433591
0.09240586 0.007966331 -0.080757804 0.029399708 0.11157593 0.026515711 0.07180612 0.015991135
0.10559169 0.04026292 0.10202913 -0.018694013 0.031203154 0.031152437 0.10953967 -0.121372
-0.11437534 -0.015942633 -0.09107812 0.011742329 -0.035993915 0.0067429743 0.005406755 0.00049337815
-0.08567546 -0.07731649 -0.031681232 -0.005358467 -0.04302573 -0.018664043 0.01938743 0.0040391996
0.00042556712 -0.07835559 -0.083775215 0.107920095 0.08644353 0.10168486 -0.050639566 -0.0049510077
-0.0752663 0.09143188 -0.12318707 0.069379136 -0.015573926 0.08094762 -0.09067736 0.04085328
0.019498006 -0.01667255 -0.047394913 0.084816925 0.049272437 0.09368319 -0.00615229 -0.0435278
0.03658825 0.055701558 0.045663808 0.0322887 -0.055282943 0.028705897 -0.057148013 -0.0945571
-0.054233015 0.10769806 0.06724033 0.10042123 -0.04049723 0.001917172 0.06148192 0.08026049
0.064360924 0.023211012 -0.10586468 -0.06548212 0.034444403 -0.07359288 -0.11471849 0.07581834
-0.11436297 -0.025492491 -0.024650108 -0.04670021 -0.0013393019 0.024278564 0.07045995 0.019556807
0.021679593 -0.10866832 -0.022401562 -0.09270197 0.071094185 -0.03790725 0.026051193 -0.09315924
-0.1347773 -0.024033656 -0.09448028 -0.039129894 0.058570176 0.026144473 0.028451145 0.09266302
-0.0008462823 0.09306121 0.08894277 0.033247374 -0.0619376 0.061461423 -0.08396968 0.11125902
-0.06183955 -0.034575038 -0.08009663 -0.08025549 -0.003832783 0.09842284 0.113854945 -0.10274228
-0.04482767 0.06321845 0.124662094 0.001896829 0.015232104 -0.08204844 -0.074117854 -0.08852104
0.07430876 0.108035624 -0.09240112 0.03562859 0.018247472 -0.11729148 0.06974322 0.017642915
0.115221135 0.09460161 0.07379351 -0.03254869 -0.00066108303 0.04198508 -0.106395215 -0.124009416
0.020107731 -0.094357885 -0.083426505 -0.091785274 -0.04898165 0.013454222 -0.064966805 -0.073062904
-0.020182503 0.05086503 -0.022699384 0.06073386 0.061089825 -0.05980321 0.016130133 -0.065288745
-0.052396007 -0.031315327 -0.055340804 0.011484517 -0.050647814 -0.029406209 0.10266243 0.05791367
0.05667947 0.029956587 -0.025929647 -0.035600923 -0.04490884 0.014830758 -0.06162717 0.060509898
-0.02081227 -0.11515998 -0.012594297 0.07363621 0.02883182 -0.06387526 0.12842514 -0.047942527
0.13665542 0.044959426 -0.04680967 0.07403717 -0.049334463 -0.060734704 -0.08501563 0.10382993
0.011028328 -0.041353352 0.039813515 -0.06737949 -0.05419068 -0.037749335 -0.046955355 -0.13225435
0.06253831 -0.044992767 -0.11906937 -0.0665346 -0.0267445 -0.03565827 0.08075425 0.029165566
0.029349627 -0.10498187 0.0123652555 -0.040465683 0.057161998 0.08024218 0.058576357 -0.017641535
-0.01935018 -0.10749606 0.04775959 0.027927348 -0.12240902 -0.10585713 -0.03303732 -0.07214467
-0.04788207 -0.022970017 0.06169358 -0.038072933 0.14098902 0.022319548 0.0722486 -0.02776536
0.06572122 0.06706417 -0.016761715 -0.06478715 0.12964423 0.17461653 0.15251186 -0.036382016

weight f4 [8]
00000000: f338 813f b3f3 7d3f 47c6 823f e97b 813f
00000010: 6c10 843f 9710 813f a80c 833f 8eaa 803f
1.0095505 0.9919998 1.021676 1.0115939 1.0317512 1.0083188 1.0238237 1.0052049

bias f4 [8]
00000000: c49f af3c 5fc6 f73a cccd 803c 5602 103d
00000010: e101 c23c 8470 c83b 37d0 d83d e64b 0a3b
0.021438487 0.0018903724 0.015723132 0.035158478 0.023682537 0.0061169285 0.10586589 0.0021102368

running_mean f4 [8]
00000000: c3a6 3a3e a8bd c6bd 4edb 5ebe 5548 4f3e
00000010: 4b73 3cbf 4085 6abe 5127 76bd 3cfb 44be
0.18227677 -0.09704143 -0.21763346 0.20242436 -0.73613423 -0.22902393 -0.06009609 -0.19236463

running_var f4 [8]
00000000: 297b 693e 2422 263e 57d7 f73d 0dc3 633e
00000010: bdf9 123e 3511 053e b865 813e 9d6f f33d
0.22800888 0.16223961 0.1210162 0.22242375 0.1435308 0.12994845 0.25272918 0.11886523

weight f4 [8, 4, 1, 1]
00000000: e306 b73e f827 83be 00f0 b03e f32f 473e
00000010: f457 ea3c e34c 243d e4ea a2be 052e d33d
00000020: 355a 8ebe 9cf9 a4be 4897 79be 7c31 6ebc
00000030: a664 37bb 4adf f13d 8f5f 99be 3620 fd3d
00000040: 1132 3cbe 6247 03be 5ce5 32bd 1a17 0ebb
00000050: b8a9 d83e 5c4f 6cbe 847a 57be f445 e53e
00000060: fbe7 a03e b860 923e 3c34 41be e2f0 e43e
00000070: 4b0b 6abe 27f3 cb3d d25a c5be d28b 9fbe
0.35747442 -0.2561643 0.34558105 0.19451885 0.028606392 0.040112387 -0.31819832 0.10311512
-0.27803198 -0.32221687 -0.24374115 -0.014538165 -0.0027983575 0.11810167 -0.29955718 0.123596594
-0.18378474 -0.12820199 -0.043675765 -0.002168125 0.42316985 -0.23077148 -0.2104283 0.44779932
0.31426987 0.28589416 -0.18867582 0.4471503 -0.2285587 0.09958487 -0.38545853 -0.31161362

weight f4 [8]
00000000: ae1a 713f 6b2e 7e3f 326e 7e3f 3651 813f
00000010: d038 7d3f 9c4a 723f a0da 7b3f a0ae 7b3f
0.94181335 0.9928958 0.99386895 1.0102909 0.98914814 0.94645095 0.9838047 0.9831333

bias f4 [8]
00000000: c49f af3c 5fc6 f73a cccd 803c 5602 103d
00000010: e101 c23c 8470 c83b 37d0 d83d e64b 0a3b
0.021438487 0.0018903724 0.015723132 0.035158478 0.023682537 0.0061169285 0.10586589 0.0021102368

running_mean f4 [8]
00000000: e5b4 f93e 2ba0 ddbd 7f14 44bf 0d54 22bd
00000010: 6a29 acbe e83e a33e a702 373f f723 1cbf
0.48770824 -0.10821565 -0.76593775 -0.03963094 -0.33625346 0.3188393 0.7148842 -0.6099238

running_var f4 [8]
00000000: 61e9 aa3e bb3e d13d 4e6f 093f c065 d43d
00000010: 051f f33d cdb2 f73e f8bf 2e3f 9232 9d3e
0.3338118 0.10217043 0.5368546 0.1037097 0.11871151 0.48378602 0.6826167 0.30702645

weight f4 [8, 8, 3, 3]
00000000: 547b ddbd 1554 c1bc 7524 dd3d b0b5 aa3d
00000010: f486 50bc f307 67bd a868 d8bd 7b77 bcba
00000020: 7cdf 093c 674c 8bba cbaf dfbc 7f35 073e
00000030: 6950 b53d 690c c13d daa7 b8bc 2a83 4e3d
00000040: c8d2 2f3a 640d 0abd d526 0ebd 1a0f d6bb
00000050: 1431 043d 42aa d8bd 973d 393d a4f4 1e3c
00000060: 6aef d4bc 8bef ffbd 3a1e fcbd f44b ddbd
00000070: e859 323d 9c74 30bd bbbd 85bd d82c 713d
00000080: 5a1c efbb 4f83 5cbb 6ee9 04be 2bc4 a6bd
00000090: c501 d33c ce62 a93b d33a 86bd ee8f 24bd
000000a0: 17bc 96bd 6409 043d 70d3 e8bd 0554 abbb
000000b0: 38a2 fabd 5e90 2d3d e947 fbbc 85c1 46bd
000000c0: e9cd 4dbd c80e df3b 8cbc c8bd 4f7c 4dbb
000000d0: 8653 9a3d 9906 d03d 4a8c e43c 30d8 4c3c
000000e0: 6869 b8bd 146d 27bd ff3c a13d 9cf4 19bd
000000f0: 4bc2 4bbc b8c3 4bbd 45b9 8cbb 54a3 e23d
00000100: b8e2 17bd 36b7 51bd af56 0fbd 9cd0 f4bd
00000110: 299c 943b 3530 c2bd e990 60bd f22a e13c
00000120: d50d a1bd 1bc4 c93d ced8 753d 275a 853b
00000130: f769 1abe 9754 353d fdef 9bbd c221 8e3c
00000140: 2d2d d7bc 60aa 9abd 38e6 b73c 527f 2c3d
00000150: 1f71 243e 05ec 083d 679e 6bbd d815 0abd
00000160: c6ac f2bd e979 c9bd 6add 023d b6a7 523d
00000170: 0859 3d3d 0371 ebbd a740 f0bd c815 103c
00000180: a48a 203d 7fd7 523d a590 79bc 389e b03d
00000190: 9bf3 bdbd 41d9 a7bd e743 6cbd c991 df3d
000001a0: ead8 913d 23e0 bbbd cf69 be3d b0d5 aebd
000001b0: 3cf6 c2bd a168 2c3c bc85 323d 5002 803d
000001c0: 4b89 f73d e3c4 833d 0057 8a3d 8940 a0bd
000001d0: 4ad4 8abd cd12 003d a917 bcbc 22d8 fdbc
000001e0: 01da 993b c8ff af3d 152b 4abd 6d7b 30bd
000001f0: e08c 1d3c c051 bbbd fe5c 223e 3d02 b53d
00000200: 07af b93c d1a6 d63c 5a7b 173e 37e1 19bd
00000210: 56a9 a4bd 4b7f d83d d12f 54bd 187e 85bd
00000220: 668b 58bc 301b a1bd 71ff b0bd abe4 b13d
00000230: fc1c 86ba ac73 da3d ea75 6d3d f30a d4bd
00000240: f157 d63d 22a8 ae3d 6450 a43d 115d ccbc
00000250: f9a8 dc3d c255 c8bd 2d0c b83d 7a5a 253d
00000260: b76e 553d 1051 903d d0ee 72bb 45c9 e5bd
00000270: 567b 87bd 8ac1 bfbd b320 0cbd 6194 e6bd
00000280: f2b4 da3c eb82 5b3c 52e5 5e3d 077f df3d
00000290: acd7 c5bd 94ba 503d 1d9e cebd ff9f aebd
000002a0: 198c c6bd b5f5 79bd 86d4 8ebd c53d 9d3d
000002b0: 68c0 df3d bb4d 4abc cbc5 4fbc cb0e 8fbd
000002c0: 6cbe 96bd 21e8 17bc a0c4 28bd d92b e5bd
000002d0: 8a5b a7bd c7aa d1bd 53fd d73d bd0b 3bbd
000002e0: a70d 6c3c ce98 833d 5205 7bbd 5581 d6bd
000002f0: b99a d63d 14d1 cabd e0f2 f63c 0839 703d
00000300: 4f36 6e3d 6c53 cabd 9eb3 8a3d 1cfe 003e
00000310: a644 ddbc 158f d63d 1953 c1bd 7959 37bd
00000320: 5260 7a3d 93aa e83c 63fc eabd 7fd1 ecbd
00000330: 1322 bebd 5b61 b3bb 7a4b 87bd f6ee d53d
00000340: 49ce b4bd 11c0 5ebd c041 d1bb bd04 da3c
00000350: 9fce b9bd 0122 ba3d 2d35 d23c e204 86bb
00000360: 77a8 9ebd 9c7a 42bd 6f59 a7bd 5aab debd
00000370: 5693 783d 0f07 c63c ca8d 8b3c 9955 89bc
00000380: ba9e ab3c c988 da3d bed9 1cbd c0f5 083d
00000390: aa24 3c3d 49e4 cf3d e073 91bb 8416 6abd
000003a0: ed5a a73c 54dc 183c 52dc 29b9 7b46 67bc
000003b0: 8052 0e3e 1b62 7a3d 5cae 5f3d e3ef 293e
000003c0: 1890 683d cee4 2bbd 1e31 d1bd 0a00 ebbc
000003d0: 1e34 bc3c 4df8 f03d b812 523d fd88 b33d
000003e0: dcb3 003e 4f5f 943d 5874 173d a27c c8bd
000003f0: 2374 cbbd 6961 81bd 984f e9bc 9b29 dabc
-0.108145386 -0.023599664 0.10797969 0.083354354 -0.012727488 -0.056404065 -0.105668366 -0.001437887
0.008415099 -0.0010627628 -0.027305504 0.13204001 0.08853228 0.09426195 -0.022540975 0.050418057
0.0006707129 -0.033704177 -0.034705 -0.006532562 0.032273367 -0.10579349 0.045224752 0.009701882
-0.025993068 -0.12496861 -0.12310453 -0.108055025 0.043542773 -0.043079957 -0.06530329 0.058880657
-0.007297081 -0.0033647602 -0.12979671 -0.08142885 0.02575768 0.005169249 -0.065541886 -0.040176325
-0.07360094 0.032235518 -0.113684535 -0.005228522 -0.12237972 0.042374007 -0.030673938 -0.0485244
-0.0502452 0.006807182 -0.098015875 -0.0031354611 0.07535462 0.101575084 0.027898926 0.012502715
-0.0900448 -0.04087551 0.07872962 -0.037586793 -0.01243646 -0.0497472 -0.004294547 0.110663086
-0.03708145 -0.051200114 -0.034994777 -0.119538516 0.0045352173 -0.09481851 -0.054825697 0.027486298
-0.078639664 0.09851857 0.060021214 0.004069585 -0.15079485 0.044270124 -0.076141335 0.017350081
-0.026266659 -0.07552028 0.022448644 0.04211361 0.16058777 0.03342821 -0.05752411 -0.033712238
-0.1184936 -0.09837706 0.03194944 0.051429473 0.046227485 -0.11496165 -0.117310815 0.008794256
0.039194718 0.051475044 -0.01523224 0.08623928 -0.0927498 -0.08195735 -0.057681944 0.10916478
0.07121451 -0.0917361 0.09297525 -0.085368514 -0.09519622 0.010522992 0.04358457 0.06250441
0.120867334 0.064340375 0.06754875 -0.07824809 -0.06778772 0.03126793 -0.0229605 -0.03098685
0.0046951775 0.08593708 -0.049357492 -0.043086458 0.009616107 -0.09146452 0.15855786 0.088383175
0.022666467 0.026202591 0.14793149 -0.037568297 -0.08040111 0.10571154 -0.051803414 -0.06518191
-0.013216829 -0.07866514 -0.086424716 0.08686193 -0.0010232027 0.10666594 0.05797378 -0.10353651
0.10465992 0.085281625 0.08023146 -0.024946721 0.107744165 -0.09781982 0.08986697 0.04036949
0.05210754 0.070467114 -0.0037068613 -0.1122003 -0.06615321 -0.093630865 -0.034210872 -0.1125877
0.02669761 0.0133979125 0.054417916 0.109129004 -0.09660277 0.050959185 -0.100887515 -0.085266106
-0.0969469 -0.06102534 -0.069741294 0.07677797 0.109253705 -0.012347634 -0.012681435 -0.069852434
-0.07360539 -0.009271652 -0.04120314 -0.11190004 -0.081717566 -0.10237651 0.10546365 -0.04566549
0.014407552 0.064256296 -0.06128437 -0.10473887 0.1047873 -0.0990316 0.030145109 0.05864814
0.05815726 -0.09879193 0.067725405 0.12596935 -0.027010273 0.104765095 -0.09439678 -0.044763062
0.061127014 0.028401649 -0.1147392 -0.11563396 -0.09283843 -0.005474252 -0.06606193 0.10445969
-0.08828408 -0.054382388 -0.006386012 0.026613588 -0.09072613 0.09088517 0.025660122 -0.0040899375
-0.07746976 -0.04748021 -0.08171355 -0.108725265 0.060687385 0.024173288 0.017035384 -0.016764449
0.02094971 0.10670621 -0.038293593 0.03343749 0.045933403 0.10150964 -0.004438862 -0.05715038
0.020429099 0.009329874 -0.00016199172 -0.014115925 0.13898659 0.061128717 0.05460964 0.16595416
0.056778044 -0.041966252 -0.102144465 -0.028686542 0.02297407 0.117661096 0.051287383 0.08766363
0.12568611 0.07244741 0.03697619 -0.09789397 -0.09934261 -0.06317408 -0.028480336 -0.026631167

weight f4 [8]
00000000: c36e 7f3f 9f7f 803f 36fe 803f 30d6 823f
00000010: 08e1 7c3f 5c22 7c3f 7d01 803f 1d69 7e3f
0.99778384 1.0038947 1.0077579 1.0221615 0.9878087 0.9848993 1.0000454 0.9937914

bias f4 [8]
00000000: 3141 953c b971 2b3c 9519 6a3c f2ea 233d
00000010: c267 39bc b81f a13a 36cb 103d 30a3 8a3b
0.018219562 0.010464125 0.014288326 0.040018983 -0.011316242 0.0012292778 0.035350047 0.0042308792

running_mean f4 [8]
00000000: 250d 25bf f4dd 0c3e 58f5 e0be 5325 c93e
00000010: f7ce 7ebf 986d 86be ac3a 183f f143 ea3e
-0.6447318 0.13756543 -0.43937182 0.3928629 -0.99534553 -0.26255488 0.59464526 0.4575496

running_var f4 [8]
00000000: abe8 853e 7547 b93e a843 b13e bfcf f03e
00000010: 05b5 043f e707 ca3e 9281 0c3f 5e5e 983e
0.26154074 0.3618733 0.3462193 0.47033498 0.51838714 0.39459154 0.5488521 0.29759496

weight f4 [8, 8, 3, 3]
00000000: 5baa 3b3d 4561 ed3c 0e9a 253d 410a 1a3d
00000010: d452 b6bb 86c5 aabd 426a e0bd 2b9c cf3a
00000020: 3246 49bd e55c 24bc 3b9c 2abd cf95 b2bd
00000030: 90ef 9b3d 8b1b 143e 6f05 183d c1d4 b53d
00000040: d412 8a3d b289 df3c e1b7 48bd 3a5a 4bbd
00000050: 07df f5bd 649a 363c 463e fc3d 5a49 5b3d
00000060: 512f 73bd 25b9 cdbd 8ac3 ebbd ff54 a33c
00000070: 01e1 2bbd bf80 f43d 56ea 963d a824 fdbd
00000080: 6d53 af3d 6f36 b13d 9775 12bd 0057 ccbd
00000090: 4684 e0bb 4803 b43b efa3 273d fb79 b03d
000000a0: 164e d9bd 2346 babd 4b86 a73d 91b8 59bb
000000b0: 29b9 8cba 3bc3 d33d 3476 f9bc 9525 ad3d
000000c0: 3d82 1a3d 22c6 50bd 7684 bf3d 244e aabd
000000d0: 1930 95bd 39aa 60bd 234c e63b b952 4dbd
000000e0: 135c ad3c 5de1 223d f068 243c 2fc9 1fbc
000000f0: fdde e43d c10b 9dbc f74b c73d 4274 85ba
00000100: 2a02 a1bd 581f 09bc c596 ca3d b1ec 22bc
00000110: 37e9 52bd 066e e3bd 0e95 953c 7764 0c3d
00000120: 77cc b2bc c777 033e 89d7 8bbd 7937 873c
00000130: 58a6 c23c 0245 803d 13ba 41bd 7332 6dbd
00000140: 2e60 09bd a648 373d 58a6 99bd 9378 0dbd
00000150: c15c 5a3d 9297 f23c e3b8 38bd 8314 81bd
00000160: bb6b 363c d4ee 0a3c 71db 35bd f456 b23d
00000170: 147f df3d 7717 dbbc 7615 a23d 0331 163d
00000180: fba1 2bbd db16 963c 5d72 a5bd 7892 823d
00000190: 3528 1b3c f58d 0a3c 891e 343d b287 523c
000001a0: cbd7 99bd ca83 9a3d 2956 093e cff5 d43d
000001b0: ce59 bb3d a0c1 05bb 4147 83bc 9349 ae3c
000001c0: c7ec c03d 2a0a ce3d 16ef c4bd d0f5 da3c
000001d0: 767e b73c 3338 3339 c9b7 843d dbff f0bc
000001e0: 1c4c e9bc 3bfc 99bc 3609 ad3c bb44 693d
000001f0: a950 7fbc d327 dabd d092 ecbc cdf6 4ebd
00000200: d120 793c 6f37 d1bd e4bf db3c 3b8b 29bd
00000210: 1b88 c5bd ba1c adbd 026f 94bd 5bd7 5ebd
00000220: 2034 b9bd d561 853d ac1f b73b d60b a73d
00000230: f625 e73d 19da 74bd 593d c6bd f99a d7bd
00000240: e3d4 2cbd 56f6 88bd 0e66 813c 6552 cb3c
00000250: 605f 52bd f78d be3c 7963 bdbd cb7c 933b
00000260: 9ffe 053e b6ed 9dbd 2441 1dbd 9b5b ae3b
00000270: 81e4 fa3c ea7e 23bd b923 a1bd b2df b3bc
00000280: 2610 623c c337 0cbd a8d3 1bbc 05dc 70bc
00000290: 8440 c2bd 0cae f63c d1fa 853d 0348 083d
000002a0: 3e12 c2bc b294 013e c2ed eb3d 5bae 053d
000002b0: b95c d13d a2a2 753d 3c32 57bb 823c 11bd
000002c0: bc0b 48bc f6c7 34b7 c4d5 dcbc d47c 4ebc
000002d0: 69c3 03be fa92 01be 8008 893d 8750 cb3a
000002e0: ebf8 963d 7e1b 713d 7ef9 88bd 7349 f53c
000002f0: ea22 4c3c a666 893d 16ee c83d c099 45bd
00000300: 561b 29bb c0f6 8ebd 02e2 2a3d f14a b53d
00000310: 783a 42bd 8042 293d 68c5 003e c2f8 c6bd
00000320: 6a50 b43d 26e2 d43d d7c5 eb3d 9e73 9f3d
00000330: 4fa2 8cbc baa5 1ebd 02af 26bc 01c0 653c
00000340: d983 4ebd 0e44 44bd b8dc 303c 6022 e1bc
00000350: d97c 0bbe 9a2a d8bd 21ef 88bd 0b08 f4bd
00000360: e26e 663d a6f4 81bd f103 363d 691f 4bbd
00000370: daaf 35bb da18 50bc 71e5 3e3d bd74 623d
00000380: 1fa8 f23c 9522 203d bdfc b23d 0f92 04bb
00000390: de16 573a aea1 5bbd 6eff 36bd b8bc d73d
000003a0: 3f6e 1abc ceaa b7bd 30d6 24bd fd3b a0bd
000003b0: 52ec a4bc 5e25 aabd 9a04 b6bd 059b a4bd
000003c0: 2359 bb3c e236 96bd 0db2 393c 5a88 90bd
000003d0: 2ace 97bd b657 05bd 3055 803d 4132 003e
000003e0: 4030 d13d df7c f3bc f0ff 003e c7fa d93d
000003f0: 2e99 e4bd 1e57 793d d3a0 10bb 33ea d2bd
0.04581676 0.028977046 0.04043012 0.037607435 -0.005564073 -0.08338456 -0.10957767 0.0015839388
-0.04913921 -0.010031913 -0.0416529 -0.0871998 0.07614052 0.14463632 0.037114557 0.0887847
0.067418724 0.027287338 -0.049003486 -0.049646594 -0.1200543 0.011145208 0.12316565 0.05353675
-0.059371296 -0.10045079 -0.115119055 0.01993799 -0.041962627 0.11938619 0.07368915 -0.12360507
0.08560834 0.086529605 -0.035756674 -0.099775314 -0.0068517057 0.005493555 0.040927824 0.08617016
-0.10610597 -0.09095409 0.08179911 -0.0033221582 -0.0010736334 0.10339972 -0.030451871 0.08454434
0.03772186 -0.050970204 0.09351437 -0.083156854 -0.072845645 -0.054849837 0.007028119 -0.05012772
0.021162068 0.039765704 0.010034785 -0.009752556 0.11175344 -0.019170644 0.09731286 -0.0010181742
-0.07861741 -0.008369289 0.09892038 -0.009944127 -0.051491942 -0.1110497 0.018259551 0.0342755
-0.021826012 0.1283866 -0.068282194 0.016505944 0.02376096 0.06263162 -0.047296595 -0.05790944
-0.03353899 0.044747017 -0.07502431 -0.034538817 0.053311113 0.02961329 -0.045098197 -0.063027404
0.011134083 0.008479793 -0.04439873 0.08707991 0.1091291 -0.026744587 0.079142496 0.036667835
-0.041902523 0.018321445 -0.08078454 0.06375593 0.009470035 0.008456697 0.043974433 0.012849735
-0.07511862 0.07544668 0.13411774 0.10398447 0.09147988 -0.00204096 -0.016025187 0.021275317
0.09420162 0.100605324 -0.096159145 0.02672854 0.022399168 0.00017091706 0.06480367 -0.029418876
-0.028478675 -0.01879703 0.021122556 0.056950312 -0.015583196 -0.10652127 -0.0288786 -0.050528336
0.015205578 -0.10215651 0.026824899 -0.041392546 -0.09645101 -0.08452745 -0.072477356 -0.054404598
-0.09043145 0.065128006 0.0055884924 0.081565544 0.11286537 -0.059778307 -0.0967967 -0.105276056
-0.042195212 -0.0668761 0.015795734 0.024819562 -0.051360488 0.023261053 -0.092474885 0.0045009605
0.13085411 -0.077113554 -0.0383922 0.005320979 0.030626537 -0.039915957 -0.07868142 -0.021957252
0.013797795 -0.034232866 -0.009510912 -0.014700894 -0.09484962 0.030112289 0.0654198 0.0332718
-0.02369034 0.12654379 0.11519958 0.03263698 0.102227636 0.05996955 -0.0032836339 -0.035458095
-0.012209829 -1.0775393e-05 -0.0269574 -0.0126030035 -0.12867512 -0.12653723 0.06691074 0.001551167
0.07371696 0.05886411 -0.06688212 0.02994225 0.012459496 0.06709032 0.09811036 -0.04824233
-0.0025803647 -0.069806576 0.041719444 0.088521846 -0.04741904 0.041323185 0.12575305 -0.097154155
0.088044 0.10394697 0.11512344 0.07785724 -0.017167239 -0.038732268 -0.010173561 0.014022828
-0.05041871 -0.047916465 0.010794811 -0.027482212 -0.13621844 -0.105550006 -0.06686235 -0.119155966
0.05625809 -0.06345491 0.044437353 -0.049590502 -0.0027723224 -0.012701238 0.04660553 0.05528711
0.029621182 0.03909548 0.08739612 -0.002022866 0.00082050066 -0.053620987 -0.04467719 0.10534042
-0.009425699 -0.08968125 -0.040243328 -0.07823942 -0.020132218 -0.083079085 -0.088875964 -0.0803738
0.022869652 -0.07334687 0.0113339545 -0.07057257 -0.074123695 -0.03255435 0.06266248 0.1251917
0.10214281 -0.02972263 0.12597632 0.10643535 -0.11162029 0.060874097 -0.0022068515 -0.10298576

weight f4 [8]
00000000: 076f 7e3f 1947 833f a48d 7f3f 7ec3 7e3f
00000010: eeab 803f 972c 823f fb6c 823f f449 7b3f
0.99388164 1.0256072 0.998255 0.9951705 1.0052469 1.0169858 1.0189508 0.9815972

bias f4 [8]
00000000: f5f9 683c 259e 0d3c 2984 663c 63f6 3b3c
00000010: 70d6 243c 2a97 7d3c 636d 353d 232b c13b
0.014219751 0.008643662 0.014069595 0.011472317 0.0100608915 0.015477935 0.044293772 0.005895035

running_mean f4 [8]
00000000: 90e5 323d eede 5e3d 8c8d e33b 0a58 a8be
00000010: 692f cabe 5d82 a83d 9fed 013d 2f4a d23e
0.04367596 0.05441182 0.006944364 -0.32879668 -0.39489296 0.0822799 0.031720754 0.41072223

running_var f4 [8]
00000000: 5ea9 0a3e 168a 373e fdb3 153e 2116 8b3e
00000010: 05b3 4d3e 7cc4 153e 56c2 3c3e 3037 963e
0.13541171 0.1792377 0.14619441 0.2716532 0.20087822 0.14625734 0.18433508 0.2933898
